best_audcond.pt (torch, 837643 bytes, 30 tensors)

audionet.encoder_conv.0.weight f4 [32, 29, 3]
00000000: 955c 6abd c1bd 8fbd 6359 7abd 1193 a9bd
00000010: a4e1 e8bd ceb5 b13d 2cca d5bc c4f7 8c3d
00000020: dab7 a5bd 0871 05bd 8422 423d 44a2 ab3c
00000030: 47f4 803c 28cf eaba 7205 acbc a9f9 03bc
00000040: c05b 7cbc 7ac9 51bd 10a2 6f3d e9df b93d
00000050: 9345 083d eedc a03d 1e5e a6bd f8a1 bf3c
00000060: 954a 35bd 63dc 643d 2cc7 1a3c 9cd6 00bd
00000070: 3ac5 3ebc 29be 7f3d 9410 e03b 42bc 1ebd
00000080: f571 663d 3a9d c2bd 035b 75bd f648 10bd
00000090: 8155 493d f1ee b23d 058d 833b 6b9e 953d
000000a0: d08a 14bc 751f 093d 29d9 573a 924f fcbd
000000b0: f2bb d13d c75c e33d 4bd9 c7bd 0d88 c8bc
000000c0: eeb9 59bb 3dbf 5e3d e884 3b3d 952b c4bd
000000d0: 9d8a 633d 752c 00bd 1816 a33d 35a9 aabc
000000e0: 935a a03d 92d8 ab3c f1e2 a3bd c4da a2bd
000000f0: dc9b 22bd 2caf a53d 42eb fa3c 2061 e6bc
00000100: 8a1d c7bd 4e8b cdbc 2279 0cbd 82dc e8bc
00000110: b5b1 8c3d f81e c7bd 2b53 64bd b43b 45bd
00000120: d893 973d 751e e83d 6b98 0f3d 49f4 a6bd
00000130: 788b 993c 3d08 c13d d872 443d 417a 253d
00000140: 6845 d73d 9eb5 6abd 92fb 98bd dd65 963d
00000150: 865b d03d 41d7 f1bd 893e 9ebc 07a1 8e3d
00000160: efca 66bd 84a6 0e3d e734 f5bd 2984 cbbd
00000170: 9e03 f8bd 83e9 aebd 9c05 0abe 2bdb be3c
00000180: 73b6 a0bd d652 8e3c f404 05bd 0a65 1a3d
00000190: 5c60 543d a4d4 35bd 8773 21bd 6495 72bd
000001a0: 1a5b e4bc 428b 40bd 2d01 633d 1cc2 b4bd
000001b0: 7665 51bd 96e5 413c 40d5 083e f75f 35bd
000001c0: 58c6 f4ba 7507 d3bc 24e0 653d 0942 843d
000001d0: 6cff 97bd f6fd 53bd 083b f3bd 953c 273d
000001e0: 790e cfbd c75d b03d d28b ba3d 0bbf 8abd
000001f0: 29cb 6cbd 2c5c 54bb fe88 ff3c 5724 273d
00000200: 3432 b8bc db97 9bbd 5580 3ebd b56e 86bd
00000210: 1946 373d 2230 95bd c7da 8b3d ef84 c43d
00000220: d786 bebd cec9 d33d 4ed2 eabc 9401 adbd
00000230: 1208 e1bd dde4 713d b257 193d 2c9b 5c3d
00000240: 9347 97bc f7fa 093d 6e15 813c 9e56 b63d
00000250: 8f52 4f3d 858c c8bd 1158 683c 6cc8 443d
00000260: 49ee a6bd d437 c43c 7708 a2bd 7ccd d33c
00000270: c833 893d 33fe 66bd cef8 803d 23ff 023e
00000280: a318 c3bc 930e 5fbd 8537 d0bd 9de5 cd3c
00000290: 61b3 d23d 7917 41bc 03b1 093c 5a84 8bbd
000002a0: 3626 ebbd d139 b43d 9f90 903d e726 17bc
000002b0: 9121 8abb f71d 4ebc 11a4 8cbd c7d2 903d
000002c0: c64f f93d c1e5 223d a5c9 cc3a 1ce4 433d
000002d0: 44dc a23d b5b2 9e3d 2808 c4bd 30ad 893d
000002e0: daa5 4f3d bac1 af3d bffe 4b3d fd40 223c
000002f0: b3c3 c2bd 9c46 923d 96cc 1ebc a7a3 b93d
00000300: 9230 c43d 43c7 89bd d4a7 7e3c c5bd b5bc
00000310: 3e6c a93d 0574 8ebd 2b87 c1bd c0e6 953d
00000320: aa8f 6cbd bd07 2ebd 9809 87bd 8141 5e3d
00000330: 2960 bd3d 4f79 cbbd cb78 56bd 68c2 3cbd
00000340: 732b 953c 8c1a aebd 2ad5 c33d aa7e 4abc
00000350: b2c7 b5bd c7cc bebb 1fc7 07bc f00f 68bd
00000360: 8c55 02bd 72f5 873d 977d b5bd 30a7 83bd
00000370: 05d9 c3bd 926e 3dbd 1031 213d e5b0 c13d
00000380: 06ea bebd 4c7f 3dbd 01e8 a03d 0445 793d
00000390: 0aa2 593d 8dc2 6bbd 4c66 47bd 54ec 59bd
000003a0: 8053 c33d ac3f 75bc 6e25 aebc e356 98ba
000003b0: 047f 14bd 5d2b 0c3d 3435 50bb ed1a 5abd
000003c0: 82e1 a6bd 046a 183b 2223 953c 6408 a13d
000003d0: b70c 52bd 251d 88bd 04b5 8d3d b18d 873d
000003e0: 0e8f a9bd 24cd a13d 6178 5fbd 2751 17bd
000003f0: 4165 8f3c 8158 0c3d 5e49 453d 236e f0bc
-0.0572172 -0.070186146 -0.061120402 -0.08280004 -0.113711625 0.086772546 -0.02609738 0.06883195
-0.080917075 -0.032578498 0.047396198 0.020951398 0.01574148 -0.001791452 -0.02099869 -0.008055129
-0.015402734 -0.051217534 0.058504164 0.090759106 0.033269476 0.07854639 -0.0812342 0.023392662
-0.04426058 0.05587424 0.0094469 -0.031454667 -0.011643702 0.06243721 0.0068379138 -0.038753755
0.05626102 -0.09502645 -0.05990125 -0.03522583 0.04915381 0.08736981 0.0040146136 0.073056065
-0.009066299 0.033477265 0.00082339585 -0.12319864 0.10240926 0.1110168 -0.09758242 -0.024478937
-0.0033222395 0.054381598 0.045781046 -0.09578625 0.055552114 -0.031292398 0.079631984 -0.020832637
0.07829776 0.020977292 -0.0800227 -0.079518825 -0.03969942 0.08090052 0.030629758 -0.028122485
-0.09722431 -0.02509084 -0.03429521 -0.028425459 0.068698324 -0.09722704 -0.055743378 -0.04815264
0.07401246 0.11333934 0.035057466 -0.081520624 0.018743262 0.094253995 0.047961086 0.040399794
0.10511285 -0.05730211 -0.07469858 0.07343648 0.10173707 -0.118086345 -0.019316928 0.06964307
-0.056345876 0.03482677 -0.11972981 -0.09937317 -0.12110065 -0.085406326 -0.13478702 0.023297867
-0.078472994 0.017373484 -0.032475427 0.037694015 0.051849708 -0.044392243 -0.039416816 -0.0592245
-0.027875472 -0.047007807 0.055421043 -0.08826086 -0.05112215 0.011834523 0.13362598 -0.044280972
-0.0018674834 -0.025760392 0.05612196 0.06457908 -0.07421765 -0.051755868 -0.11876494 0.04082926
-0.10110182 0.086116366 0.091087 -0.0677472 -0.057810936 -0.0032403572 0.031193253 0.04080614
-0.022484876 -0.075973235 -0.046509106 -0.065640844 0.044744585 -0.07284571 0.06828838 0.095956676
-0.093030624 0.103412256 -0.028664734 -0.08447567 -0.109878674 0.05905615 0.03743715 0.05385892
-0.018466746 0.033686604 0.015757289 0.0890324 0.050615843 -0.09792427 0.014181153 0.0480427
-0.08150918 0.023952402 -0.07911771 0.025854819 0.066993296 -0.056394767 0.06297456 0.1279264
-0.023815459 -0.05445726 -0.101668395 0.025133902 0.1028812 -0.0117853815 0.008404019 -0.068123534
-0.114818975 0.0880009 0.07058834 -0.009225584 -0.004215427 -0.012580386 -0.06867231 0.070714526
0.12173419 0.03976989 0.001562406 0.047824964 0.079521686 0.077489294 -0.09571868 0.06722486
0.050695278 0.08581872 0.04980349 0.00990319 -0.09509983 0.07142374 -0.009692332 0.09064417
0.095795766 -0.06727459 0.015542943 -0.022185216 0.08272599 -0.06955723 -0.09449609 0.07319403
-0.057754196 -0.04248785 -0.06593627 0.05426169 0.09246857 -0.09935247 -0.05236129 -0.046083838
0.018209195 -0.08501157 0.09562142 -0.012359301 -0.088759795 -0.005822751 -0.00828722 -0.056655824
-0.031819865 0.06638612 -0.08861845 -0.06428373 -0.095628776 -0.046248026 0.03935343 0.09457568
-0.0932198 -0.046263978 0.07856751 0.060856834 0.053133048 -0.057558585 -0.048681542 -0.053203896
0.09537411 -0.014968794 -0.021258082 -0.0011622574 -0.036253944 0.034221042 -0.0031769993 -0.053248335
-0.08148481 0.002325655 0.01820523 0.078629285 -0.051281657 -0.06646184 0.069192916 0.06618822
-0.08279239 0.079004556 -0.05455816 -0.036942627 0.017504336 0.03426409 0.04816567 -0.029349392

audionet.encoder_conv.0.bias f4 [32]
00000000: c8bf ad3d 8166 843d 7bbd a13c 57a2 c83d
00000010: 2d0b 32bd 9198 1dbd 30e5 5dbd f8b3 f03b
00000020: 2571 483d 8156 32bd a449 0e3c ddcb 623c
00000030: c55b 9a3c 8dc8 523d 10f4 bc3d 3c0f 533d
00000040: a107 543d d60c dd3d 4cbc 0fbc dfb6 05bd
00000050: 189d a1bb bf62 4bbd e0c5 debb f56d b03b
00000060: 2b6e 8d3d 9f5e 43bd 4a51 213c 3708 553d
00000070: a716 ce3d 3e8f f43b 9902 19bd e698 783d
0.08483845 0.064648636 0.019743672 0.09796589 -0.04346769 -0.038475577 -0.05417365 0.0073456727
0.048936028 -0.043539528 0.0086845495 0.01384255 0.018842587 0.05146079 0.09226239 0.0515282
0.051765088 0.10793464 -0.008772921 -0.032645103 -0.004932057 -0.04965472 -0.006798491 0.0053842016
0.069057785 -0.04769766 0.009846041 0.052009787 0.10062914 0.007463365 -0.037355993 0.06069269

audionet.encoder_conv.2.weight f4 [32, 32, 3]
00000000: 2d06 ccbd 7b79 a23d 8864 88bd 4c5b e63c
00000010: aa4e b1bd c184 82bb baf5 8c3d fec7 863b
00000020: 175d 993c a42b a4ba 65ef 93bd 823e b73d
00000030: cd49 d03b 793a 7bbb ace7 27bd c262 543c
00000040: 20e9 96bb f846 9bbd 01e8 93bd 18a3 803b
00000050: 9bee e0bc fbf3 5cbc 89df a63c 4fba c7bd
00000060: d35d 7d3c ac18 1cbb 2448 cd3c 151d 9b3d
00000070: b9af b2bd 87ed 783d 2932 763d 8548 8b3d
00000080: 5339 823c 8d2c 8f3d a8f2 e4bc d28f 6d3c
00000090: e129 b23d a73b 333d fc8c 21bd 1b8b 6f3d
000000a0: 580c f2bc 0d63 4ebd 5579 d9bd 89fe ccbd
000000b0: 90e5 e33c 66ac 313d 77d9 b7bd c91c 9fbd
000000c0: 807b 5f3d 27b5 cbbc ce5a a63c 072a 8a3c
000000d0: 5c71 8d3d 6141 973d 2a36 98bc a2cc 833d
000000e0: 78b1 c73d c0f2 023c bc72 563d 7d61 893d
000000f0: 7b67 b13d c316 1fbd 4788 fabc f929 c13d
00000100: 1128 853d 7097 b7bd 47ee cc3c 191e ef3d
00000110: 4bc4 ad3d 2df0 c53d ed9c febb c205 b9bd
00000120: 0caa 8bbd f6da 433d 7b06 a2bd ef29 873b
00000130: 9d90 433d 8f3b ac3d 49d1 0ebd 5247 e0bc
00000140: ecc1 053d 49ec 2abe 8e4d f6bd 1caf b93d
00000150: 0623 8f3d d450 a5bd 635d 99bd 4e83 c7bc
00000160: 5da7 f3bc 11cc a0bd edba 31bd 935d fbbd
00000170: 28fd 9a3d d52a 8dbd 1fdb 993d ba64 80bc
00000180: 7544 983d 90c3 fbbc 11c3 e43d 5ae8 04bd
00000190: b9aa 473d a1b2 99bd 1c50 22bd e3cf c0bd
000001a0: 6031 adbd d030 8ebc a666 cbbd 75d0 67bd
000001b0: dd7e e8bc 260f 583d 6802 7bbd 4f3f c3bd
000001c0: 6439 ac3c 14e8 31bd 52fd 78bd b079 ed3c
000001d0: c521 e8bd 00b3 10bd 3cbe 9dbd fc5c 1dbd
000001e0: 3c25 93bd 8c49 963d 13cf 53bd 661b a93c
000001f0: b509 f03a d2ba e9bd 2cc4 2bbd c390 3e3d
00000200: ea0f 533a 69be 9d3d ca76 b4bb ef45 3a3d
00000210: fefe cebd 36fb b73c 23d3 8c3d 6295 903d
00000220: e63f 253a 40f5 773d 2c09 433a b199 ccbd
00000230: 3624 9b3d 351c 1cbd e3ae 63bd 25c9 8ebb
00000240: 63b1 0b3c be02 c73d bf6d 243b 8939 89bc
00000250: c961 853d 6c4b 33bc 951b c33c 2745 f1bc
00000260: 42cd 4d3d 4736 fdbc 4a4f 033d c866 4dbc
00000270: d24d 633d 8256 47bd 20b4 c53c d892 ba3d
00000280: 8352 3abd 32b3 a83d 3ad5 bc3d 3194 153d
00000290: 8547 e5bc 1ec6 8f3d 5b27 a83c c955 a8bd
000002a0: 0f26 bf3d 1337 2c3c 500d dcbd 7a44 a63d
000002b0: 1103 3c3d e545 a8bd 2ed0 833d 573b bfbc
000002c0: 14e8 a8bc 9e89 8d3d c161 fc3c 7278 333e
000002d0: ba3e 8bbd 256b 0fbb 1ca4 9bbc fd7a dd3d
000002e0: 1231 7d3c 38eb 54bd 1def a6bd 2e49 423d
000002f0: 58c3 013c e3af a3bc 61c1 d3bc 46d9 943d
00000300: 2065 b6bc 6861 583d 3299 97bd 612e 503d
00000310: 80bd b1bd e104 9c3d 573a 4a3b 1d77 ae3c
00000320: 9443 71bd 7b24 cbbc ec08 97bd 0395 963c
00000330: 6279 3dbd d227 953c 2956 bcbd 3228 19bd
00000340: 44f0 0a3d a49f 69bc bbc2 413d f047 aa3d
00000350: da47 bfbc 0724 94bd 46bb b83d 500e 99bd
00000360: e535 9abd 5416 e63d 620e adbc 256b 03bd
00000370: ac8a 2b3d c575 4fbd 3982 ce3c 4008 6a3d
00000380: 6ece bbbc 22f7 6dbd f1a3 ebbc 420d de3d
00000390: c98b d9bd 7901 9d3d 2d09 8dbd 451b 693d
000003a0: 896f 583d 5d1d a63b c7cc 26be 888b f63b
000003b0: 28a3 d5bb e720 9bbd 6363 8c3b 359a bfbc
000003c0: bbf0 afbc ff45 ac3d 1bd6 b6bc 3456 68bd
000003d0: 21ad 263d 53c9 ff3c b84a 403d 61ac 423d
000003e0: b03a 2cbd f406 bcbd 7f16 63bd 8886 d1bc
000003f0: 8963 943d e9ff fabc b119 d1bb 3b56 bfbb
-0.099621154 0.07933327 -0.066598 0.028119706 -0.08657582 -0.0039831107 0.06882806 0.0041131964
0.018721147 -0.0012525213 -0.07223395 0.08947469 0.006356454 -0.0038334413 -0.040992424 0.012962999
-0.0046054274 -0.075818956 -0.072219856 0.0039256923 -0.027457526 -0.013485904 0.020370262 -0.097523324
0.015464264 -0.0023818417 0.025058813 0.07573906 -0.08724923 0.0607734 0.06010643 0.068009414
0.015896475 0.06990919 -0.027947739 0.0144996215 0.08699394 0.04375806 -0.039441094 0.05848227
-0.029546902 -0.05038743 -0.106188454 -0.10009486 0.027819425 0.043377303 -0.08977025 -0.07769162
0.05456114 -0.024866654 0.02030697 0.016865743 0.06906387 0.07385517 -0.018580515 0.06435515
0.09750646 0.007992446 0.052355513 0.067080475 0.086623155 -0.038840067 -0.03058256 0.09431834
0.06501783 -0.08964431 0.025015963 0.116756625 0.084847055 0.096649505 -0.007770172 -0.09034301
-0.06819543 0.04781624 -0.07911392 0.004124872 0.047745336 0.084097974 -0.03486756 -0.027377758
0.03265564 -0.16691698 -0.12026511 0.090666026 0.06989102 -0.08072057 -0.07488515 -0.024354603
-0.029742891 -0.078514226 -0.043391157 -0.12273707 0.07567817 -0.06892935 0.07512497 -0.01567303
0.07434932 -0.0307329 0.111700185 -0.03244815 0.0487468 -0.07504774 -0.03962718 -0.09414651
-0.08456683 -0.01735726 -0.09931688 -0.056595284 -0.028380806 0.05274882 -0.06128159 -0.095335595
0.02102346 -0.043434218 -0.06078846 0.02898869 -0.11334566 -0.035326958 -0.077023 -0.038418755
-0.07184836 0.07338247 -0.051711153 0.020642947 0.001831344 -0.11412586 -0.04193513 0.046524774
0.00080513826 0.077023335 -0.005507325 0.04547685 -0.1010723 0.022458654 0.06876209 0.070597425
0.0006303772 0.060536623 0.00074400264 -0.09990252 0.07575266 -0.038112838 -0.055586707 -0.0043574744
0.008526179 0.0971732 0.0025089828 -0.016751068 0.06512792 -0.010943275 0.023816863 -0.02945192
0.050244577 -0.03090967 0.032058038 -0.012536712 0.055494137 -0.048666485 0.024133742 0.091100395
-0.045488846 0.08237304 0.09220357 0.03651828 -0.027988205 0.0702021 0.020526579 -0.08219487
0.09333431 0.010511178 -0.10744727 0.081185296 0.04590136 -0.08216456 0.064361915 -0.023343725
-0.020618476 0.06911014 0.030808331 0.17526415 -0.067990735 -0.0021883931 -0.018999152 0.10814474
0.015453594 -0.051982135 -0.08151076 0.04743307 0.007920109 -0.01998133 -0.025849046 0.07268004
-0.022265017 0.05282727 -0.074022666 0.05082548 -0.086787224 0.07618118 0.0030857527 0.021297032
-0.05890234 -0.024797669 -0.073747486 0.018381601 -0.046258338 0.018207464 -0.09196121 -0.03739185
0.03392054 -0.014259253 0.04730485 0.08314502 -0.023349691 -0.07233434 0.090200946 -0.07473433
-0.07529811 0.112347275 -0.021125022 -0.032084603 0.041880295 -0.050649423 0.02520858 0.057136774
-0.022925582 -0.058097012 -0.028764697 0.108423725 -0.10622365 0.076662965 -0.06886516 0.056910772
0.052840743 0.0050694183 -0.16289054 0.0075239576 -0.006519694 -0.07574635 0.0042843088 -0.023388961
-0.021477094 0.08411788 -0.02231889 -0.056722835 0.040692452 0.031223929 0.046946257 0.047527675
-0.042048156 -0.09181014 -0.055441376 -0.025576845 0.07245547 -0.030639606 -0.0063812365 -0.005839137

audionet.encoder_conv.2.bias f4 [32]
00000000: ff22 6dbd 475e 483c 032d b23d 8e18 0e3c
00000010: 0dba ae3c 2e3e d9bb 21b0 c9b9 a281 bdbd
00000020: bb95 193d f68c 8ebd ca6b b13d 43b2 9dbc
00000030: a5d1 843b aade 123d 4280 203d baf2 183d
00000040: 1e9a 413d a437 1c3d 11fb e53d 9373 b1bd
00000050: 473a 5bbd 7198 733c 83f0 a63d fe8e 3a3d
00000060: 6d6d 5ebd 23f8 033b 3362 a6bc 164c 81bc
00000070: 8d9d ad3d 7832 1a3d a5be aa3d 9c4d 9f3c
-0.057894703 0.012229509 0.086999916 0.0086728465 0.02132895 -0.006629727 -0.00038468934 -0.09253241
0.03749631 -0.0696048 0.08663137 -0.01925004 0.004053312 0.03585688 0.039184816 0.037340857
0.04726612 0.038139 0.11229528 -0.08664622 -0.053522374 0.014867888 0.08151343 0.045546524
-0.054303575 0.0020136915 -0.020310497 -0.01578335 0.08477316 0.037645787 0.08337144 0.019446187

audionet.encoder_conv.4.weight f4 [32, 32, 3]
00000000: b02f bf3d de3d 9cbc 2ba6 8e3d 0161 b63c
00000010: 493c 84bd 615c 883d c0eb 143d 0242 a33c
00000020: 8100 83bd a362 2c3b ca7d 083d 76f7 afbd
00000030: 74e9 883c 0728 2abd d6ce 34bd 095b 4a3c
00000040: 3764 ac3d c3b8 5b3d e4ec 243b b51b 6cbd
00000050: 21fe a63d 0e19 413c 1e61 63bd 4eda a1bd
00000060: 4bcf 043d 6a05 513d a141 24bd 3692 943c
00000070: df1a aebb bd95 38bd 8ae9 d6bc a98d 063d
00000080: 77d3 7c3b bd01 00be 28cc b23c c1bc 423d
00000090: 4248 c8bd 6dff 5dbc f4de 7bbd 7341 c4bd
000000a0: 01d9 bc3d 3bd5 993c 04b3 4e3c 6c0f f83c
000000b0: bc47 3d3d 3567 e43c c07b fe3b bf20 bebd
000000c0: a9eb 78bd d05b 97bd 7fd7 d5bd 42ac 5cbd
000000d0: e766 173c b021 d8bd 1e42 cfbd e0d4 243c
000000e0: 8692 afbd 115e e33c 6522 acbc 0043 6d3d
000000f0: e7cb 943d 1808 c33d a2d8 98bd 56a4 393c
00000100: 83a6 12be f736 1c3d 1c41 703d 4b14 babd
00000110: d003 963d 05b3 483d 1125 bcbd 3433 853d
00000120: 645e 5cbd eceb 1ebd 04ef d4bd 86a9 bd3d
00000130: 9fc1 aa3c bfb8 613d 2050 aabd 254a 31bd
00000140: 0ae5 183d dee1 d63d e79d 9f3d 02a1 de3c
00000150: 8252 55bd 3392 a7bc 61b0 fabd d800 aa3c
00000160: c5ef 39bd 8e29 ed3b 59cb 7c3d 2a32 633c
00000170: 6892 c03c 79f0 42bc 96cc 2bbd 3bfc 8a3c
00000180: b084 26bd 2ae3 7dbc 463e 78bc 7477 f93c
00000190: 02a1 0f3d bd48 e8bc ce8f c63c e0b0 55ba
000001a0: c1ef 203c 3c54 d63b 676d 71ba abbc 4c3d
000001b0: 4794 4cbd 8669 603d 4bf3 883d a9b5 c13d
000001c0: 4975 813d c10d 38bb 988f 2639 5e0d 813c
000001d0: d177 1b3c 21f8 a7bd 5192 523d 0f16 27bd
000001e0: f48d 5e3c c900 e73d 5468 203c 36e2 92bd
000001f0: 00ab fc3c 8130 a13d b677 6dbd fb36 a63d
00000200: a5ee bbbd c46f 4abd feef a73b 9a6e 413d
00000210: 7071 be3c b145 fc3c e482 fabc da76 b6bd
00000220: 6eb4 423d c569 2abd 2981 adbd d6a1 d3bd
00000230: 06bd a9bd 9219 b63d 269d aabd e006 383d
00000240: 9580 babc 05e1 fd3b 528c 233d e72a 9f3c
00000250: e0a4 5b3d 5e40 463d 43d0 11bc e0c3 a33b
00000260: 82e1 11bc 183a a93d 381a 6d3d 3f14 adbd
00000270: a32a 80bb dd50 b63d 1b9d a3bb 6799 1e3c
00000280: e55d dabb ae0e 5f3d 9ce3 023d 721d 12bc
00000290: c5a8 843c 8715 98bd 937f 27bd 6e0e a83b
000002a0: 337d f73c fab4 b93c e6cb 74bd 2ebe ec3a
000002b0: d8ca 8dbc cbab d63d 45a8 86ba 51ac 8b3d
000002c0: 7c05 423d 871e 82bd 6961 133d b2dd 983c
000002d0: 6125 c73c 2a0c 053c df3a 43bc 8f9e 083c
000002e0: b47e 043d 39f1 98bc 7463 ea3c 0249 783c
000002f0: a18c 3e3d c32d 253c e45f 09bb ede1 c03d
00000300: 5bf8 a83d bd58 8ebd 17c2 563d cc76 8ebd
00000310: 02bc 28bd 5cef 97bc 1ac7 253c 5a30 b13d
00000320: df03 983d a3a3 6dbd d41d 54bd 7132 7f3b
00000330: c935 2bbd 5c57 a6bb b97a c23b 86da 04bd
00000340: 8ca6 55bd 9d71 95bd ea28 00bd 6b77 05bc
00000350: 5bc2 473c 1a55 88bd e40e bdbd 434a 5a3c
00000360: 355d 20bd 86c0 ba3d 4aa7 023c 59e3 483b
00000370: c7e6 b0bd ba2f 903d f687 4c3d fd79 193d
00000380: 567d af3a 6e27 0abc 1361 7f3d 503b 883d
00000390: 4c66 643d 7b96 a5bd 0c33 283d 4f54 63bd
000003a0: 2a85 bdba 38ba cebd 21f7 6d3d a8ea 79bd
000003b0: 2145 dcbd 3663 a1bd 6dc1 b3bc acc1 9e3d
000003c0: a182 5e3d e061 783d 38b5 96bd 9639 ad3d
000003d0: 1c2f 9e3c d01d 75bc 7a0d 623d 8637 8e3d
000003e0: a814 3fbd 2c32 553c ea17 37bd 14c3 003d
000003f0: b47b 523d 0107 a1ba 592e 933d 34ef d53c
0.093352675 -0.01907247 0.06965288 0.022263052 -0.06456811 0.06658245 0.03635764 0.019928936
-0.063965805 0.002630391 0.033323087 -0.08592121 0.016712882 -0.04154208 -0.044142567 0.012350806
0.08417552 0.053643 0.0025165612 -0.05764361 0.0815394 0.011785759 -0.05551254 -0.079029664
0.032424252 0.051030554 -0.04010165 0.018136125 -0.005313262 -0.045064677 -0.026234407 0.03284994
0.0038578191 -0.12500663 0.021825865 0.04754329 -0.09779407 -0.013549668 -0.06149192 -0.09582796
0.09221078 0.018778434 0.012615923 0.030280791 0.04621099 0.027881244 0.007766217 -0.092835896
-0.060771618 -0.07390559 -0.10441493 -0.053875215 0.009240842 -0.105533004 -0.10120033 0.010060519
-0.08572869 0.027754815 -0.021012494 0.057925224 0.07265454 0.09523028 -0.074631944 0.011330685
-0.14321332 0.038138356 0.058655843 -0.09085902 0.07324946 0.04899885 -0.09186757 0.06503907
-0.053800955 -0.03879921 -0.10397151 0.0926085 0.020844279 0.05510783 -0.08316064 -0.0432836
0.037327804 0.104922995 0.07793789 0.027176384 -0.05208064 -0.020455455 -0.12240673 0.020752355
-0.045394678 0.0072376197 0.061717365 0.0138669405 0.023507312 -0.011898153 -0.041943155 0.016965976
-0.040653884 -0.015496055 -0.015151566 0.030452468 0.03506566 -0.028354997 0.024238493 -0.00081516616
0.009822787 0.0065408032 -0.00092097226 0.049984615 -0.049946096 0.054788135 0.066870295 0.09458477
0.063211985 -0.002808437 0.00015884486 0.015753444 0.009489016 -0.08201624 0.05140907 -0.04079252
0.013583649 0.11279447 0.009790499 -0.071720526 0.030843258 0.078705795 -0.057975493 0.081159554
-0.09176377 -0.049422994 0.005125045 0.04722462 0.02324745 0.03079495 -0.030579992 -0.08909388
0.047535352 -0.041604776 -0.08471901 -0.10333602 -0.082880065 0.08891596 -0.08330755 0.04492843
-0.02276639 0.0077477717 0.03992874 0.019429637 0.053624034 0.04840123 -0.008899751 0.0049977154
-0.008903863 0.08263034 0.057886332 -0.08451127 -0.0039113327 0.08902142 -0.0049930937 0.009680129
-0.006664025 0.05445736 0.031955346 -0.008918153 0.016193757 -0.07425981 -0.04089315 0.0051286733
0.030211067 0.022669304 -0.059764765 0.0018062049 -0.017308637 0.10481986 -0.0010273537 0.06819976
0.04736851 -0.06353479 0.03598157 0.0186604 0.024309816 0.008120576 -0.011915891 0.008338585
0.032347396 -0.018669711 0.028611876 0.015154125 0.046520833 0.010081711 -0.0020961696 0.09418092
0.08250495 -0.06950519 0.052431192 -0.069562525 -0.041194923 -0.018546753 0.01011827 0.086518005
0.07422613 -0.058017384 -0.05178626 0.0038939978 -0.04179934 -0.005076332 0.00593504 -0.032434963
-0.052160785 -0.07297061 -0.03128902 -0.008146147 0.012192334 -0.06656857 -0.09231356 0.013323369
-0.03915139 0.09118752 0.007974455 0.0030653088 -0.08637767 0.07040353 0.04993435 0.037469853
0.0013388793 -0.008432252 0.062348437 0.06651938 0.05576162 -0.080853425 0.041064307 -0.055500325
-0.0014459242 -0.10094112 0.05809701 -0.0610148 -0.10755373 -0.07880251 -0.021942819 0.07751784
0.054323796 0.060640216 -0.073587835 0.08458249 0.019309573 -0.014960721 0.055188634 0.06944184
-0.04665056 0.01301245 -0.04470054 0.03143604 0.051387504 -0.0012285413 0.071865745 0.026115038

audionet.encoder_conv.4.bias f4 [32]
00000000: ced6 4e3b 8bb4 b43b 9b4d 583d 7dae 56bd
00000010: 23b8 de3d 7c0b cabd 6c31 243d 51e6 87bd
00000020: 94f4 4e3d ec05 143d 82f1 8a3d 72f7 78bd
00000030: 2eed b2bc eb46 0a3d 826b b73d 3b41 bfbc
00000040: eb1c dfbc 2b7c 3bbd 1d3f 63bd f136 6abb
00000050: f6b4 a63d 3940 bd3d ee32 3a3d 4a95 e63c
00000060: 4d33 87bc ef53 a9bb 98ae 203b 9120 abbc
00000070: 551e e23b 6218 96bd 2c3d 4bbd 7753 843d
0.003156114 0.0055146865 0.052808385 -0.0524125 0.10874965 -0.09865472 0.040086195 -0.06635726
0.050526217 0.03613846 0.06784345 -0.060782857 -0.021841612 0.03375904 0.08956052 -0.023346534
-0.027235469 -0.045772713 -0.05548011 -0.0035738314 0.08139984 0.09240765 0.045458727 0.028147358
-0.016503954 -0.0051674764 0.0024518128 -0.020889552 0.0069005885 -0.073288694 -0.049618885 0.06461232

audionet.encoder_conv.6.weight f4 [64, 32, 3]
00000000: 49ed 873d afff 6c3d bdb5 28bd 198d ef3c
00000010: a4e2 4e3d ee2f bd3d eb3e bebc 74be 2f3d
00000020: e247 043d ea90 803d 69a2 5f3d 9a48 9d3c
00000030: 9607 fe3c 0b2f c33d bca8 2e3d 939a 9a3d
00000040: 6029 29bd 1694 fcbc 6f47 a53d 940f df3d
00000050: fe89 90bd ed02 c2bd b79b 88bc dd5e fdbc
00000060: caf1 113c 0da5 c8bd 3d4d 17bd 95af a1bc
00000070: afdc 4d3d 4e74 05be 361f eb3d 9ce0 343d
00000080: 9ddf 633c 83df 71bb 2bd3 5dbb 320e c53c
00000090: 21c1 c23d 6cc0 bbbd 8dea 3a3d 96aa 5abd
000000a0: 9108 94bd 5bbd 833d 8799 133d d4dd b4bd
000000b0: 433a 4abd a80f a33d a913 2a3d e6b1 a4bd
000000c0: 3c88 56bd e3f6 6fbd c498 b23d ed01 b5bd
000000d0: 7186 ec3c 1ab7 bc3d 7d48 22bd 7d9c 843d
000000e0: 67ca b4bd 088c 27bd 228b e73c 8de3 c1bc
000000f0: 5a99 b33d d7fb 613c 5480 5a3d 150e 6e3d
00000100: 714d 89bd ec5b adbd 20d0 b3bd 1096 753d
00000110: d9ef af3d 25c7 013d 782b 7fbd 9c49 9d3d
00000120: e5da a93d 9ee6 9a3d 6c6f 6abc f53d afbd
00000130: f854 86bd d6e4 fabc b2f0 1ebd 65d1 a1bd
00000140: 08ec 4a3d c80c 9cbd 1a47 c73a 0115 b43d
00000150: c843 133d 0f67 70bb 88e8 4ebc 88e7 b33c
00000160: c727 d13d 8074 d3bd c4a3 5fbd 3860 6d3d
00000170: 7aba c13d a499 ec3c dac2 383d f391 07bd
00000180: 2f91 33bd 29d3 7f3d 8ac6 943c deeb bfbb
00000190: 307e b2bb be50 fabb 0e31 273c 34dd ab3a
000001a0: 3dff 653c 9a6f b5bb cb34 dcbb 170f 21bc
000001b0: 1aa2 d8bc ec49 db3c ed9d 3bbd f28f 62bd
000001c0: b8a6 e33c 839d 7dbd 0ec0 c0bc edfb 5abc
000001d0: 7750 003d c812 3d3c 02ea 693d fa6c 11bc
000001e0: 239f 2c3c 2d9b 3fbb fae0 14bd fb5d 2cbc
000001f0: e453 3fbb 2b25 2d3d 0063 33bd e7d7 79bc
00000200: 6eef f4bc 4fdd 58bd c1d3 07bd bc26 293d
00000210: 7171 00bd dda9 b53d 98c0 98bd 0084 68bd
00000220: a362 9bbc d7ae 4bbd 1224 9a3d dbff 2c3d
00000230: 306e 88bd 684d 2a3c f718 2cbc 8640 bb39
00000240: 4bde ae3c c320 253c bf5a 2fbc 2b5e 853c
00000250: 6068 8c3d 1052 9d3d 236b 743d 030c 2bbd
00000260: 350c 703d 947a 05ba aa6a f93b f934 4c3b
00000270: b2e6 5cbd c638 303d 5fab 2ebd 872f 0fbd
00000280: 10c2 403d d602 893c e8f1 0239 97a6 153c
00000290: ce5a 81bd 7034 49bd 274b a6bc 7830 173d
000002a0: 9115 5bba be1a f2ba b9b0 1d3d 764a 743d
000002b0: 9f4a 17bc b7dd a33c 6d0b be39 42d4 ddba
000002c0: 1f7f cebc 4bad 72ba c62c 523c 320a 3d3c
000002d0: 92aa 74bc ee69 48bd 49fe 60bc 44d3 923c
000002e0: 1e4d 5dbd bb1b b1bc a82c cdbb 573b cd3b
000002f0: 43c4 a33d a076 80bc 33e9 4abd 1792 55bb
00000300: 5bd9 9ebd 58e8 01bd 4e3a 5139 f6f6 f3bb
00000310: 91f9 83bb b8a8 8f3c 1bb6 943b 8d1f fcbb
00000320: 9604 223d 1db3 09bc d708 e63c 4383 d7bc
00000330: 787b 85bd 4167 263c c1ab 853d b835 9fbd
00000340: dcd2 6f3d 71b1 3ebd 69c9 393a f2f2 87bc
00000350: 9e07 923c 56e9 abbc 4d62 44bd 119f 0cbd
00000360: 7b4d 7f3c 59c0 ce3d b581 1bbd 9dc6 bb3b
00000370: f7ce 303d 83aa 493d ab6c 523d 2761 343d
00000380: 76c1 15bd f90c f03c dfd7 ae3d feab a53d
00000390: 8902 5e3d 7ebb 743d 1c31 6a3d 3536 aa3d
000003a0: 8f28 023e bc02 243d 257d 4abd 23bc e6bc
000003b0: 5841 b6bc 67bc 08bd ff79 d6bd 6f96 a53c
000003c0: 1bdc 223b 509d 7fbd 795f ca3d a0c3 8dbd
000003d0: 9873 8dbd 44c4 2b3d 7c3b 55bc c7b3 83bd
000003e0: 4443 c4ba 1fd1 913a de7b 7abd a8c6 58bc
000003f0: db69 073c 1fd2 ef3c f5b7 79bd dac8 f1bb
0.066370554 0.057861026 -0.041188944 0.029242085 0.05050911 0.092376575 -0.023223361 0.04290624
0.032295115 0.0627764 0.054598246 0.019199658 0.031009477 0.09530457 0.042641386 0.07549014
-0.041299224 -0.030832332 0.080702655 0.10891643 -0.0705757 -0.09473214 -0.016675813 -0.030929023
0.008907745 -0.09797106 -0.036938895 -0.019737044 0.05025929 -0.13032648 0.114805624 0.044159517
0.013908294 -0.0036906905 -0.003384779 0.02405462 0.09509493 -0.09167561 0.04563384 -0.05338534
-0.072281964 0.06432601 0.036035087 -0.08831373 -0.04937197 0.079619706 0.041522656 -0.08041744
-0.052376017 -0.05858506 0.08720544 -0.08838258 0.0288727 0.09214611 -0.03961991 0.0647516
-0.08827668 -0.04090503 0.028264586 -0.023668075 0.08769484 0.013792953 0.05334504 0.0581189
-0.06704224 -0.08464798 -0.08779931 0.059957564 0.08590669 0.03168406 -0.062297314 0.076800555
0.08293704 0.07563518 -0.014308792 -0.08556739 -0.06559175 -0.030626696 -0.038803764 -0.07901267
0.049541503 -0.07619625 0.0015203685 0.08793069 0.035953313 -0.0036682521 -0.012628682 0.021960989
0.10212665 -0.10324955 -0.05459954 0.05795309 0.09459396 0.028881855 0.0451077 -0.033098172
-0.04383963 0.062457237 0.018161077 -0.005856975 -0.0054471716 -0.0076390198 0.010204567 0.0013112188
0.014037904 -0.0055369856 -0.0067201606 -0.009830258 -0.026444484 0.026768647 -0.045804907 -0.05531306
0.027789459 -0.061917793 -0.023529079 -0.013365728 0.031326737 0.011540122 0.057107933 -0.00887608
0.010535988 -0.002923678 -0.036347367 -0.010520454 -0.002919429 0.042271774 -0.043795586 -0.015249229
-0.029899325 -0.05294543 -0.03316093 0.041296706 -0.031358186 0.088702895 -0.07458609 -0.05676651
-0.018967932 -0.049727287 0.07526411 0.04223619 -0.066616416 0.010394432 -0.010503999 0.00035715493
0.021346232 0.010078612 -0.010702788 0.016280254 0.068558455 0.07681668 0.059672486 -0.041759502
0.05860539 -0.0005091813 0.0076115923 0.0031159504 -0.053930946 0.043022893 -0.0426439 -0.034957435
0.047060072 0.016724985 0.00012487883 0.009133956 -0.06316148 -0.049122274 -0.020299507 0.036911458
-0.00083574007 -0.0018471105 0.038498614 0.059641324 -0.0092341 0.020003183 0.00036248137 -0.001692422
-0.0252071 -0.000925739 0.012828058 0.011538075 -0.014933245 -0.048929147 -0.013732501 0.017923005
-0.054028623 -0.021619668 -0.006261427 0.0062631774 0.07996418 -0.015681565 -0.049538802 -0.0032588297
-0.07756301 -0.03171572 0.00019953513 -0.0074452115 -0.0040275534 0.017536506 0.00453831 -0.007694191
0.039555155 -0.00840452 0.028080387 -0.026307708 -0.065176904 0.010156454 0.065269 -0.07773918
0.0585507 -0.04655594 0.00070872024 -0.016595338 0.017825898 -0.020985287 -0.04794531 -0.034331385
0.015582438 0.10095281 -0.037965495 0.0057304637 0.043166127 0.04923488 0.051373165 0.044037964
-0.03656145 0.02930306 0.08537268 0.080894455 0.054201636 0.05974912 0.05717574 0.083111204
0.12710784 0.04004167 -0.049435753 -0.028165882 -0.022247955 -0.0333828 -0.10472488 0.020213334
0.0024850431 -0.062405884 0.09881491 -0.06922078 -0.069068134 0.04193522 -0.01301467 -0.06430774
-0.001497366 0.0011124945 -0.061153285 -0.013230957 0.008264984 0.029274998 -0.06096645 -0.0073786797

audionet.encoder_conv.6.bias f4 [64]
00000000: b942 463d 52e9 c83c 68b1 ad3d 95ca 63bd
00000010: e222 9fbd 53d9 643c 6216 b53d 58a7 a0bd
00000020: b391 893c 9e3b 723d 643a 5f3d 8f2a dbbd
00000030: ea3d 2ebd d896 413d d437 5fbd 6d42 72bc
00000040: 2203 cf3c edf1 a63d 8d8a a3bc e69f 433d
00000050: 07d6 8b3d 7916 a83c 8359 ac3c 7f19 853d
00000060: c17a aebd 1457 8abb 6549 99bb 8c98 8cbd
00000070: a805 12bd 0ef5 8abd c6de a83d f7c8 ac3d
00000080: 42ea 4d3d df53 dfbc bb0a 20bd dc64 6c3d
00000090: 90a3 60bd 5f42 213b 2ccd 58bd c170 dbba
000000a0: 46e0 02bd 58e0 e23c 6df0 053d 0750 d43d
000000b0: 72f7 96bd 1f85 4ebc 7b4b 323d 2d80 ad3d
000000c0: 4e2e 7dbd d78f dc3d fb19 16bc 9b74 883d
000000d0: 6347 6a3d 6ce1 8bbc e364 78bc 9301 903d
000000e0: cab1 bb3d c9e9 a2bc e852 eabc 791d f1bc
000000f0: 26d8 893d 6a7c 89bd d00f 563d 625e 6cbb
0.048403475 0.024525318 0.08481103 -0.05561312 -0.07770325 0.01396783 0.0884216 -0.07844418
0.016793108 0.059138887 0.054499045 -0.10701477 -0.042539515 0.047262996 -0.0544966 -0.014786345
0.025270049 0.081516124 -0.019963527 0.047759913 0.06827932 0.020518528 0.021038776 0.064990036
-0.08519507 -0.0042218063 -0.0046779388 -0.068650335 -0.035649925 -0.06785022 0.08245616 0.084367685
0.050272234 -0.027261673 -0.039072733 0.057713374 -0.054843485 0.002460621 -0.052930042 -0.0016741977
-0.031952165 0.027694866 0.03269999 0.103668265 -0.07371415 -0.012604981 0.043529015 0.08471713
-0.061811738 0.10769623 -0.009161468 0.06662866 0.057196986 -0.017075263 -0.015160772 0.0703155
0.0916477 -0.019886868 -0.028603986 -0.029432999 0.0673068 -0.06713183 0.052261174 -0.0036066999

audionet.encoder_conv.8.weight f4 [64, 64, 3]
00000000: 376f 823d eacc dbbc d549 14bd 3231 253d
00000010: f6ee 283d 0383 0a3d ef1c 6ebc e9cd 6e3d
00000020: cecf dbbc 11e9 6bbd 558d 073d 9265 003d
00000030: cc18 9d3c 6ca2 003d 71cc 2bbc e726 01bd
00000040: 4e26 723d 7295 ad3c 00e0 28bd 4dfb 18bc
00000050: f1ae 8e3c 1c29 6e3d d2a3 95bd 8137 10bc
00000060: 91fa b93c cefa cc3b 691d 7dbc 9898 8d3b
00000070: 477b 933d 57f8 7cbc e5ad 11bd 427a 793d
00000080: a965 2e3d 74db 4f3d 0401 053d 56e6 823d
00000090: 3525 233d 8ddb c13c 0611 65bc 199b cdbd
000000a0: fcbc c93c 3150 77bd 8f07 05bc 9e61 80bd
000000b0: 1e14 553d 4690 9abc 11e7 c9bc 3563 363d
000000c0: e12a 5abd e33f 353d 087f 183a 77d0 fdbc
000000d0: ca8a 41bd e333 a03c 568e 07bc 13ab 84bc
000000e0: 335e a2bb 4261 063b e407 873d 062c 843d
000000f0: 6148 623c 2790 8cbd 5897 583c 15d0 3bbc
00000100: a0cc 3a3c ff6c eabc 7ab6 173d 463e 57bd
00000110: 907b a0bc 6033 c53b ed1f 7cbd befb 5bbd
00000120: e79a 7abd ea54 3cbd 01b9 fabc 1ba5 4a3d
00000130: f4b2 12bd 3cb4 833d d272 f23c 0b70 5a3d
00000140: 5957 4cbd 48ef 85bd d8bd 80bd b71d b63c
00000150: 38b6 193d 0a99 ff3c b359 ecbc 14d0 633d
00000160: 33ec 91bb 4be1 373d 432d 46bc 380e 503d
00000170: 51e0 36bd 69da bc3c e293 8fbd 52ed d83c
00000180: 6b99 4d3c 6771 013d fe2c 9ebc 1e2c 593d
00000190: cd58 d53c 43c2 013d babd 9fbd fbb7 3cbd
000001a0: 8241 dd3b a87a 8fbc 014a 85bc 92d4 62bc
000001b0: 536a 273c 79df 963c 2300 86bc 683c ae3c
000001c0: b222 4bbd a99d 903d bdd3 15bd 760d fe3c
000001d0: febe 053d e69a 57bd 9e2a c3bd d373 333c
000001e0: 1c4b 41bd 2ca5 4dbc 0978 88bb 7fbf e03c
000001f0: 8374 483d 0853 82bb fb72 0cbd cc07 d83c
00000200: 813b 733d 2f17 9bbc 6e80 073d 0eb0 a43b
00000210: 55c3 3e3d 8fd8 3d3d 5f48 2d3d 7adb a23c
00000220: 5ce3 053d 5b85 6a3d ad9f 9a3d 709b 61bb
00000230: 280d 5e3d b8de 02bc bffc 7a3d b427 193d
00000240: 9d28 3c3c 34a1 513b aad7 013d 2727 a03c
00000250: 01d7 593d fbb8 74bd e8bb ae3b 9bcc ca3c
00000260: 9eb1 1d3d 9af7 d6bd 05ed f7ba e988 40bd
00000270: 8cf2 16bd 1322 80bb 5c64 5739 f564 c5bc
00000280: 47f0 34bd 7352 c0bc 341c c5bb 31e8 833d
00000290: 2a61 35bd d6af d2bc b9a9 e1bc 410f d63c
000002a0: 8eda df3c 0792 fd3b b016 4abc 56ef fa3c
000002b0: 8006 81bd b731 843d 0b4f 70bc d606 b4bb
000002c0: a80b 44bb 589a 8c3c 2cd0 44bd f67b 983b
000002d0: dcb1 78bd d286 803d 1150 88bc 6382 b23c
000002e0: 349e a7bb f12a 81bd 426f bf3c 999e 053d
000002f0: 68b0 42bb f242 bb3c f459 e8bc 218d 40bd
00000300: 685c 4c3d 0d93 65ba 20fa d5bc c90d 4e3c
00000310: 901c 893d aaf2 86bd 30b5 95bc 0dd6 1bbd
00000320: 7389 553c 030c 92bc 7d57 f9bc 8116 a03a
00000330: 9b0f 843c d178 30bd 0fad f6ba 70e3 b0bc
00000340: 70c3 183d 9785 263d 259c e0bc 3fc8 ba3b
00000350: bf13 85bc 73cc 49bd 37eb 01bd ebab c0bc
00000360: 89ca 62bd feee 6cbd ff12 823c cab5 3cbd
00000370: bedc 293b 76de c8bc 3c7d dfbc 69fd 1b3d
00000380: 8200 0cbd 5950 60bd 9912 64bc 421b 25bd
00000390: bed3 0bbc 89b7 d2bc 0f5d c53c 2ee0 7e3b
000003a0: 1dbe b2bc 8074 933c bd07 e1bc 20a0 d93c
000003b0: 6702 593d 2650 e0bc d362 323b cb0a ae3c
000003c0: 52e7 463d 601a 11b9 e560 bebc ab94 1d3d
000003d0: 10e6 4dbd b49c 50bc 8104 47bd f2b5 85bb
000003e0: 5a53 0abc bf92 5ebd 7bb1 84bd 1894 17bd
000003f0: d9db d43c d4cd 97bc fa9f edbc 44f8 483d
0.06368869 -0.02683111 -0.036203224 0.04033012 0.041243516 0.03381635 -0.0145332655 0.05830184
-0.026832487 -0.057595316 0.03309377 0.031346865 0.019176863 0.031404898 -0.010485754 -0.03153124
0.05911856 0.021189425 -0.041229248 -0.0093372585 0.017417403 0.058144674 -0.07306637 -0.008802296
0.022702487 0.006255484 -0.015448906 0.004321169 0.07201248 -0.015440068 -0.03556623 0.06090761
0.04257742 0.050746396 0.03247167 0.06391589 0.039830405 0.02366426 -0.0139811095 -0.10039348
0.024626248 -0.06037921 -0.008119478 -0.06268619 0.05202114 -0.018867623 -0.024646314 0.044528205
-0.05326355 0.04425038 0.0005817269 -0.030983193 -0.0472515 0.019555992 -0.008273682 -0.016194856
-0.004955077 0.0020504748 0.06593302 0.06453709 0.013811202 -0.068634324 0.013219677 -0.011463185
0.011401325 -0.028616427 0.037039258 -0.052549623 -0.01959017 0.0060180873 -0.061553884 -0.053706877
-0.061182883 -0.045979418 -0.030605795 0.049473863 -0.035815194 0.06430861 0.029595766 0.05332951
-0.04988799 -0.0653978 -0.0628621 0.022230966 0.037527293 0.031200904 -0.028851366 0.05561836
-0.004453206 0.04489259 -0.012095752 0.05079481 -0.04464752 0.023053365 -0.07010628 0.02648035
0.012548785 0.03160229 -0.019308563 0.05302059 0.02604332 0.031679403 -0.07799859 -0.046073895
0.006752194 -0.017514542 -0.01627064 -0.013844626 0.010218221 0.018417107 -0.016357487 0.021269038
-0.049593635 0.07061321 -0.036578882 0.031012278 0.032652847 -0.052637957 -0.09529613 0.010952908
-0.04719077 -0.012551587 -0.0041647 0.027435062 0.04893924 -0.0039771833 -0.03428934 0.026370905
0.05938292 -0.018931953 0.033081464 0.00502587 0.046573002 0.046349104 0.042305347 0.019880045
0.03268753 0.057256084 0.07549987 -0.0034424923 0.054211766 -0.007987671 0.061276194 0.03739138
0.011484292 0.0031986954 0.031699814 0.01954992 0.05318356 -0.059746724 0.0053324588 0.024755767
0.038499467 -0.10496445 -0.0018915242 -0.047005568 -0.036852404 -0.003910312 0.00020541385 -0.024095992
-0.04417446 -0.023476815 -0.006015325 0.06440771 -0.044282116 -0.02571861 -0.02754675 0.02613032
0.027325895 0.007738355 -0.012334511 0.030631702 -0.06300068 0.06454795 -0.014667283 -0.005493979
-0.0029914174 0.01716344 -0.04805009 0.004653449 -0.060716495 0.06275715 -0.016639741 0.021790689
-0.005115295 -0.063070185 0.023368482 0.032621954 -0.0029707197 0.02285907 -0.028363205 -0.04700959
0.049892813 -0.0008757569 -0.026120245 0.012576529 0.06694901 -0.06589253 -0.018274873 -0.03804593
0.013033259 -0.017827993 -0.030437225 0.0012213738 0.016120723 -0.04308397 -0.0018819886 -0.021592826
0.03729576 0.040654745 -0.027418206 0.0057001407 -0.016244767 -0.049267244 -0.03171846 -0.023519477
-0.055368934 -0.05784511 0.015878199 -0.046071805 0.0025918926 -0.02452014 -0.027281396 0.038083468
-0.03418017 -0.054764125 -0.01392045 -0.0403092 -0.00853437 -0.025722282 0.024092225 0.0038890946
-0.021819169 0.017999887 -0.02746951 0.026565611 0.052980807 -0.027381968 0.0027219548 0.02124538
0.048560448 -0.00013838103 -0.023239562 0.03847186 -0.050268233 -0.012732673 -0.04858828 -0.0040805275
-0.008442724 -0.054339167 -0.06479164 -0.037006468 0.025983738 -0.018530764 -0.029006947 0.04906489

audionet.encoder_conv.8.bias f4 [64]
00000000: 70f0 563d 9ff9 9a3d f70e 43bd f208 be3c
00000010: ed65 993c 804b 873d f2f0 973d 9add abbc
00000020: 9c76 993c d02e d0bc 00ed 783d e331 7bbc
00000030: 2b63 433d 57f0 19bd 189f 673d 1a66 d9bb
00000040: 9353 993c e822 2dbc a4d7 90bb 6dfc e8bc
00000050: f005 f13c 12a6 973c bbce abbc 0216 ccbb
00000060: 97a2 dd3c 691e 0d3c 974b 4abd 06e1 233d
00000070: 86ff 243d f930 f5bc 19d9 97bd 8588 4a3c
00000080: ce3f 413d 682c 6bbc 09f0 373d 5a72 8ebd
00000090: 016e 303d 4771 d7bc 619d 07bd 43c8 88bd
000000a0: 26e2 863b 52a8 e1bc 8016 8a3c d2e0 86bc
000000b0: bfae 68bd f10f ecbc 8f53 a7bc 2352 ac3d
000000c0: 3269 48bc 7a30 73bc 26ff 853d c45f 713d
000000d0: 3f93 48bc c07a 96bc 63f1 09bc 911d 95bb
000000e0: ea5f b5bc 4d39 5c3c 6703 7e3c bd3f 833c
000000f0: 18a5 0a3d 1ec0 d1bc 5b06 603d b328 e0bc
0.052475393 0.07567143 -0.047621693 0.023197625 0.01872536 0.06606197 0.074190035 -0.020979691
0.018733315 -0.025412947 0.060772896 -0.015331718 0.047701996 -0.03758272 0.056548208 -0.006634486
0.01871661 -0.010567404 -0.0044202376 -0.028440678 0.029421777 0.018511806 -0.0209726 -0.0062282095
0.027055068 0.008613207 -0.049388494 0.04000952 0.04028275 -0.029930579 -0.07414455 0.01236165
0.04717999 -0.014353849 0.04490665 -0.069554046 0.043073658 -0.026299132 -0.033109073 -0.06678822
0.0041163145 -0.027546082 0.016856432 -0.016464625 -0.056807276 -0.028816195 -0.020425586 0.08414104
-0.012232112 -0.014843101 0.06542806 0.05892922 -0.012242137 -0.018369079 -0.0084193675 -0.0045506437
-0.022140462 0.013441396 0.015503741 0.016021604 0.033848852 -0.025604304 0.05469356 -0.027363157

audionet.encoder_conv.10.weight f4 [64, 64, 3]
00000000: 1c77 949f 1a0e 4dbd a2fb f43c 4d88 3c1f
00000010: 30cd 193c 2846 10bd d482 9d9c e4da bbbb
00000020: 6dae 813d 3946 7520 f9c7 463c 11ab 333d
00000030: 0592 d7a0 c65d 99bd adc3 26bd 7c8b cb9d
00000040: bf99 e23c c92f a4bb d5a5 b69e ce2f 8dbc
00000050: 03e8 033c b315 0f9d a705 623b cead 76bc
00000060: cde9 be9c ace0 67bd 9ec2 1d3d a483 f91e
00000070: 7557 f93b c052 11bd 5a01 3c1f 502d b3bb
00000080: e66f 603d a8fe 0923 4eac 5c3c 741c 523d
00000090: d5e4 0120 2710 9dbc 7e0a 323d bddb fe9f
000000a0: 57eb 053c ba3e 9dbc d87f d91b 7324 abbc
000000b0: ca2d a1bd b87d 3e1d 40fa 9a3a f72d 8fbc
000000c0: 7055 d09d 0a5a 46bc 6bb1 313d 361b ca9d
000000d0: a2b9 b03b f138 0a3d b932 981b b799 8f3d
000000e0: 47f6 dbb9 b2e4 a29e c1e8 2e3d ceab 893c
000000f0: 4577 0aa3 475e 1cbc c454 7d3c fbae cd1d
00000100: ef80 8d3d 5d93 5a3d 5017 e01e 40ad 4fbc
00000110: 8178 0d3c f866 9b9f e098 8bbd b631 413b
00000120: db95 ed1f 5b61 febc ddac 253c 5789 9d1b
00000130: 6f6f babc 140f e2bc 371c e31e 4c80 933c
00000140: f154 72bd ddce 771e 612a 9ebc 3533 a93c
00000150: d6e3 ee1d 02c0 9fbc 8f77 853c accd de9d
00000160: 06d0 88bd ce2b 39bb ce54 fe20 972a fdbc
00000170: 367d f6bc 77bf dca0 949b 003d 5011 0e3d
00000180: a33e 231f 753f 6e3d 4519 48bd 4807 3822
00000190: 383e 123d ca01 313c b4a5 b81d 9884 5ebc
000001a0: ed04 5dbb 9f13 bc9e 853e d1bc ba08 47bc
000001b0: 5e3f 481c dfe8 6e3b ac03 e4bc d5ca aaa2
000001c0: 2e99 5dbd 86df 483c e995 b11e 5125 b03b
000001d0: df91 a93c 4fef 5522 9919 863b e0ab 853d
000001e0: 9a93 c91e 765d bdba dcc3 d03c a4ad 811f
000001f0: 774e 59bc 7f78 22bc 03e0 b420 a9ff 43bd
00000200: aa9a 933c 0a58 881d 8578 5c3c 0edc 89bd
00000210: 24e1 019f 6b44 f3bc 672e 8338 dd65 fe9e
00000220: bb1f f0bc 35a5 8d3d f5fb 571f f2f1 2fbc
00000230: 3069 bf3a a890 699d a200 863d 1dd1 08bd
00000240: ce0d 161e 0cc8 873c 0231 3bbd 72df 6fa0
00000250: 48f1 d73c c191 1cbd 1123 d91d 00f8 89bc
00000260: 04ae 8b3d 2a02 cb20 22e8 2d3d 0ff8 6dbd
00000270: 0771 e41d 5994 403b 39b2 433b adf1 b89e
00000280: 6c3c 973a 13cd 00bd 34de f61e bc02 4d3d
00000290: 519a 4abd 4225 cf9e 48ff b03c b8b3 41bc
000002a0: 3515 fca0 6e50 1ebd de45 833c 6c37 7820
000002b0: 3977 833d 7e85 47bd c1b2 1a1f de6b e9bb
000002c0: e1c8 d7ba 6244 c520 9a9b 063d cef7 c6bc
000002d0: abb8 8d1f 4273 823c bda9 963c d6b2 d299
000002e0: 2379 473d b9f2 97bd c803 169d 351c 603c
000002f0: 6a1e 0cbd f1cf 059f 9125 23bc c463 83bd
00000300: eef1 3a21 e61d b4bc 97b4 b0bc 198d 911b
00000310: ade6 f7bc 2f4a c1bc d6e8 939b 3c9a eb3a
00000320: 8087 62bd b600 4e9f a60a d53c eaa6 9a3a
00000330: 9a2e b59a 1dd9 cebc 6765 a1bc 0624 559d
00000340: ea2e 303b 7218 f33c 8d11 19a1 ff4f dd3c
00000350: 5ab6 443d 5d68 84a0 8d36 f53a 0e1f c7bc
00000360: 7b1d da9e 6e48 193d cf13 603d 37fc 099d
00000370: e42d 86bb aad7 6a3c 9f42 bd20 2c1b 0fbd
00000380: aa9b 34bd 8a38 3d1f 159d 8ebd 58b6 8b3d
00000390: c3d8 e219 ed8b 10bc 018e 803a 7d33 a11e
000003a0: 7474 14bc 9b35 093d af8c 531f ccf5 90bd
000003b0: d9d1 1b3d 00ee 439f ef45 57bb 0ed2 cbbc
000003c0: efd0 179d 2fe7 b63c 5380 30bc 4420 841e
000003d0: 04ee 5b3b 02c3 8abc 380d 379e 427a 623d
000003e0: da7a 4bbc f5df e69c 3f61 1b3c 0685 423d
000003f0: 911d caa0 f0ab f53c 56f7 67bd bec4 9a9c
-6.287749e-20 -0.050062276 0.029905144 3.9923294e-20 0.009387299 -0.035223156 -1.0423207e-21 -0.005732881
0.06332097 2.0775542e-19 0.012132638 0.043864314 -3.6519044e-19 -0.07488589 -0.040713955 -5.3877876e-21
0.027661202 -0.0050105792 -1.9338586e-20 -0.01723471 0.008050921 -1.893711e-21 0.0034488232 -0.015056087
-1.2633581e-21 -0.05661075 0.03851568 2.6418346e-20 0.0076093026 -0.035479307 3.9811667e-20 -0.005468048
0.054794215 7.4807104e-18 0.013468815 0.051296666 1.1002439e-19 -0.019172741 0.043467037 -1.0793671e-19
0.008173785 -0.01919495 3.5982256e-22 -0.020891404 -0.07870062 2.5211286e-21 0.0011823848 -0.017477972
-5.514548e-21 -0.012106428 0.04338209 -5.349709e-21 0.005393223 0.03374571 2.517907e-22 0.07011741
-0.00041954426 -1.7247003e-20 0.04270244 0.016805556 -7.506251e-18 -0.009543962 0.015462104 5.4443974e-21
0.06909358 0.053363193 2.3726564e-20 -0.012675583 0.008634687 -6.58154e-20 -0.06816268 0.0029479093
1.0062132e-19 -0.031052282 0.010112015 2.6062225e-22 -0.022758214 -0.02759508 2.404623e-20 0.018005513
-0.059163038 1.31188494e-20 -0.019307317 0.0206543 6.3233652e-21 -0.019500736 0.016292362 -5.897557e-21
-0.06680302 -0.002825487 4.3085393e-19 -0.030904097 -0.030089002 -3.739615e-19 0.03139837 0.03468448
3.4568404e-20 0.058165986 -0.048852224 2.4940505e-18 0.035703868 0.010803649 4.8875727e-21 -0.0135814175
-0.003372486 -1.991339e-20 -0.025542507 -0.012148077 6.625635e-22 0.003645472 -0.027833782 -4.629335e-18
-0.05410116 0.012260323 1.8802605e-20 0.005375542 0.02069944 2.8993572e-18 0.004092407 0.06526923
2.134275e-20 -0.0014447409 0.025484018 5.492089e-20 -0.013263336 -0.009916424 3.0641425e-19 -0.04785124
0.018018086 3.608993e-21 0.0134564685 -0.06731425 -2.7503045e-20 -0.02969571 6.25521e-05 -2.6935426e-20
-0.029312005 0.06916276 4.5736435e-20 -0.010738837 0.0014603492 -3.0912079e-21 0.065430894 -0.03340255
7.943789e-21 0.016574882 -0.045701034 -2.0318019e-19 0.026360169 -0.03822494 5.747568e-21 -0.016841888
0.068203 3.439097e-19 0.042457707 -0.058097895 6.0467965e-21 0.0029385297 0.0029860868 -1.9581713e-20
0.0011538393 -0.031445574 2.6138164e-20 0.050051436 -0.049463574 -2.1932387e-20 0.021606103 -0.011822633
-4.2704494e-19 -0.038650922 0.016024526 2.1024755e-19 0.06419224 -0.048711292 3.275863e-20 -0.0071234545
-0.0016463065 3.341835e-19 0.032863237 -0.024288084 6.002133e-20 0.0159241 0.018391484 -2.1785722e-23
0.04869951 -0.074193425 -1.985429e-21 0.0136786 -0.034208693 -2.833585e-20 -0.009957687 -0.06415513
6.333944e-19 -0.021986913 -0.021570487 2.407942e-22 -0.030261362 -0.023594944 -2.4469577e-22 0.0017975043
-0.055305004 -4.3622785e-20 0.026006054 0.0011799012 -7.4935134e-23 -0.025250012 -0.019701673 -2.8208939e-21
0.0026883432 0.029674742 -5.1861645e-19 0.027015684 0.048025467 -2.2430732e-19 0.0018708274 -0.0243068
-2.309384e-20 0.03742259 0.05470639 -1.8262191e-21 -0.004094826 0.014333645 3.2061932e-19 -0.034938022
-0.044093765 4.0069075e-20 -0.06963555 0.06821889 2.3455402e-23 -0.008822423 0.0009807945 1.7067833e-20
-0.009060968 0.033498388 4.479736e-20 -0.07078132 0.038041923 -4.1489725e-20 -0.003284808 -0.024880435
-2.00927e-21 0.022327034 -0.010772782 1.3989388e-20 0.0033558616 -0.01693869 -9.690673e-21 0.055292375
-0.012419427 -1.5278015e-21 0.0094836345 0.047490142 -3.4239696e-19 0.029989213 -0.056632362 -1.0241722e-21

audionet.encoder_conv.10.bias f4 [64]
00000000: 4398 903d a089 f73c 629c 79bd c295 a33c
00000010: 5c6b 323d e577 aabb 1ad5 b63c a484 1abc
00000020: afc1 4cbd ed22 5b3c 01d4 2f3d c110 bebc
00000030: 8cfd 2abd 9f47 4b3d 97a6 95bc 1b8d 643c
00000040: 7a0d 0a3d 9714 9cb9 19f9 91ba f864 c7bc
00000050: a9ba 2c3d 7434 2b3d fa7a 9cbc 0a78 63bd
00000060: 5da1 d53c c9ea 02bd b152 8b3d bd17 e4bc
00000070: 130c 4cbc 327c d2bc 4f67 3abd 2c5d 303d
00000080: b4c5 6bbc 5e7d 693c 9cd6 453d 238e 533d
00000090: 4550 cbbc 966f 32bd 6dc5 7d3d a192 92bc
000000a0: e140 883d 19f2 16bd ddd9 043b 4b8b f03c
000000b0: dfd9 8bbd c33d 363b 2095 503d a764 e8bb
000000c0: c712 853d 01f2 03bd b065 8b3d ff2b 01bd
000000d0: 0877 69bc 9387 ec3b 54f9 873d 9350 50bd
000000e0: aed4 ad3d 60c2 3f3d 98cd 7ebd fcbd 21bd
000000f0: d7a7 89bc 82cc 26bd 20f1 5cbc 72a3 7b3d
0.070602916 0.030216992 -0.060940154 0.019968871 0.043559417 -0.005202281 0.022318412 -0.009431038
-0.0499894 0.013375026 0.042926792 -0.023201348 -0.041745707 0.04962885 -0.018267913 0.013949658
0.03370426 -0.0002976998 -0.0011136859 -0.024340138 0.0421702 0.04179807 -0.019101609 -0.0555344
0.02607792 -0.03196219 0.068028815 -0.02784335 -0.012454051 -0.025693987 -0.04550868 0.043057606
-0.014390398 0.014251081 0.04830037 0.051649224 -0.024818549 -0.043563448 0.061955858 -0.017892184
0.06653 -0.036851976 0.0020271458 0.029363295 -0.06828665 0.002780781 0.050923467 -0.007092077
0.06497722 -0.032213215 0.06806505 -0.0315361 -0.014249571 0.00721831 0.066393524 -0.05085809
0.08487831 0.04681623 -0.06220779 -0.039487824 -0.016803665 -0.040722378 -0.013485223 0.06143517
