best_audattnnet.pt (torch, 12673 bytes, 11 tensors)

attentionConvNet.0.weight f4 [16, 32, 3]
0.029368728 0.040204145 0.06909805 -0.00061914616 0.0010715268 -0.009277216 0.035656165 0.021641666
-0.0054406985 0.06257301 0.07408681 0.09512285 0.10413355 0.096825756 0.11212273 -0.01659867
0.00448332 0.024498135 0.08386434 0.09421815 0.101682656 -0.08221917 -0.08573886 -0.10302809
-0.10657114 -0.10215964 -0.115075715 0.041826647 0.05213193 0.066263005 -0.09359863 -0.07892676
-0.09572651 0.0097791 -0.0005960481 -0.014947855 0.054201547 0.060603514 0.05844304 -0.032868348
-0.020919107 -0.0037572861 -0.049077395 -0.051799707 -0.064513825 0.038432587 0.043325055 0.05176658
0.011686577 -0.014013054 -0.04305594 0.039892316 0.056768857 0.072329044 0.12141214 0.11377607
0.12566596 0.09941102 0.10478267 0.11712702 0.0019491429 -0.010002619 -0.0293555 -0.07169648
-0.07493246 -0.08949889 -0.06832991 -0.07688928 -0.08846799 0.027661324 0.039343264 0.057497066
0.06626187 0.06342521 0.061436918 0.042015903 0.05673182 0.07301753 0.077880666 0.0831761
0.09319699 -0.017568208 0.005044254 0.033746295 0.076011404 0.067424394 0.094019264 -0.082917
-0.08882722 -0.100377075 -0.058280136 -0.06186947 -0.080289505 -0.09781766 -0.0879265 -0.103666455
-0.043350916 -0.04880876 -0.046573006 -0.05609768 -0.063690655 -0.06805481 -0.055723943 -0.059470613
-0.058891676 -0.02833398 -0.034395527 -0.03350007 -0.02417212 -0.031760484 -0.02282557 0.03534933
0.043925587 0.030300483 -0.0036048621 -0.0014181582 0.00094199594 0.026411446 0.032771766 0.02225727
0.058707636 0.06474338 0.070572525 -0.03843087 -0.0483285 -0.043108873 0.050974324 0.058568504
0.057940286 -0.03946287 -0.051752247 -0.048908 -0.05384895 -0.059951022 -0.061411478 0.0205716
0.029616518 0.015577912 0.040846884 0.045918986 0.038367238 -0.040588163 -0.04588055 -0.042723726
0.017990647 0.015950726 0.01724628 -0.026721854 -0.030033613 -0.02712285 -0.051011194 -0.055091675
-0.052940782 -0.046222154 -0.050306585 -0.050059766 -0.024871578 -0.03214469 -0.021270642 0.0010141566
0.0049594766 -0.00036814876 0.04758826 0.055479206 0.05591338 0.03161648 0.044087347 0.038101677
-0.05491752 -0.060595244 -0.06866028 0.04068951 0.051540688 0.050877508 -0.047154497 -0.056251705
-0.05625637 0.045847647 0.056898188 0.058646098 -0.038799923 -0.043526456 -0.04032799 0.049321648
0.057444133 0.05625674 0.04974613 0.05801056 0.052535016 0.035130937 0.04495493 0.035395283
-0.029044757 -0.029733019 -0.026968265 0.025906006 0.031047108 0.035272412 0.047920577 0.04222558
0.041820433 -0.0014621291 0.0061541256 -0.0002672092 0.026382716 0.0130051775 0.015965937 -0.045181707
-0.043162603 -0.042104572 0.017817607 0.020113489 0.025249556 -0.023734592 -0.01332585 -0.014779211
-0.046561677 -0.033369612 -0.033956982 0.0111422725 0.009621945 0.015782997 -0.026704399 -0.00927466
-0.014807559 0.029469764 0.029927805 0.03286838 0.037901066 0.03863928 0.038715124 -0.041885313
-0.039264683 -0.0431598 -0.0329388 -0.03250504 -0.03518987 0.03690544 0.041267764 0.03733549
0.04676855 0.048980627 0.053934176 -0.0069756596 -0.011621803 -0.0061518266 0.051365867 0.024291176
0.026333643 0.045706645 0.038855437 0.043301824 0.035179924 0.040047847 0.04150723 -0.022018142
00000000: b096 f03c 1aad 243d 4783 8d3d 324e 22ba
00000010: 7972 8c3a 77ff 17bc 330c 123d dd49 b13c
00000020: e347 b2bb 4726 803d d3ba 973d c5cf c23d
00000030: f843 d53d 954c c63d 9aa0 e53d eff9 87bc
00000040: d0e8 923b 50b0 c83c 11c1 ab3d 72f5 c03d
00000050: ff3e d03d 8662 a8bd db97 afbd 6400 d3bd
00000060: f841 dabd 1339 d1bd d1ac ebbd 6b52 2b3d
00000070: 4a88 553d e6b4 873d a3b0 bfbd 5aa4 a1bd
00000080: 430c c4bd 8538 203c 1c40 1cba d9e7 74bc
00000090: 7102 5e3d 643b 783d f861 6f3d f6a0 06bd
000000a0: 8c5e abbc cd3c 76bb 6105 49bd ee2b 54bd
000000b0: d31f 84bd 7d6b 1d3d 9d75 313d 3209 543d
000000c0: 0f79 3f3c 0297 65bc 6d5b 30bd 2066 233d
000000d0: 7686 683d 4021 943d eea6 f83d 6e03 e93d
000000e0: 94ae 003e 0198 cb3d 4c98 d63d 4be0 ef3d
000000f0: 627a ff3a 06e2 23bc f27a f0bc 9bd5 92bd
00000100: 3176 99bd 324b b7bd 8df0 8bbd 2078 9dbd
00000110: b52e b5bd 009a e23c 6726 213d 0b82 6b3d
00000120: 4eb4 873d 14e5 813d 47a5 7b3d de18 2c3d
00000130: a05f 683d 378a 953d e67f 9f3d 3b58 aa3d
00000140: 10de be3d 34eb 8fbc 454a a53b 8e39 0a3d
00000150: deab 9b3d cd15 8a3d 2c8d c03d 63d0 a9bd
00000160: 0ceb b5bd 7f92 cdbd 27b7 6ebd d76a 7dbd
00000170: d36e a4bd a054 c8bd cf12 b4bd 144f d4bd
00000180: bb90 31bd b2eb 47bd 56c3 3ebd aec6 65bd
00000190: 3f70 82bd 5260 8bbd ca3e 64bd 7597 73bd
000001a0: 6638 71bd aa1c e8bc 53e2 0cbd 5f37 09bd
000001b0: 9c04 c6bc 4817 02bd b1fc babc 76ca 103d
000001c0: 51eb 333d b838 f83c 8d3f 6cbb 7ee1 b9ba
000001d0: 47f0 763a d15c d83c b03b 063d e154 b63c
000001e0: 6b77 703d 2d98 843d 5488 903d b069 1dbd
000001f0: 1bf4 45bd ee92 30bd 74ca 503d 87e5 6f3d
00000200: cb52 6d3d d2a3 21bd 2afa 53bd c153 48bd
00000210: b790 5cbd 348f 75bd 9a8a 7bbd c685 a83c
00000220: 579e f23c 803a 7f3c 104f 273d 8c15 3c3d
00000230: f726 1d3d c63f 26bd 3eed 3bbd 13ff 2ebd
00000240: 1f61 933c 19ab 823c 1248 8d3c cae7 dabc
00000250: 0d09 f6bc bd30 debc 1df1 50bd cfa7 61bd
00000260: 6fd8 58bd 7153 3dbd 470e 4ebd 780b 4dbd
00000270: 7bbf cbbc 27aa 03bd c53f aebc 73ed 843a
00000280: 1b83 a23b 1704 c1b9 e8eb 423d 2a3e 633d
00000290: 6e05 653d 4880 013d ef94 343d 8110 1c3d
000002a0: 32f1 60bd b832 78bd c39d 8cbd 0baa 263d
000002b0: 541c 533d ef64 503d 1325 41bd 3068 66bd
000002c0: 146d 66bd beca 3b3d 130e 693d e436 703d
000002d0: abec 1ebd cc48 32bd f62e 25bd 7f05 4a3d
000002e0: 8a4a 6b3d 786d 663d 99c2 4b3d 7b9c 6d3d
000002f0: f52e 573d 75e5 0f3d a922 383d a5fa 103d
00000300: 45ef edbc a992 f3bc 8dec dcbc d538 d43c
00000310: 8156 fe3c ce79 103d 5e48 443d bbf4 2c3d
00000320: e74b 2b3d e9a4 bfba 8ca8 c93b 3618 8cb9
00000330: 9120 d83c ab13 553c ffca 823c 7410 39bd
00000340: 45cb 30bd d875 2cbd 3bf6 913c 0bc5 a43c
00000350: 28d8 ce3c 0c6f c2bc aa54 5abc 8124 72bc
00000360: 75b7 3ebd 93ae 08bd 7a16 0bbd 148e 363c
00000370: 5da5 1d3c 584b 813c 2fc3 dabc bef4 17bc
00000380: 679b 72bc 936a f13c 282b f53c ffa0 063d
00000390: 263e 1b3d 3944 1e3d c093 1e3d ef8f 2bbd
000003a0: 01d4 20bd 55c8 30bd d6ea 06bd 0124 05bd
000003b0: 4123 10bd 292a 173d 6308 293d 19ed 183d
000003c0: 6190 3f3d e99f 483d 15ea 5c3d 1394 e4bb
000003d0: 6069 3ebc 4395 c9bb 0465 523d 4afe c63c
000003e0: a7b9 d73c e436 3b3d e126 1f3d 415d 313d
000003f0: d318 103d 3609 243d 7c03 2a3d 645f b4bc

attentionConvNet.0.bias f4 [16]
0.06405266 0.07618001 0.0705395 0.15791991 0.13835563 0.11005071 0.15617715 0.06522871
0.09746845 0.173924 0.09835379 0.117930695 0.09247522 0.09443004 0.06800684 0.15512565
00000000: 0a2e 833d 4404 9c3d 0377 903d c2b5 213e
00000010: 19ad 0d3e 4462 e13d e7ec 1f3e a196 853d
00000020: 8a9d c73d 2219 323e b66d c93d a685 f13d
00000030: a663 bd3d 8964 c13d 2c47 8b3d 42d9 1e3e

attentionConvNet.2.weight f4 [8, 16, 3]
-3.5993802e-05 -0.0019678895 -0.0013528058 -0.0036858113 -0.0051216367 -0.0035509178 -0.00034393027 -0.0003336682
0.0005864894 -0.009102558 -0.017898148 -0.017657157 -0.0067368723 -0.0049353205 -0.004312368 0.0003014782
-0.0011906032 0.0005547457 -0.004740538 -0.012095518 -0.011979571 -0.004413436 -0.003654727 -0.003752304
0.0003861675 0.00029196366 -0.0024231144 -0.0121872425 -0.01980978 -0.020558655 0.000530032 -0.0021076843
-0.00039552804 0.0008149334 -0.0052654822 -0.0052773757 0.0007798247 -0.0023199406 -0.002745017 -0.004253587
-0.0038753645 -0.004349706 -0.003386469 -0.0053175446 -0.0032339897 -0.008898883 -0.016390355 -0.01766281
0.010625735 0.0007133193 -0.0034046865 0.009788123 -0.011108822 -0.02289153 0.0061643105 0.058705885
0.05457051 -0.0013660659 -0.038617518 -0.06829275 -0.0040035215 -0.045916826 0.044594817 0.034053084
0.03574193 -0.034952797 0.019257504 4.6214212e-05 -0.038608253 0.02789485 -0.019669216 -0.056115944
0.012358159 -0.0014585884 -0.010347426 -0.015067044 -0.048872437 -0.09047148 0.019889446 0.031088335
-0.0063336766 0.008905672 -0.0005965811 -0.010828805 0.008581027 -0.00015029377 -0.007510502 -0.008919796
-0.0059901085 -0.020234786 0.023078196 -0.020286389 -0.057844613 -0.0057882145 -0.012848123 -0.06375061
0.14906664 0.12718034 0.08108887 0.076334886 0.07499764 0.062169477 0.08122405 0.054656263
0.003896824 0.23014979 0.23341267 0.21343617 0.12563322 0.15454483 0.14386947 0.113755316
0.11865896 0.08400566 0.19556071 0.18158296 0.17932232 0.08282565 0.06549862 0.04787979
0.13740017 0.11256305 0.06968942 0.2209459 0.231765 0.20365883 0.13991222 0.11800461
0.06652931 0.14396925 0.1418495 0.15761097 0.14397788 0.13609128 0.14404078 0.07907423
0.06503745 0.06184861 0.08377417 0.08332539 0.06297326 0.23427054 0.24144217 0.2136268
0.14730765 0.13173944 0.080141 0.072332114 0.07728437 0.065160975 0.085751876 0.05538153
-0.0071690995 0.22893488 0.23149893 0.22248925 0.13544606 0.15652989 0.1431071 0.116424814
0.11755003 0.08997991 0.2175914 0.18556368 0.18285538 0.07242384 0.056301415 0.04332732
0.1397391 0.11428293 0.060611032 0.2279631 0.23713483 0.21365285 0.14522447 0.120308034
0.059960622 0.1471545 0.1572618 0.15814386 0.14649443 0.13667239 0.1283614 0.079519026
0.0742678 0.064286076 0.079215586 0.071020365 0.06884067 0.2381666 0.23801836 0.2348306
0.13404943 0.12282375 0.08135728 0.071064815 0.06258807 0.05054527 0.05881586 0.05611421
0.04255593 0.16184449 0.21541743 0.21173637 0.07444798 0.12355263 0.08330754 0.07821231
0.10926554 0.06947728 0.20124558 0.18773486 0.17810014 0.07832874 0.060487524 0.045995984
0.13363145 0.13029933 0.09140129 0.15605085 0.22523758 0.20910479 0.12851894 0.13483433
0.08802564 0.14893417 0.15606804 0.14736892 0.14067794 0.130608 0.14450945 0.05611252
0.057159845 0.047792066 0.075535335 0.06744578 0.05407489 0.17336369 0.18372375 0.2219745
-0.0017772146 -0.0029510478 -0.0038731636 -0.005956889 -0.007829655 -0.0071932324 0.00078514044 -8.659717e-05
0.0010526811 -0.0154928975 -0.031055339 -0.02693538 -0.007755138 -0.010251084 -0.00753082 -0.0006824598
00000000: 0df8 16b8 b5f7 00bb a150 b1ba a78d 71bb
00000010: 67d3 a7bb 84b6 68bb 8a51 b4b9 30f0 aeb9
00000020: a3be 193a e522 15bc 239f 92bc bea5 90bc
00000030: fbc0 dcbb 78b8 a1bb c44e 8dbb b80f 9e39
00000040: 040e 9cba 5b6c 113a 8456 9bbb 482c 46bc
00000050: f645 44bc 969e 90bb 2584 6fbb 37e9 75bb
00000060: 8676 ca39 b312 9939 1dcd 1ebb 00ad 47bc
00000070: 1f48 a2bc a06a a8bc d8f1 0a3a 1321 0abb
00000080: e05e cfb9 41a1 553a 118a acbb d6ed acbb
00000090: 266d 4c3a 250a 18bb bee5 33bb ad61 8bbb
000000a0: d4f9 7dbb fb87 8ebb 86ef 5dbb cc3e aebb
000000b0: 58f1 53bb 9fcc 11bc 1145 86bc 99b1 90bc
000000c0: 9017 2e3c 0cfe 3a3a 2921 5fbb 5d5e 203c
000000d0: c701 36bc 0587 bbbc fcfd c93b 9575 703d
000000e0: 5485 5f3d 910d b3ba 672d 1ebd 12dd 8bbd
000000f0: f92f 83bb 4813 3cbd 0ea9 363d 3f7b 0b3d
00000100: 2166 123d aa2a 0fbd eac1 9d3c 22d6 4138
00000110: b023 1ebd be83 e43c 5621 a1bc d5d9 65bd
00000120: e079 4a3c 1b2e bfba 4088 29bc c3db 76bc
00000130: 772e 48bd 1c49 b9bd 31ef a23c f7ac fe3c
00000140: bb8a cfbb 18e9 113c e163 1cba 4d6b 31bc
00000150: 7097 0c3c 2d98 1db9 a81a f6bb 5624 12bc
00000160: ac48 c4bb 6cc3 a5bc 7c0e bd3c a42f a6bc
00000170: 79ee 6cbd 10ab bdbb ef80 52bc ae8f 82bd
00000180: eda4 183e 903b 023e ec11 a63d 7755 9c3d
00000190: 5d98 993d 6ca5 7e3d cb58 a63d 3fdf 5f3d
000001a0: dc61 7f3b 63ac 6b3e bb03 6f3e 038f 5a3e
000001b0: ffa5 003e 0041 1e3e 8552 133e 8cf8 e83d
000001c0: 7803 f33d 290b ac3d 1141 483e e2f0 393e
000001d0: 45a0 373e 7fa0 a93d 2424 863d 991d 443d
000001e0: a1b2 0c3e 7587 e63d 54b9 8e3d a43f 623e
000001f0: ce53 6d3e f18b 503e 2645 0f3e 67ac f13d
00000200: 8540 883d ad6c 133e ff40 113e c564 213e
00000210: f06e 133e 835b 0b3e 6d7f 133e abf1 a13d
00000220: 5b32 853d f854 7d3d cb91 ab3d 81a6 aa3d
00000230: 20f8 803d 9ee4 6f3e 9e3c 773e fcc0 5a3e
00000240: d1d7 163e b4e6 063e f720 a43d dc22 943d
00000250: 4547 9e3d 1e73 853d ae9e af3d bed7 623d
00000260: c4ea eabb e86d 6a3e 0e0e 6d3e 39d4 633e
00000270: 5fb2 0a3e 5f49 203e ab8a 123e 2270 ee3d
00000280: 12be f03d 6347 b83d 48d0 5e3e 6804 3e3e
00000290: 713e 3b3e f352 943d 509c 663d fd77 313d
000002a0: c417 0f3e 2b0d ea3d 4643 783d 296f 693e
000002b0: 79d3 723e d0c7 5a3e b9b5 143e 0f64 f63d
000002c0: 4599 753d abaf 163e 3d09 213e 77f0 213e
000002d0: a302 163e d9f3 0b3e 2c71 033e dfda a23d
000002e0: b719 983d 6ba8 833d c83b a23d 2073 913d
000002f0: 56fc 8c3d f2e1 733e 16bb 733e 6f77 703e
00000300: 4144 093e 058b fb3d a59e a63d 6e8a 913d
00000310: 2d2e 803d 8f08 4f3d e6e8 703d 04d8 653d
00000320: 204f 2e3d 90ba 253e 6396 5c3e 6bd1 583e
00000330: 2f78 983d 2909 fd3d 259d aa3d c72d a03d
00000340: 9dc6 df3d 1b4a 8e3d 5213 4e3e 913d 403e
00000350: e25f 363e d26a a03d c4c1 773d 4966 3c3d
00000360: afd6 083e 306d 053e 9930 bb3d cbcb 1f3e
00000370: aea4 663e 911f 563e 789a 033e 0312 0a3e
00000380: c946 b43d 3382 183e 4dd0 1f3e e1e7 163e
00000390: e10d 103e 1bbe 053e 49fa 133e 3ed6 653d
000003a0: 7120 6a3d 9dc1 433d 45b2 9a3d 0321 8a3d
000003b0: a27d 5d3d 4086 313e 1422 3c3e 494d 633e
000003c0: 6df1 e8ba 5e66 41bb e7d4 7dbb 0232 c3bb
000003d0: f447 00bc 35b5 ebbb e2d1 4d3a 809b b5b8
000003e0: 1efa 893a ecd5 7dbc c467 febc 96a7 dcbc
000003f0: d01e febb 2af4 27bc 19c5 f6bb 1ae7 32ba

attentionConvNet.2.bias f4 [8]
-0.015141941 0.08666655 0.1351723 0.15894297 0.092634626 -0.01431651 0.10776742 0.10016956
00000000: e715 78bc 3b7e b13d 9b6a 0a3e f2c1 223e
00000010: 39b7 bd3d cc8f 6abc 2ab5 dc3d b325 cd3d

attentionConvNet.4.weight f4 [4, 8, 3]
8.827538e-05 -1.1073e-05 -5.7058125e-05 0.00019145876 0.000152589 0.00022932421 -0.09348614 -0.10979992
-0.08590347 -0.09366046 -0.10292623 -0.08887017 -0.085794784 -0.09127609 -0.07622548 9.8974415e-05
-4.3029315e-05 -8.007387e-06 -0.08497121 -0.082073845 -0.08899587 -0.07473968 -0.0718364 -0.05436775
6.83486e-07 0.00041391695 -5.8028567e-05 -0.028780742 0.00076134497 0.058467574 -0.12392143 -0.13774101
-0.15043674 -0.11771343 -0.14085607 -0.15365556 -0.115390204 -0.12950109 -0.12994434 0.0001614989
8.787475e-05 0.00026405748 -0.11722654 -0.13527724 -0.11884854 -0.08442784 -0.090377584 -0.06317854
-2.6348178e-05 0.00055788155 2.3628698e-05 -0.00038097514 -0.0020365324 -0.003600479 -0.08326425 -0.08400842
-0.098918095 -0.08953115 -0.10051966 -0.097689316 -0.08891694 -0.089519806 -0.0966889 5.2299005e-05
-7.796383e-05 0.00029786155 -0.07541613 -0.08086644 -0.09337758 -0.06763457 -0.06647217 -0.06146453
-0.050399438 -0.050449528 -0.043280486 -0.14501885 0.118267596 -0.05811691 0.16340119 0.22581404
0.24472679 0.17165539 0.24747932 0.26077858 0.1595781 0.25266698 0.20539051 -0.058358062
-0.07024238 -0.064225115 0.16575572 0.22975023 0.20512892 0.21507609 0.16523066 0.10272028
00000000: 7c20 b938 2cc6 39b7 b251 6fb8 52c2 4839
00000010: 4c00 2039 c076 7039 a975 bfbd c8de e0bd
00000020: 29ee afbd 0ed1 bfbd fdca d2bd 9001 b6bd
00000030: 2db5 afbd f5ee babd 1b1c 9cbd 7c90 cf38
00000040: 607a 34b8 7757 06b7 6305 aebd 5516 a8bd
00000050: 7743 b6bd 1e11 99bd f61e 93bd b8b0 5ebd
00000060: cd78 3735 fe02 d939 b363 73b8 97c5 ebbc
00000070: ff94 473a b27b 6f3d 85ca fdbd fb0b 0dbe
00000080: 170c 1abe bd13 f1bd 933c 10be e257 1dbe
00000090: b351 ecbd ef9b 04be 2110 05be 0858 2939
000000a0: 6649 b838 3271 8a39 7814 f0bd 1e86 0abe
000000b0: dd66 f3bd 81e8 acbd e217 b9bd c063 81bd
000000c0: 4806 ddb7 cc3e 123a 3e36 c637 9ebd c7b9
000000d0: 5877 05bb 04f6 6bbb 7286 aabd 9b0c acbd
000000e0: 9295 cabd 1c5c b7bd 40dd cdbd 5611 c8bd
000000f0: 161a b6bd 2956 b7bd d404 c6bd a15b 5b38
00000100: 8380 a3b8 4d2a 9c39 c673 9abd 4e9d a5bd
00000110: bf3c bfbd fe83 8abd 9022 88bd 3bc2 7bbd
00000120: a46f 4ebd 2aa4 4ebd e146 31bd d27f 14be
00000130: 4836 f23d ff0b 6ebd a452 273e cc3b 673e
00000140: a999 7a3e 6ec6 2f3e 386b 7d3e c584 853e
00000150: 7168 233e 915d 813e e451 523e dd08 6fbd
00000160: 3ddb 8fbd 7588 83bd debb 293e a543 6b3e
00000170: 510d 523e e83c 5c3e 3a32 293e 035f d23d

attentionConvNet.4.bias f4 [4]
-0.03757439 -0.16106515 -0.013446893 0.20939483
00000000: 9be7 19bd 43ee 24be 5b50 5cbc 996b 563e

attentionConvNet.6.weight f4 [2, 4, 3]
0.11004822 0.09841045 0.10262253 0.12691419 0.106520176 0.13919468 0.08665415 0.113011554
0.11061971 -0.17916691 -0.26506394 -0.26437637 0.016474294 0.1759597 0.10405543 0.14061813
0.24652672 0.16174488 0.10671013 0.10747776 0.1008842 -0.15562308 -0.3102182 -0.334707
00000000: f660 e13d 6b8b c93d c32b d23d cbf5 013e
00000010: 4027 da3d 0d89 0e3e bb77 b13d 9a72 e73d
00000020: 968c e23d 8877 37be 76b6 87be 575c 87be
00000030: 19f5 863c c82e 343e 031b d53d 33fe 0f3e
00000040: 8071 7c3e 73a0 253e d78a da3d 4d1d dc3d
00000050: 609c ce3d a85b 1fbe ebd4 9ebe b75e abbe

attentionConvNet.6.bias f4 [2]
-0.33891675 0.22097461
00000000: 7f86 adbe 2b47 623e

attentionConvNet.8.weight f4 [1, 2, 3]
-0.2953267 -0.4337096 -0.1382948 -0.42530927 -0.113309585 -0.48936698
00000000: 1035 97be 2f0f debe 279d 0dbe 23c2 d9be
00000010: db0e e8bd 4f8e fabe

attentionNet.0.weight f4 [8, 8]
0.17046736 -0.28779283 -0.09054084 -0.1403473 -0.051186565 -0.40260187 -0.17279387 -0.30331743
-0.29259595 -0.19803101 0.193037 -0.04768476 -0.30483633 -0.3137202 -0.13391839 0.066919975
0.003309049 0.12687755 -0.2181189 -0.061598524 -0.28320286 -0.29079577 0.34844884 0.0863021
0.55245966 0.38282505 0.061947115 -0.002063814 0.012137166 0.5127913 0.30671686 0.52681285
-0.19338743 -0.36015847 -0.21791525 -0.06774066 -0.061453175 -0.23672181 -0.11679749 -0.053906348
0.083357364 -0.3422891 -0.2995416 -0.0072606206 -0.08590994 -0.10578183 -0.21336679 -0.26540065
0.012991607 0.10323674 -0.25927678 -0.071350485 -0.10727357 -0.17880456 0.052358024 -0.1894966
0.07807285 -0.4093669 0.24861307 -0.3784853 0.13150981 -0.21091957 0.035971344 -0.31447738
00000000: ff8e 2e3e 9559 93be 7a6d b9bd 34b7 0fbe
00000010: 01a9 51bd d521 cebe e0f0 30be 6c4c 9bbe
00000020: 23cf 95be a4c8 4abe 7eab 453e 1851 43bd
00000030: 8213 9cbe ef9f a0be e721 09be 570d 893d
00000040: a1dc 583b 30ec 013e 905a 5fbe bc4e 7cbd
00000050: f7ff 90be 2fe3 94be e367 b23e 28bf b03d
00000060: ff6d 0d3f a501 c43e 42bc 7d3d 0e41 07bb
00000070: f7da 463c 4a46 033f fe09 9d3e 35dd 063f
00000080: 5b07 46be b166 b8be 2d25 5fbe 9dbb 8abd
00000090: 53b6 7bbd 3467 72be 8633 efbd e7cc 5cbd
000000a0: 44b7 aa3d 8440 afbe 845d 99be 80ea edbb
000000b0: 8df1 afbd 25a4 d8bd d37c 5abe 98e2 87be
000000c0: c0da 543c c96d d33d edbf 84be 3420 92bd
000000d0: 3fb2 dbbd 8b18 37be 5e75 563d 660b 42be
000000e0: a9e4 9f3d 8a98 d1be 6d94 7e3e d3c8 c1be
000000f0: 82aa 063e 4dfb 57be b056 133d 2e03 a1be

attentionNet.0.bias f4 [8]
-0.1857423 0.29124394 0.20556112 -0.03215591 -0.14663728 -0.17609817 -0.39870456 -0.1699126
00000000: 3b33 3ebe ed1d 953e 9d7e 523e eab5 03bd
00000010: 1528 16be 1453 34be 0123 ccbe 92fd 2dbe
