best_audcond.pt (torch, 838973 bytes, 30 tensors)

audionet.encoder_conv.0.weight f4 [32, 29, 3]
000000 f2 d8 89 bd d6 4a 6b 3d ac bb fb 3d 51 8b 1d bd
       -0.06730832 0.057444416 0.12291655 -0.03846294
000010 00 6f 7d 3d d1 f8 86 bd 36 3d a1 bc 22 a2 c8 bc
       0.061873436 -0.06590427 -0.019682508 -0.024491373
000020 a6 20 a7 3d 80 ea a5 3d 67 d1 9a bd 09 93 06 3d
       0.08160524 0.08101368 -0.075594716 0.032855067
000030 88 dc 6f bd 7f e9 4c bd 4d 4b 42 3d 09 b0 17 3d
       -0.058559924 -0.050027367 0.047435094 0.037033115
000040 cf 1f 43 bb b0 29 57 bd 67 71 8a 3d e7 96 71 3c
       -0.0029773598 -0.05252999 0.06759911 0.014745451
000050 5f 18 60 3d 34 6e fa 3c c7 66 20 3d 36 37 ac 3d
       0.054710742 0.030570127 0.039160516 0.08408968
000060 65 ae 8e 3c d5 c7 f3 ba cb 1f 4b 3d 03 43 72 bd
       0.017417142 -0.0018598983 0.049590867 -0.05914594
000070 73 3f c1 bd de 5c ef bc 2c c8 94 3d 7f 36 81 3c
       -0.0943593 -0.029219087 0.07264742 0.015773056
000080 43 9c c2 3d fa 68 35 3d 7d d3 5b 3d 62 6a 9c 3c
       0.09502461 0.044289567 0.053668488 0.019093696
000090 05 9e 4b 3d 88 32 a4 bc d7 f4 d3 bc 19 80 f3 bd
       0.049711246 -0.020043626 -0.025873585 -0.11889667
0000a0 58 f9 63 3c 21 ed 95 3d a7 8a 43 3c af 2f 08 3d
       0.013914429 0.073206194 0.011934913 0.0332486
0000b0 e0 42 2f bd 27 f6 de 3d 44 54 53 3d af 92 97 3d
       -0.042788386 0.108867936 0.051594034 0.074010246
0000c0 5f 29 c2 3c 05 c7 8e 3d ff c8 72 bc 9b 32 83 bd
       0.023701368 0.06971554 -0.014818429 -0.064061366
0000d0 23 07 e2 bc 3d 6a 01 3d 23 bc e2 3c f5 f9 94 bd
       -0.027591294 0.031595457 0.027677601 -0.07274238
0000e0 69 ac 5d 3d 18 7e 2a bd 01 57 88 3c 1f a7 c9 3d
       0.0541195 -0.04162416 0.01664305 0.09846329
0000f0 ca 01 64 bc dd a4 84 bd 1e cd 87 bd db 5d 05 3c
       -0.013916442 -0.06476758 -0.0663092 0.008140053
000100 50 50 8d 3c bc bc ae 3d 66 28 26 bd fd a0 34 bd
       0.01725021 0.08532092 -0.04056587 -0.044098843
000110 9e 47 1b 3d c5 06 a8 bd cc d9 86 3d 16 0c dc bb
       0.037910096 -0.08204416 0.0658451 -0.006715308
000120 1b 88 bf 3d 13 7d 57 bc e4 9f c3 3d 98 db 87 bd
       0.09352132 -0.013152379 0.09551981 -0.06633681
000130 3e 6d 02 bd 67 6d 73 3d 1e 95 a3 3d 33 d9 3a bd
       -0.031842463 0.059430506 0.07987426 -0.045617294
000140 7b 20 ca bd ce 2f ad 3d 6a e6 c2 3d 09 3e 04 bd
       -0.098694764 0.08456384 0.09516604 -0.032285724
000150 ca 17 c1 bb 71 9c a1 bd b7 a0 29 bc ad f8 ef 3d
       -0.0058927285 -0.07891167 -0.010353259 0.11717353
000160 93 77 0f 3d 84 d3 bb 3d a9 a0 89 3d 35 30 b4 3d
       0.035026144 0.09171203 0.067200966 0.08798257
000170 b4 da ad 3b e1 99 a6 bd f7 84 b0 3d 3a 04 cb bd
       0.0053056125 -0.08134819 0.08619111 -0.099129155
000180 d2 ff 8d 3d 7e 25 d8 3d 50 ef 3a 3d f6 fa 5a 3d
       0.069335595 0.10554026 0.045638382 0.05346199
000190 d3 65 90 bc c0 b6 39 3c be cb bb bd 94 a7 ba 3d
       -0.017626679 0.011335075 -0.0916972 0.09113994
0001a0 79 9e a7 3d 4a f3 73 bd 35 ce e8 bb ae 8b fb 3c
       0.08184523 -0.05955819 -0.00710466 0.030706253
0001b0 2c 63 52 bd ec c1 66 bd 07 3c b4 bc 6c eb ed 3d
       -0.05136411 -0.056337282 -0.02200128 0.11617169
0001c0 23 c8 0a bd 0f ec 1f 3d c7 61 09 bd 6d da 86 3d
       -0.03388227 0.039043482 -0.033540513 0.0658463
0001d0 10 4c ec bd 7e 89 df bc 8c 3f 51 3d ab 9f 5b bd
       -0.11537945 -0.027287241 0.051085994 -0.053619068
0001e0 39 56 2a bd f9 fc 39 bd 4d 14 10 bd af c3 d0 bd
       -0.041586135 -0.04540727 -0.03517561 -0.10193574
0001f0 20 64 bd bd 01 1f 7c 3d 02 3c 9c bd 71 9c b9 bd
       -0.09247613 0.061553005 -0.07628633 -0.09063042
000200 23 1b 2b bd f8 b6 b9 bc 70 26 ad bb 88 c7 a8 3d
       -0.041773926 -0.022670254 -0.005284123 0.082411826
000210 ee 01 02 bd 96 de d4 3d 8e 6f 7f 3d a4 19 ce bd
       -0.03174012 0.103940174 0.062362246 -0.10063484
000220 87 21 e8 3b 06 d3 81 bc 8a dd 87 bd 00 a3 b3 bd
       0.007084075 -0.015847694 -0.06634052 -0.08771324
000230 8d 09 e9 3c c9 58 00 3c e7 e3 d9 bd 9a ed d7 bd
       0.028446937 0.007833668 -0.10639172 -0.10543366
000240 70 09 d0 3c 11 69 90 3d 63 2c 40 3d 46 40 a1 bd
       0.025395125 0.0705129 0.04691733 -0.07873587
000250 9e d4 4d bd 2d 40 8e 3d 81 19 c0 bd b9 9a 89 bd
       -0.050251596 0.06945834 -0.093798645 -0.06718964
000260 52 b8 c5 bc d8 72 2f bd 2d 1d 5b ba b0 0d 81 3d
       -0.024135742 -0.042834133 -0.00083585345 0.06301439
000270 3e ca 2e 3d fd f3 ec bc 33 28 09 bc ba a8 1c 3c
       0.042673342 -0.028924936 -0.008371401 0.009561712
000280 2d e5 bd 3c 02 31 78 3d 94 1c af bd c8 3b 88 bd
       0.023180569 0.060593612 -0.08550373 -0.06652027
000290 2b 71 a7 3d 20 46 c7 bc 1a 61 e5 3d c6 a3 bd 3c
       0.08175882 -0.02432543 0.11200161 0.023149382
0002a0 ca 5b a7 3d 25 98 c8 3d 66 f0 4e 3d cc c1 a1 bd
       0.08171804 0.09794644 0.05052223 -0.07898292
0002b0 d9 a8 38 3d cd 55 19 bd fb 5b fd 3d 3b 75 fb 3d
       0.0450829 -0.03743534 0.123710595 0.12278219
0002c0 aa a6 d1 3d f0 1b 16 3d 1b a9 a7 bd 10 1c a5 3d
       0.10236867 0.036647737 -0.08186551 0.08061993
0002d0 9f 96 02 3d ed 38 b7 bd ca e2 49 3d c3 19 33 3d
       0.031881925 -0.089464046 0.04928855 0.04372574
0002e0 70 68 6f bd aa 5c 4f 3b 3d d6 d4 b9 85 4b 64 bd
       -0.05844921 0.0031640925 -0.0004059541 -0.055736084
0002f0 cd d0 43 3d 1f 34 54 3d ae c4 ae bd a9 b0 cf bc
       0.04780655 0.05180752 -0.085336074 -0.025352793
000300 d1 7c 6f 3a 8c 2d e4 bc 27 dc ac bd 7d 24 c9 3d
       0.00091357256 -0.02785375 -0.08440428 0.09821413
000310 9e 86 8a bd fb 9a 20 bb 1d 1c 9d 3b a4 73 d0 3d
       -0.067639574 -0.0024506438 0.004794611 0.10178307
000320 ed 2e 0c 3d 14 c1 8e bd d3 10 d0 bd 1e d6 43 3d
       0.03422444 -0.069704205 -0.10159459 0.04781162
000330 e2 f6 9f bd 79 ad 58 3c d6 cc 97 3c 99 7c 75 bd
       -0.07810761 0.013224953 0.01853029 -0.05993328
000340 d3 ba bf bc 13 81 18 3d 44 fc a4 bd 6c 9f 0c 3d
       -0.023404514 0.03723247 -0.08055928 0.034331724
000350 8a 72 9d 3d 49 99 73 bd 98 c2 1b 3d c3 9a 5b 3d
       0.07687862 -0.059472356 0.038027376 0.05361439
000360 6f d9 79 bd 73 83 ca bc 2b a4 c8 3d 78 1d 67 bd
       -0.060998376 -0.024720883 0.097969376 -0.056424588
000370 46 3e 05 bd 04 17 a5 3d c8 90 ba 3d cb 6f b0 bd
       -0.03253009 0.080610305 0.09109646 -0.08615073
000380 c6 8f 42 3d 1f d8 a5 bd 05 76 a5 bd 96 7f c2 bd
       0.047500394 -0.080978625 -0.08079151 -0.09496991
000390 92 79 eb bb 2a 5f d4 bd 50 76 87 bd 29 33 9e 3d
       -0.007186123 -0.103697136 -0.06614363 0.07724602
0003a0 a9 04 71 bc a0 1b 85 bc 74 e6 a8 3d 1f 3a 8a bc
       -0.014710584 -0.016248524 0.082470804 -0.016873417
0003b0 ca c6 ae 3d 1c 48 89 bc ec 4c 8b 3c 77 64 e7 bd
       0.0853401 -0.016758017 0.017004453 -0.11298459
0003c0 db 05 19 3d 9f d6 0b bc 09 fe f3 3c 20 9f 84 3d
       0.0373591 -0.008535056 0.02978422 0.06475663
0003d0 d6 54 90 bd b1 77 e8 3d 31 e5 9f bc c0 f9 56 bd
       -0.07047431 0.11350954 -0.019518467 -0.052484274
0003e0 7b 0a 4c 3d 3a dd 87 3c f9 5b 3f bd 73 d2 ec bc
       0.049814682 0.016584981 -0.04671857 -0.028908944
0003f0 7c 04 42 3d bb 10 eb 3b 13 57 3c 3d fd 19 50 3d
       0.047367558 0.0071736253 0.045981478 0.050806034

audionet.encoder_conv.0.bias f4 [32]
000000 c9 ca ae bd ee 97 ea bd c8 d0 30 bd ce 41 a5 bd
       -0.08534772 -0.114547595 -0.04316786 -0.08069192
000010 b2 3e 64 3d 6e e8 75 3d db 79 cb ba 17 46 4d 3b
       0.055723853 0.060036115 -0.0015523987 0.0031322294
000020 47 e8 cd bd b9 c1 86 bd aa 06 31 bd 8e 08 85 3c
       -0.10054069 -0.065799184 -0.043219246 0.01623943
000030 24 ac bb bc 87 dc 9a bd a9 02 ee bc d6 19 7f 3c
       -0.022909231 -0.075615935 -0.029054003 0.015570125
000040 9f 78 72 3d c9 9d 15 3d 0a e4 2f bd 84 9e 90 bd
       0.059197064 0.03652743 -0.042942084 -0.070614845
000050 24 bd 0e bd a9 1d 30 bd 94 e7 6e 3b f5 ba ac 3d
       -0.034848347 -0.042997036 0.003645395 0.08434097
000060 f4 1e 42 3d cf 8c 95 3c 04 4a 21 bd 0b 05 00 bd
       0.0473928 0.01825562 -0.039377227 -0.03125481
000070 86 f1 29 3d 75 9a 6e 3d 20 79 c7 bd 56 f0 c0 3b
       0.0414901 0.05825277 -0.097399 0.0058880253

audionet.encoder_conv.2.weight f4 [32, 32, 3]
000000 02 08 c8 3c 21 57 7f 3d 6a ae a9 3d f4 0e b7 3c
       0.02441788 0.062338952 0.0828522 0.022345997
000010 51 0d 2c 3d e0 09 69 bd 7a db 49 3d 65 99 52 3d
       0.042004887 -0.056894183 0.049281575 0.05141582
000020 d2 b5 f2 bd 40 21 08 3c bd bb b3 3b f6 05 77 3d
       -0.11851086 0.008308709 0.0054850266 0.06030842
000030 4c 86 8f 3d 0c 62 d5 bc 45 62 97 bd 28 a4 5b 3d
       0.07008037 -0.026047729 -0.0739179 0.05362335
000040 8f 48 c5 bc 9d 9b 5b 3d 71 02 df 3b 09 e0 5d bd
       -0.02408245 0.0536152 0.006805711 -0.054168735
000050 d9 28 74 bd 2c 5a 28 3c 57 4e b9 3d dc c3 87 bd
       -0.059609268 0.010275405 0.09048145 -0.06629154
000060 0a 08 3a 3d 2b 2c 15 bd 0e 0e 77 3c d8 f5 15 3d
       0.045417823 -0.036419075 0.0150790345 0.036611408
000070 b9 59 c3 bd be b0 8d ba 2d b5 79 3d ea 7e 85 ba
       -0.095385976 -0.001081012 0.0609638 -0.0010184918
000080 0c 94 7b bd 0e 0b b6 bd b3 09 c1 bc 2a e7 8c bd
       -0.061420485 -0.08888827 -0.023564195 -0.068800285
000090 10 8d b6 3d 05 eb 0f 3c 28 3e 8c bd 7e 14 85 3d
       0.08913624 0.00878406 -0.06847793 0.06498049
0000a0 df d7 ca bb 4c 07 9d 3d ad 58 12 3d 07 4f 46 3c
       -0.0061902846 0.076674074 0.0357291 0.0121038025
0000b0 f2 04 87 bd e7 d8 a4 3d 81 23 b4 3d 2e b3 9f 3d
       -0.0659274 0.08049183 0.08795834 0.07797848
0000c0 7a c3 d9 bd 9f a4 71 3d 04 de c1 bd 95 6a 55 bd
       -0.10632987 0.058994886 -0.09466174 -0.052103598
0000d0 78 47 93 3d e0 15 e8 3d 24 bc 66 3d 62 50 37 bd
       0.07191366 0.11332297 0.05633177 -0.044754393
0000e0 02 a9 df 3b f6 80 8f 3c 38 75 b2 bd 81 e1 7c bc
       0.006825567 0.017517548 -0.08713764 -0.015434624
0000f0 28 9e 30 bb c7 ac 01 bd b2 0b 80 3c fd 0d f0 bc
       -0.0026949737 -0.031658914 0.015630577 -0.029303545
000100 5c f9 c6 bd 4c d0 60 bd 6c f3 5e 3d 4b 93 e2 bd
       -0.0971553 -0.054886147 0.054431364 -0.1106325
000110 5f 98 c7 3c 17 3b 2e 3d df 23 25 bd a3 76 37 bd
       0.024364648 0.04253682 -0.040317412 -0.044790875
000120 2f 3b cb 3d 1f 68 b9 3d c0 16 12 bd ad eb 56 3d
       0.09923398 0.09053063 -0.035666227 0.05247085
000130 e8 14 e4 3b 29 10 af bd 35 1f ba bd 31 67 be bd
       0.0069605 -0.08548004 -0.090879835 -0.09297026
000140 04 68 a8 bd c2 e9 26 bd fc 9c e2 bd f6 38 c1 bd
       -0.082229644 -0.040750273 -0.11065099 -0.094346926
000150 d9 fe 69 3d 33 d0 60 3d dd 35 a8 3d 41 ff 9c bd
       0.057127807 0.054886054 0.082133986 -0.07665873
000160 e3 7b 93 bd ea 43 cc 3c 73 d6 92 bd 65 49 85 3c
       -0.07201364 0.024934728 -0.07169809 0.016270349
000170 9f e0 78 3d b7 2e 63 bd 7b a6 1b bd 9a ce 16 bd
       0.06076109 -0.055464473 -0.038000565 -0.036818124
000180 5f 0b 2f bc e6 30 b6 3c 8d bc aa bb 08 8c de bc
       -0.010683863 0.022240113 -0.0052104653 -0.027166381
000190 8a 7d 96 3d 73 5b f3 3c 79 ee be 3c fa d2 5a 3d
       0.073481634 0.029706692 0.023307072 0.05342386
0001a0 92 fe 14 bd 74 15 32 3d 14 ad a9 bd 8b ba b8 bd
       -0.03637559 0.04347749 -0.08284965 -0.09019955
0001b0 dc be 93 bc 05 10 a6 bc af 97 83 bd 20 32 1c 3d
       -0.018035345 -0.02027131 -0.06425416 0.03813374
0001c0 fb 4a 57 bd 07 fd 2a bc 42 1d 0c 3d b7 11 2e 3b
       -0.05256174 -0.010436303 0.03420759 0.0026560852
0001d0 34 db 98 bc 4a 9a 81 bd 16 96 ba 3d 7b 9c c1 bd
       -0.018659212 -0.063282564 0.09110658 -0.094536744
0001e0 68 a3 93 3d 74 f7 b4 bd 91 6e 0d 3d f5 7b 4d 3a
       0.07208902 -0.088362604 0.034529272 0.00078386004
0001f0 b9 a4 68 3d 3f e1 40 bc 35 28 9d 3d 19 89 ac bd
       0.056797717 -0.011772453 0.076736845 -0.08424587
000200 4c 7f a0 3d b9 c6 69 3c b4 a2 95 bd 30 ac ba bd
       0.0783678 0.014268571 -0.07306424 -0.091148734
000210 b1 30 ad bb 95 2f aa bd 3a 26 32 bd 12 26 83 3d
       -0.0052853455 -0.08309857 -0.043493487 0.06403746
000220 02 01 43 3d 2b 4b 2b 3c ef b8 1d 3d a1 f2 50 3d
       0.047608383 0.010454933 0.038506445 0.05101264
000230 9a eb 19 bd 87 6d 82 bb 1f ab 49 3d a0 01 97 3d
       -0.037578203 -0.003980342 0.04923546 0.07373357
000240 32 95 25 bd 69 fa 82 bd 13 95 a2 bd 51 04 87 3d
       -0.040425487 -0.06395418 -0.0793859 0.0659262
000250 58 d7 64 3d d1 e7 ea 3c 85 35 c1 3d f8 c0 1f 3c
       0.05586943 0.028674992 0.09434036 0.009750597
000260 92 cd 90 bc 31 2d 62 bd 6a df 09 3d 63 67 2d 3c
       -0.017676149 -0.05521888 0.03366033 0.010583731
000270 82 d8 a6 3d 36 b9 13 bd 37 a1 4c bd 94 9d e6 3c
       0.08146764 -0.036065303 -0.049958434 0.028151311
000280 3b 7e 16 3d 37 db f7 3b 21 f7 7f bd f4 7f 26 3c
       0.036741477 0.0075639742 -0.06249154 0.010162342
000290 4f d7 23 3c 17 fd 84 3b 11 19 9d bd f9 ec b9 bd
       0.010000064 0.004058491 -0.07670797 -0.09078402
0002a0 c2 eb 80 bd 80 02 aa bd be 35 b8 bd 08 45 ea bd
       -0.06294967 -0.08301258 -0.089946255 -0.11438948
0002b0 be 88 67 3d fd e2 57 3c 40 c8 dc bc 6b 19 50 bc
       0.056526892 0.013176677 -0.026950955 -0.012701373
0002c0 0a f1 3e 3c 35 03 78 bd 07 49 07 bd 14 b9 57 3d
       0.011654148 -0.060549933 -0.03302863 0.05266674
0002d0 12 1d 9c bd af 72 5b bd b5 59 9a 3c ce d9 91 bd
       -0.07622732 -0.053576168 0.018841604 -0.07121621
0002e0 39 3a ad ba d7 3b 87 bd 4e 6b cb 3c 17 d0 6f 3d
       -0.0013216204 -0.066032104 0.02483144 0.05854806
0002f0 17 f3 8c 3d d4 92 c3 bc 40 9a 22 bd bb dc 17 3d
       0.06882303 -0.023873724 -0.039697886 0.03707574
000300 e4 b6 ad 3d 68 de 88 3d b5 9c bb 3b f7 69 6e 3d
       0.08482149 0.066830456 0.005725468 0.058206525
000310 8a 14 94 3d cb e4 97 3d 17 a5 b6 bd ef d9 81 3d
       0.0723048 0.07416686 -0.08918207 0.06340396
000320 ff 0c 85 3d 01 e0 94 3d 95 d0 15 bd 73 ce ab 3d
       0.064966194 0.07269288 -0.036575872 0.083889864
000330 29 87 71 3d b9 de 86 3d c5 01 c4 3d a9 03 87 3d
       0.05896679 0.0658545 0.0957065 0.06592495
000340 11 85 a7 bd 99 bc 7e bd f6 74 8f 3c 44 fd 31 3c
       -0.08179677 -0.06219158 0.017511826 0.010863606
000350 b6 8c 35 3d 6a ea 63 3c ef db 93 bc a1 a7 1d 3d
       0.044323646 0.013910869 -0.018049208 0.03848994
000360 0b 99 c2 3c 25 e0 53 bd 33 cb 55 3c 09 19 8f bd
       0.023754617 -0.051727433 0.013048935 -0.06987197
000370 32 65 77 bd 09 fd a2 3d c7 bf 91 bd 62 91 8a 3c
       -0.06039924 0.07958419 -0.07116657 0.016915027
000380 8f dd 8b bd 6d 33 1e 3d 4f 20 c2 bd 4e dc 95 bc
       -0.06829368 0.038623262 -0.094788186 -0.018293526
000390 c3 ba 19 3d 6e 2d 79 3a bb 71 c9 bd 8e 7d 5a 3b
       0.037531625 0.0009505366 -0.098361455 0.0033338997
0003a0 8f a9 1d bd e1 00 c5 bd be af ef 3d 8e 0c 5c 3d
       -0.03849178 -0.09619308 0.11703442 0.05372291
0003b0 49 62 8e 3a 52 23 b1 bd c7 ad cf 3d 44 cd bc bd
       0.0010863031 -0.08649315 0.10140567 -0.09218839
0003c0 38 16 53 3d 9f 9a ad 3d 2b d4 cf 3d ad ca 7b bd
       0.05153486 0.08476757 0.1014789 -0.061472584
0003d0 90 5d bf 3b c1 9c fe 3c 48 f2 45 bc cd 56 9f 3c
       0.005840011 0.031080605 -0.01208169 0.01945057
0003e0 40 0f 83 bc 23 28 f2 3a 8b 2c e9 bc 76 86 a2 bd
       -0.015998483 0.0018475096 -0.028463623 -0.07935803
0003f0 eb 98 84 3d 21 ac 9d 3d bc 60 bc 3d 48 12 96 3d
       0.06474479 0.076988466 0.09198138 0.073277056

audionet.encoder_conv.2.bias f4 [32]
000000 36 f1 86 bc 20 04 8b 3d e0 3e 97 bd 17 c8 7e 3d
       -0.01647244 0.06787896 -0.07385039 0.06220254
000010 b0 54 3f 3d b7 b3 d3 bc de d2 81 bd 88 b4 94 3d
       0.046711624 -0.02584253 -0.06339048 0.07260996
000020 a6 3a aa bc ad 2e 9c 3d 5d 94 d8 3d 29 8a 8a bc
       -0.020779919 0.0762609 0.10575173 -0.016911583
000030 e5 28 6b 3d 0f 22 69 bd 99 8e 39 3d de 67 ba bd
       0.057412047 -0.056917246 0.045302007 -0.09101842
000040 8e 3a bd 3d 21 99 27 3d 41 32 d5 bc 4f 8b c5 3c
       0.09239684 0.04091752 -0.02602494 0.02411428
000050 15 26 96 3c 38 fe b9 3d 88 1d 32 3d 04 29 b1 bd
       0.018328706 0.090816915 0.043485194 -0.08650401
000060 d2 da 3c 3d ad c9 a9 3d 47 75 6f 3d 3c 87 2d bd
       0.04610712 0.0829042 0.058461454 -0.042365298
000070 60 2f 4e bd 2f 13 b8 3d 62 72 c4 3d aa 77 96 bd
       -0.05033815 0.08988034 0.09592129 -0.07347043

audionet.encoder_conv.4.weight f4 [32, 32, 3]
000000 81 12 a9 bd 32 74 ff bc f0 c0 ca 3d 4c f2 65 3d
       -0.082554825 -0.031183336 0.09900081 0.056139275
000010 16 fd 91 bd d5 a7 d1 bd dd f0 25 bb 5c eb 50 3d
       -0.071283504 -0.102370895 -0.0025320568 0.051005706
000020 40 c5 af 3c 16 d5 52 3d 89 37 52 bd ab ba 24 bd
       0.02145636 0.051472746 -0.051322494 -0.040217083
000030 a2 89 71 bd 0d 18 85 bd dc ac 8d 3d 1b fe 84 bd
       -0.058969148 -0.06498728 0.06917736 -0.06493779
000040 dc 78 6d 3d ad 0c 47 3d 30 2c 8a bd ca b7 b2 bd
       0.05797659 0.048596073 -0.06746709 -0.08726461
000050 a9 35 41 bd 96 94 cb bc 40 17 a3 bd 94 a7 85 3d
       -0.047170315 -0.024851125 -0.07963419 0.065261036
000060 ca ac fb bb 7b 7d 8d bd f1 e6 29 bd 71 ec b6 3d
       -0.00768051 -0.06908699 -0.04148001 0.08931816
000070 d9 20 21 bc 46 26 16 bb 85 54 8d bc 86 b0 44 3c
       -0.009834492 -0.0022910996 -0.017252216 0.012004977
000080 10 32 e6 3c 0f d1 40 bd 6e ae b8 3d 3f d3 65 3d
       0.028100044 -0.047074374 0.09017645 0.056109663
000090 c3 05 96 bd cb 48 a5 bd 46 12 17 bd 18 0a 22 bc
       -0.07325318 -0.08070525 -0.03688266 -0.009890102
0000a0 c7 3f b7 3d a0 29 b3 bd 7b 5a 3d bd a5 28 25 3d
       0.089477114 -0.08748174 -0.046228867 0.040321965
0000b0 7f c4 6a bd b6 be 87 3d 58 27 08 bd 3b d0 92 3d
       -0.0573163 0.06628172 -0.033240646 0.07168623
0000c0 77 bc 02 3d 07 81 8d 3d fc f1 e1 3b 5b a6 e0 bc
       0.031918015 0.06909376 0.006895302 -0.027423074
0000d0 d0 96 d1 3c dd 2b 81 3d 68 d1 ef 39 6e b3 ae bd
       0.025584608 0.063071944 0.00045741652 -0.08530317
0000e0 62 6e 3f bd 2b 44 be bc 5b 6b 0f 3c 5f 2a a4 3d
       -0.04673613 -0.023225864 0.008753623 0.08015894
0000f0 67 17 26 3d 41 f1 8a bd 12 0d b2 bd 81 87 c4 bd
       0.040549662 -0.06784297 -0.08693899 -0.09596158
000100 23 79 bc 3d 80 9f ef bc 3a 0f d7 3c c7 7d d6 3c
       0.092027925 -0.02925086 0.026252378 0.026183022
000110 91 ae 7e 3d d6 0d 6b 3d 82 82 d4 3d 6e a7 a0 3d
       0.0621782 0.05738624 0.10376455 0.07844435
000120 21 67 c6 3c 17 f8 be 3c 9f c5 a6 bd 58 46 58 bd
       0.024219098 0.023311658 -0.08143162 -0.05280146
000130 d1 d5 4d 3c 9a 98 9a 3d 8f cf e7 3a 06 26 d0 bc
       0.012563185 0.07548638 0.0017685759 -0.025408756
000140 7a 9a 68 3c 6e 92 4d bc c3 65 0a bd 64 97 1c 3d
       0.014196986 -0.012547119 -0.033788454 0.038230315
000150 76 fe b7 bd 60 dc 99 bd 6e da 8b bb bf c2 a7 3a
       -0.089840814 -0.07512736 -0.004267982 0.0012799128
000160 c7 b6 a3 3c 61 24 b1 bd 48 39 85 bd 14 60 ec bc
       0.019984616 -0.08649517 -0.06505066 -0.028854407
000170 a7 ea cb 3d af 6c 2c bc e8 7b d5 3c 03 42 59 3d
       0.09956866 -0.010523959 0.02606006 0.05304147
000180 5e ab bf 3d 4c 2d 96 3d 97 41 95 3d 2e e0 98 bd
       0.093588576 0.073328584 0.07287901 -0.07464634
000190 a1 2c a0 bd e0 11 85 3d 12 ca 3a 3d cc 02 72 bc
       -0.07821012 0.0649755 0.045602866 -0.014771175
0001a0 c7 dc ae 3c 41 c5 9a 3b 65 ed 97 bd 21 80 e9 3b
       0.02134551 0.0047232215 -0.07418326 0.00712587
0001b0 ad b9 fd bb 9c 3b 9e 3b 33 46 ef 3d 9e 92 cb 3d
       -0.0077430815 0.0048288833 0.11683311 0.099400744
0001c0 11 95 8f bd 48 ad c9 3d 3d 4e bc 3c 15 52 b3 3d
       -0.07010854 0.09847504 0.022986526 0.0875589
0001d0 6d 93 7a bd 51 de c9 bd b0 af 42 bd ca bd 20 3d
       -0.061175752 -0.098568566 -0.04753083 0.039243497
0001e0 8f 29 66 bd ce ff 27 bd 6e 13 a4 3d f0 68 a3 ba
       -0.056191977 -0.04101544 0.080115184 -0.0012467187
0001f0 fb f6 81 bc c2 84 b0 bd 7b 69 b2 bd fa 5b e9 3c
       -0.01586484 -0.086190715 -0.08711525 0.02848624
000200 54 6b 83 bc b9 79 13 3d ad c8 70 bb 5b a5 bc 3d
       -0.016042389 0.036004756 -0.0036740706 0.092112266
000210 de bf de 3c 99 a0 a6 bd 59 ec 88 3d 9b 45 dd bc
       0.027191099 -0.081361 0.06685705 -0.02701073
000220 d2 11 fe 3c 99 cc 5c 3c bb 57 be 3d ea ae 62 3c
       0.031014357 0.013476514 0.09294077 0.013835648
000230 80 79 a5 3d 9b e4 aa bd e4 2f 2e bd 03 10 60 3d
       0.08079815 -0.08344384 -0.04252614 0.05470277
000240 63 48 39 bd 3f 75 d9 bd f7 27 2b bd bf 8b 92 bd
       -0.04523505 -0.10618066 -0.04178616 -0.07155561
000250 63 51 5c bd 7b 47 bc 3d 08 36 1f bd 28 cb 1a 3d
       -0.053788554 0.09193321 -0.038869888 0.0377914
000260 15 98 4f 3d e0 9b a6 bd 0a 0b 6c 3d b3 dc a5 bc
       0.050682146 -0.081351995 0.057627715 -0.02024684
000270 4f 9b 1f 3d 80 d0 f1 bc bd b9 2b 3d f9 b1 31 bd
       0.038966473 -0.029518366 0.04192518 -0.04338262
000280 d5 26 a9 bd ed 73 78 bc 53 ee 2d bd 14 7c e4 bd
       -0.0825936 -0.015164358 -0.04246361 -0.111564785
000290 57 5a 40 bd 46 91 a2 bc fc 2a 68 bd 52 09 a8 bc
       -0.046961155 -0.019844662 -0.056681618 -0.020512257
0002a0 24 27 b9 bd 55 8f 8d bd aa aa b9 bd 5f 2a 2d 3d
       -0.090406686 -0.06912104 -0.09065755 0.042276736
0002b0 05 49 08 3d a6 d2 35 bd 0e 95 94 3d 03 ae 4e bd
       0.03327276 -0.044390343 0.072549924 -0.05045892
0002c0 45 ec aa 3d 2b 81 71 3d 00 f8 d5 bd 15 81 ab bd
       0.08345846 0.058961075 -0.10447693 -0.0837423
0002d0 f4 e4 da bc 9f 1e 3f 3d bc f4 43 3c 26 8f 9a bd
       -0.026720501 0.046660062 0.011960205 -0.07546835
0002e0 88 28 95 3d df 33 3d bd 51 01 09 3d 90 27 a1 3d
       0.07283121 -0.046192046 0.03344852 0.07868874
0002f0 ca a6 4b bd c8 0b 8b bd 07 65 3f bd 54 5d 74 3c
       -0.04971961 -0.067893565 -0.046727207 0.014914829
000300 1e 3a a5 bd 9a 36 3a 3d da ce 0f 3c b9 71 15 bb
       -0.080677256 0.04546223 0.008777345 -0.002280338
000310 ce 8f 9a 3d 68 0d 4c bd 16 01 c3 3d be af b9 ba
       0.0754696 -0.049817473 0.095216915 -0.0014166755
000320 7b 41 fe ba 7d d6 b2 bc d4 b1 98 3d 6f 20 1f 3d
       -0.0019398177 -0.021830792 0.07455793 0.03884929
000330 3b a9 05 3d a4 44 6d 3c f6 9a 50 bd 38 50 7f 3d
       0.032632094 0.014481697 -0.050929032 0.062332362
000340 c5 43 cb bd 10 dc 83 bc 92 21 ad bc 28 84 cb bd
       -0.099250354 -0.016096145 -0.021134172 -0.09937316
000350 15 62 35 bd 10 25 34 bd 0e 26 99 3c 67 db c1 bd
       -0.04428299 -0.043980658 0.018694904 -0.09465676
000360 1f a5 87 3c a8 6e b4 bd 25 21 15 3d bd c7 b8 3c
       0.016558228 -0.088101685 0.036408562 0.02255618
000370 02 b6 2f bd 3c 4f 1f bd d8 42 e5 bc 47 d7 57 3d
       -0.042898186 -0.038893923 -0.027985975 0.05269554
000380 2b 1b fa 3c 7e 4e 53 3d 40 f8 b6 bd 6f f7 1b 3d
       0.030530533 0.051588528 -0.08934069 0.038077768
000390 51 13 35 bd 7b b2 88 3d 93 38 d2 3c a8 c9 ad bd
       -0.044207875 0.066746674 0.025661742 -0.084857285
0003a0 c8 ed 16 3d 13 ce 9f 3c 2c d5 a7 bd db 99 3d bc
       0.03684786 0.019507444 -0.08194956 -0.0115723265
0003b0 81 9a cf bc 5c 0d 17 bd bc b7 01 bd 03 5c 03 bd
       -0.025342228 -0.036877975 -0.031669363 -0.03207017
0003c0 b8 5e 93 bd eb 6e 85 bd 7b a9 81 3d 15 9a 6a 3d
       -0.071958005 -0.065152965 0.06331154 0.05727585
0003d0 9c c3 81 bd 74 60 60 3d 99 33 b7 3d 1e 06 4c bd
       -0.06336138 0.054779485 0.08945388 -0.04981052
0003e0 dc 66 b1 3d 04 e1 9e 3d a3 a1 c4 3c 55 67 3b 3d
       0.08662197 0.07757762 0.024002856 0.045752842
0003f0 59 8c 8b 3c a8 61 ad 3d e2 df 0d 3d 30 09 de 3d
       0.017034696 0.08465892 0.03463734 0.10841596

audionet.encoder_conv.4.bias f4 [32]
000000 d7 f6 87 bc da 36 ae bd 64 5c b9 bc e8 10 62 3d
       -0.016597195 -0.08506556 -0.022627063 0.055191904
000010 bb 7e bc bd ff fc c2 3d 71 54 2e 3c b4 19 4a bc
       -0.092038594 0.095209114 0.01064025 -0.01233523
000020 15 e8 83 bc 2f b6 20 3d e6 c2 bc bc d4 f1 1a bd
       -0.016101876 0.039236244 -0.023042154 -0.03782828
000030 37 ec b6 bd 92 6a 5f bd c7 54 42 3d 05 3f 70 3d
       -0.08931773 -0.054544993 0.04744413 0.05865385
000040 d5 e2 61 3d 0d fb 56 bd 88 ea e6 3c 00 50 10 bd
       0.055147965 -0.052485514 0.028188005 -0.035232544
000050 af 8d 80 bc d3 a5 0b bd 3d d2 43 bc 31 fb 49 bd
       -0.01569256 -0.03409369 -0.01195198 -0.04931182
000060 41 0a a2 bd 12 94 4a bd 53 29 b1 3d 4b 01 03 bd
       -0.07912112 -0.049457617 0.0865046 -0.031983655
000070 d1 2a b1 3d ec 01 be bd 25 cb 06 bd 8e 12 93 3d
       0.08650745 -0.0927771 -0.032908577 0.071812734

audionet.encoder_conv.6.weight f4 [64, 32, 3]
000000 04 69 51 bd 1d 85 bd bc 71 df db 3c 66 b7 97 bd
       -0.05112554 -0.023134762 0.026839944 -0.07408027
000010 1f d9 5d 3d 66 ae 69 bd 90 25 93 bb 41 10 e8 bb
       0.05416214 -0.057051085 -0.004490562 -0.0070820157
000020 3d c9 ae 3d e6 70 03 bd 6f 1c 54 bc f8 79 8e 3c
       0.08534477 -0.03209009 -0.012946232 0.017392144
000030 61 1b 3a 3d ad 58 23 3c 59 87 f0 3d 3a 35 f7 bc
       0.045436267 0.009969872 0.117445655 -0.030176748
000040 f0 0e a5 bd 92 cc c3 3c 82 28 2c 3d 15 29 df bb
       -0.0805949 0.023901258 0.04203082 -0.0068103173
000050 02 96 b0 3b bd 68 a3 3c d3 69 9c 3d 12 c7 86 3d
       0.005388976 0.019947404 0.07637372 0.065809384
000060 95 5d 42 3d fe 9b 9e bd f6 6f cc 3d 64 1b 93 bd
       0.047452528 -0.07744597 0.09982292 -0.07182959
000070 68 e7 6e bd 05 8e 66 3c 87 5f 74 3c fc 04 56 3d
       -0.058326155 0.014071946 0.014915354 0.052250847
000080 7e f4 99 3c 15 61 4e bd 8c 3f 38 3c 91 be 6e 3d
       0.01879334 -0.050385553 0.0112456195 0.058287207
000090 00 9a 00 bc 6e 52 c1 bd 4a 76 4a bd 98 22 0f 3b
       -0.007849216 -0.0943955 -0.049429215 0.0021840688
0000a0 3e 0e 99 3b ab b4 8a 3d 0e 40 d7 bc d9 35 2c 3d
       0.0046708873 0.06772741 -0.02627566 0.04204354
0000b0 0b 7e 9f 3d f6 d7 48 3d 45 b3 75 bc de cd ee 3d
       0.07787713 0.04903408 -0.0149963545 0.1166036
0000c0 12 54 0a 3d b3 45 28 bb f2 54 b5 bc b1 6c ae 3d
       0.033771582 -0.002567631 -0.022135232 0.08516825
0000d0 9d 11 93 3d be f4 ad 3c 59 14 6e 3d 05 02 af 3b
       0.07181094 0.021234866 0.058124874 0.005340817
0000e0 85 1c 4b 3d 4d 96 d2 3b 11 7a 4b 3d 6e 37 98 3c
       0.049587745 0.0064266087 0.04967696 0.018581118
0000f0 d0 17 96 bd d8 1e 87 bd 3d b3 85 3b 36 02 ea 3d
       -0.073287606 -0.0659768 0.0040802048 0.11426203
000100 c4 fa 93 bd 84 95 fd bd 77 83 c2 bd 2c 45 a1 bd
       -0.07225564 -0.123820335 -0.09497731 -0.078745216
000110 94 fe 9e 3d 13 2c b9 bb d6 9d bb 3d e1 9d 93 bd
       0.07763401 -0.005651006 0.09160964 -0.072078474
000120 38 90 a4 3d f3 c6 a9 bd e7 d0 16 bb 46 6f 9b 3d
       0.0803532 -0.082899 -0.00230127 0.07589583
000130 b2 c9 87 bd 43 83 c1 bd 1a 11 ed 3b b8 5d bd bd
       -0.06630267 -0.09448864 0.0072347047 -0.09246391
000140 35 79 7c 3c 4c dc 87 bd cd ce 61 bd f9 23 77 3d
       0.015409757 -0.06633815 -0.05512886 0.06033704
000150 00 84 02 bb 8d d9 79 bd ff da 81 3d 92 b2 95 3d
       -0.0019915104 -0.06099849 0.06340598 0.0730945
000160 04 45 c3 bd b3 ec 9d bc 58 8b cc 3c cf 8f 90 3d
       -0.09534648 -0.019277906 0.024968788 0.07058679
000170 e4 5b bd bd 03 29 37 3d c7 43 aa 3d 96 9f 32 bc
       -0.09246042 0.044716846 0.08313709 -0.010902306
000180 20 56 48 3d 81 b3 7e 3d 5d ce 27 3b a0 00 c4 3d
       0.04891026 0.062182907 0.002560518 0.09570432
000190 ea 08 96 bd e9 a1 45 3c 4c ef df bd d2 3d 97 3d
       -0.07325919 0.012062528 -0.10934314 0.07384838
0001a0 77 75 0a 3d d6 60 96 3d 29 06 05 bd 32 bc bd bb
       0.03380343 0.07342689 -0.032476578 -0.005790257
0001b0 37 b2 27 3d 77 3f 9c bd 40 ef d3 bd cd 8d 12 3c
       0.040941443 -0.076292925 -0.10348368 0.008944941
0001c0 4f ed ba bd c0 67 56 3d 19 5e c3 3c 93 12 6c 3d
       -0.09127294 0.052345037 0.02384858 0.0576349
0001d0 89 ae 97 bd c2 6e 63 3d 73 05 8e 3c 19 e5 31 3d
       -0.07406337 0.05552555 0.017336583 0.043431375
0001e0 0e fe 87 bd 3c 54 e3 bd 85 81 86 3d 0c ba 5e 3d
       -0.06640254 -0.11100051 0.06567673 0.054376647
0001f0 7c b7 3f 3d 3c 27 d6 3c 63 77 49 bc 28 35 d2 bd
       0.046805844 0.026141755 -0.01229653 -0.10264045
000200 d1 1a 0a 3d d9 43 87 bd 16 c4 de bc 84 a0 d7 3c
       0.03371698 -0.06604738 -0.02719311 0.026321657
000210 99 89 1a 3c ca 5f 3b bd b7 41 73 bd ce f5 44 bd
       0.00943222 -0.04574565 -0.059388842 -0.04808598
000220 af 53 a2 bd 06 28 9c 3d 40 0a 05 bd a2 79 2d bd
       -0.07926118 0.07624821 -0.03248048 -0.042352326
000230 4f 6c 37 3d 0d d8 6e bd 91 d1 e8 bd 0d 89 8f bc
       0.044781025 -0.05831151 -0.113680966 -0.017521406
000240 c1 64 aa bd ed 35 9e 3d de 16 e1 3c 78 ce 63 3d
       -0.083199985 0.07725129 0.027476724 0.055616826
000250 fa 10 41 bd 6b 2a 9b bd b0 1a 6d 3d b4 3c 42 bd
       -0.04713533 -0.0757645 0.05788678 -0.047421172
000260 8f 50 97 bb ed 31 26 bc 2b 0b 73 ba 7e 76 aa bd
       -0.0046177576 -0.010143739 -0.00092713785 -0.08323382
000270 96 82 6f bc 93 c4 60 bd 0f 44 c9 bc 2e 14 da bd
       -0.014618536 -0.054874968 -0.024568586 -0.1064838
000280 34 25 4a bd a5 f8 a7 bc 6e 71 7a bd c4 d4 2d bc
       -0.049351886 -0.020504305 -0.06114333 -0.010609809
000290 7b 46 ce bd ba 20 55 3d 7b 26 2c 3c 77 9e ae bd
       -0.10072037 0.052033164 0.010507221 -0.085263185
0002a0 03 a2 c5 bb 09 50 89 3d b2 70 bb 3d b4 6e 9f 3c
       -0.006031276 0.067047186 0.09152354 0.019461967
0002b0 90 47 70 bd 25 12 19 bd a0 b1 f5 3c 3c a1 b8 3d
       -0.058661997 -0.03737082 0.029991925 0.09015128
0002c0 a8 b1 84 bc 08 47 92 bd b7 3b 23 bd 07 ec c2 3d
       -0.016197994 -0.071424544 -0.03985187 0.09517675
0002d0 8d d5 9e 3d 01 61 3c bc 67 02 d2 3c 41 59 66 bd
       0.07755575 -0.011497737 0.025635911 -0.056237463
0002e0 eb e0 8a bd 5b 3d 67 3d 9b 34 78 bc 07 9a b7 bd
       -0.06781181 0.056454998 -0.015149261 -0.08964925
0002f0 7d cf 5f 3d 6c 76 a1 3c f3 08 ba 3d 83 bd 0b bd
       0.054641236 0.019709788 0.09083738 -0.03411628
000300 35 0b 1b 3d f7 d6 35 3d 05 84 98 bd e9 a9 92 3d
       0.037852485 0.04439446 -0.07447056 0.07161314
000310 95 3a d2 3d 56 c1 9e bd 3f aa 4a 3c eb 9e ce bd
       0.1026508 -0.0775172 0.012369691 -0.10088905
000320 8a 0c 32 3d b8 f1 43 bd fe 1d 29 bb a3 47 90 bd
       0.04346899 -0.047837943 -0.002580523 -0.070449136
000330 0e 04 52 bb 83 93 4d bd 47 ad a0 3d 95 f0 60 3d
       -0.0032045874 -0.050189506 0.0784555 0.054916937
000340 e9 50 48 bd 07 6a 87 3c 12 86 cb 3d 94 ef 39 3c
       -0.048905287 0.01653005 0.09937681 0.011348624
000350 de 41 39 bd 27 1b 65 bc 1c 50 23 3d b2 17 90 bd
       -0.04522883 -0.013983524 0.03987132 -0.070357695
000360 67 b1 0b 3c a7 7d b3 3d c9 e1 8b 3d 29 b8 61 bd
       0.008526183 0.08764201 0.068301745 -0.05510727
000370 24 78 a9 3d 73 14 2a bd 37 11 bc bd a1 5e a2 bd
       0.08274868 -0.04152341 -0.09182971 -0.07928205
000380 39 e0 99 bb 4e a9 a0 bc 9b 3d 4e bd 31 ce 2d 3d
       -0.004695919 -0.01961198 -0.05035172 0.042432968
000390 59 2a 83 3d 70 e8 84 bc 85 29 c8 bd 24 8c 91 3d
       0.064045615 -0.016224116 -0.09773544 0.07106808
0003a0 e0 8b c2 bd 4b 2d 83 bd 66 54 a3 3b 8f b4 a7 3b
       -0.09499335 -0.06405123 0.0049844263 0.00511796
0003b0 c2 7d 81 bb c2 49 a9 3c 08 a0 fc 3d 21 a9 46 bd
       -0.003951759 0.020665053 0.12335211 -0.048501138
0003c0 9d fa b8 bc d3 1f dd 3d b0 b3 63 3c c7 76 9e bb
       -0.02258044 0.107970856 0.013897821 -0.0048359367
0003d0 1c 21 2d bd 00 3b 58 bd 09 79 7b 3d 22 76 08 3d
       -0.042267904 -0.05279064 0.061394725 0.033315785
0003e0 6d 5e 4d bc 66 9d 4e bd 45 a1 9d bc 7d 72 d5 3c
       -0.01253472 -0.050443076 -0.019241938 0.026055569
0003f0 4d d3 39 bd 58 51 90 bd 96 ef 32 bd 6f 30 cb 3b
       -0.045367528 -0.07046765 -0.04368552 0.006200842

audionet.encoder_conv.6.bias f4 [64]
000000 6b 5a f7 3c 3c 47 d6 3c 90 42 ba 3d 35 56 6b 3b
       0.030194482 0.026157014 0.09094727 0.0035909538
000010 96 00 2a 3c 1f d8 7f bd 53 d0 40 3d b6 e4 db 3a
       0.010376116 -0.06246197 0.047073673 0.0016776535
000020 ad de bc bd 9c 71 b3 bd 3b 0f d7 3d df 61 6c bd
       -0.092221595 -0.08761904 0.10500952 -0.057710525
000030 61 3c a2 bc 70 32 1c 3d 52 89 c1 bd b2 a6 73 bd
       -0.019804182 0.03813404 -0.0945002 -0.059485145
000040 02 2e cf 3c 30 25 26 bd e3 cf 4e bd 4c 01 cf bd
       0.025290493 -0.04056281 -0.050491225 -0.10107669
000050 b8 e0 aa 3d 0f f3 8a 3c 3a 0c 23 3d ec 2b 19 3c
       0.08343643 0.016961602 0.039806582 0.009348851
000060 dd 03 6f bd bb ef 7e bd 53 da 33 3c 16 f5 0f bd
       -0.058353294 -0.062240344 0.0109773455 -0.03514584
000070 c0 5c d6 3d 88 44 ae bc 98 f1 89 bc 1b 06 47 bd
       0.104669094 -0.021272913 -0.016838834 -0.048589807
000080 c3 57 45 3d b5 70 1e bd b6 5e ff bc ed e7 93 bd
       0.0481794 -0.038681705 -0.031173091 -0.07221971
000090 10 cd 04 bd 75 3d ac bc 8b 8b 6c bd 78 0b c9 bc
       -0.032422125 -0.021025399 -0.057750266 -0.024541602
0000a0 f6 c1 65 bd db 13 ef 3c 53 c3 3d 3d 93 ee 1a 3d
       -0.05609318 0.029184273 0.046328854 0.03782518
0000b0 3c 38 c2 3d 42 2a b7 bd e9 d0 34 bc ce bf 6e bc
       0.09483382 -0.08943607 -0.011036136 -0.014572097
0000c0 8e 16 2e bd b8 34 ae 3d 85 b1 b9 bd 8d 45 02 bd
       -0.04250198 0.08506149 -0.09067062 -0.03180461
0000d0 ad fb 96 3d 06 8c 32 3d 69 dc a4 3c 90 2a aa 3c
       0.07372222 0.043590568 0.020124631 0.020772249
0000e0 d6 6f 7e bd 37 89 5f 3d 8d 8f 9e 3d 3b 8e c8 bd
       -0.062118374 0.054574218 0.07742224 -0.09792753
0000f0 ac ef 69 3d 60 61 c2 bc 3b 61 81 3a 17 d8 3a bd
       0.057113335 -0.023728073 0.0009870896 -0.045616236

audionet.encoder_conv.8.weight f4 [64, 64, 3]
000000 50 4e 5f 3d db a1 65 bd 35 e9 9b bc 4b 35 30 3c
       0.054518044 -0.05606256 -0.0190321 0.0107548935
000010 ce b2 0e bd 00 c3 b6 bc 14 41 33 bd 05 89 92 bd
       -0.03483849 -0.02230978 -0.043763235 -0.07155041
000020 83 3b 4d bd ac f3 a8 3c fd 1b 4b 3d 92 22 36 3c
       -0.050105583 0.020624004 0.04958724 0.011116641
000030 2f 87 40 3d b3 de b2 bc 83 fb 21 3c 05 73 c4 3c
       0.04700392 -0.021834707 0.009886625 0.023980627
000040 56 78 3f 3d 83 e5 a0 3b 20 16 47 bc e2 be 31 bd
       0.04674562 0.0049101724 -0.012151271 -0.04339493
000050 e0 03 a4 3c a6 30 5c bd 0f 49 fd 3c 49 0b 28 bc
       0.020021379 -0.053757332 0.030918626 -0.010256597
000060 f4 c8 24 bd 04 16 25 3d 8a fc f9 3a 8e a7 24 39
       -0.040230706 0.0403042 0.0019072455 0.00015702678
000070 00 5e 18 bd bf f0 8d bd 9f 70 b3 3c 9c db c7 3c
       -0.03719902 -0.06930684 0.021904288 0.02439671
000080 b8 cd 67 3b 2c 22 6f 3d 38 d1 c6 bc 22 53 4d 3b
       0.003537042 0.0583822 -0.024269685 0.0031330069
000090 2a fb 98 3c 4b f3 44 bc 50 e0 72 bb 0f 3e 6f 3c
       0.018674452 -0.012020896 -0.003705997 0.014602198
0000a0 be c4 7c 3d 8f 8a 87 bc 54 fe 32 bd ed ba ce 3c
       0.061711065 -0.016545562 -0.043699577 0.025235618
0000b0 aa ad 8b 3b 3e 6b 5a bd 0a 45 cd bc 3c e0 7f 3c
       0.0042626457 -0.05332493 -0.025057334 0.0156174265
0000c0 8a 0f 5e 3d 3a a8 28 3d c2 2d 89 b9 86 ef 04 3d
       0.054214038 0.04117606 -0.00026164768 0.03245499
0000d0 92 bf ce bb 65 94 9a bb 61 7d 1a bd da 8b 61 bd
       -0.006309458 -0.004717397 -0.037717227 -0.055065013
0000e0 51 0a 40 bd 54 05 44 bd df f8 f7 bc ca 8b 19 bd
       -0.04688484 -0.047856644 -0.030270038 -0.03748683
0000f0 81 ce 61 3d 78 d1 84 bc e9 06 82 bc 1b a5 08 bd
       0.055128578 -0.016213164 -0.015872436 -0.03336058
000100 7e 1d 90 bc 5f 40 80 b8 4c 71 80 bc 2b 80 10 3d
       -0.017592188 -6.115506e-05 -0.015679024 0.03527848
000110 ff ed 2a bd 2f b5 29 bd f1 64 27 3d 2f 0c bd 3c
       -0.041730877 -0.041432556 0.04086775 0.023077099
000120 2c 02 cd bc 6b 7f 93 bd 9a 2c 57 bc ff a9 d3 ba
       -0.02502545 -0.072020374 -0.013133192 -0.0016148685
000130 9d ff 47 3d 37 7c d5 bc 51 9a 37 3d f8 e0 ee bb
       0.048827756 -0.026060207 0.044824902 -0.007290002
000140 2f 92 49 3b b1 8a e2 bb f7 a6 66 3d 59 9e 2d 3b
       0.0030757298 -0.006913506 0.056311574 0.0026492088
000150 80 46 03 3d 6d 1f 4c 3d dc 20 96 39 36 a6 2d bd
       0.032049656 0.049834657 0.00028634712 -0.04239484
000160 36 f6 a1 bc ad 22 02 3d c7 ba f0 3c d0 09 84 3d
       -0.019770723 0.03177135 0.029385937 0.06447184
000170 79 b3 bc bb bf 34 19 3d 5c 02 78 bd 13 08 59 bd
       -0.0057586995 0.03740382 -0.060549125 -0.052986216
000180 b9 67 97 bd 32 0d 4f bc 01 41 37 3d 35 0f 56 bc
       -0.073928304 -0.012637423 0.044739727 -0.013065149
000190 5c dc 06 bd 04 ae 08 bc 40 8d 4f bc e2 14 41 3d
       -0.032924995 -0.00834227 -0.012667954 0.047139056
0001a0 eb 8c ec bc 3d 89 48 3d c2 7a 77 bd 59 fe a4 bc
       -0.028875789 0.048959006 -0.060419805 -0.020140814
0001b0 04 48 5d 3c c3 52 50 bd a0 a5 3c 3d e7 fd 99 ba
       0.013505939 -0.050860178 0.04605639 -0.0011748642
0001c0 8e 26 f6 bc 16 b3 01 3d 44 a4 79 bd b1 ef 66 3c
       -0.030047681 0.03166493 -0.06094767 0.014095233
0001d0 2f e5 0d bd a4 97 1b 3c 31 5c 17 3d 03 14 9b bc
       -0.034642395 0.009496603 0.036953155 -0.01893044
0001e0 0c 4f 08 bd ed a5 21 3d 58 00 0e bd 16 9c aa bc
       -0.03327851 0.03946488 -0.034668297 -0.02082638
0001f0 56 6a e3 3c 26 87 15 3c 21 f3 8e bd 2f de 67 bc
       0.027760666 0.00912646 -0.06979967 -0.014152094
000200 d5 da e1 3c ed 8e 1c bd 10 8d 6d 3d 08 a8 6e 3b
       0.027570168 -0.038222242 0.057995856 0.0036416072
000210 bd 49 a3 bc 4e 64 11 3d ed 4b ad bc 92 38 70 3d
       -0.019932622 0.03549605 -0.021154368 0.0586477
000220 c8 09 78 bc 37 db 5d 3c ab b1 58 3d 3b 71 c7 bc
       -0.015139051 0.013541034 0.052903812 -0.024345985
000230 5f 0a 16 3b a5 f0 bb 3b 84 02 37 3c c7 07 5b bd
       0.0022894365 0.005735474 0.011170033 -0.053474214
000240 8d 8e 95 3d 02 9c 8a 3c 9f bd 87 bb d9 b3 6f bb
       0.0730258 0.016920093 -0.0041424776 -0.0036575703
000250 c7 d9 2c bd 99 ce 70 3d 90 72 67 bd 20 19 17 bd
       -0.042199876 0.058790777 -0.05650574 -0.036889195
000260 12 c8 ae bb 12 b4 f5 bc 7a 23 e0 3c 36 b5 5d bd
       -0.005333909 -0.02999309 0.027360667 -0.054127894
000270 da 47 dc 3c 7a df 6f 3c cd fd d1 bc a5 b2 50 bc
       0.02688973 0.014640683 -0.025633717 -0.012737905
000280 87 e5 84 bc bc e4 0c bd 49 c7 12 3d 20 84 dd bc
       -0.016222728 -0.034397826 0.035834584 -0.027040541
000290 83 ba 23 bc 0d 46 c1 bc 97 37 93 3d bc 01 44 bd
       -0.009993198 -0.023592973 0.07188337 -0.047853217
0002a0 11 28 32 bd d5 c5 63 3d ff 28 6b bc 4e ca 81 3c
       -0.04349524 0.05560859 -0.014353036 0.015843537
0002b0 36 84 59 bc d4 bc 8e bc 6a 55 f6 bc ce cc 91 ba
       -0.01327615 -0.017424025 -0.030070025 -0.0011123659
0002c0 9c d4 fe bb d7 1d 60 3d fb 72 ff bc 71 73 07 3d
       -0.00777681 0.054715957 -0.031182757 0.033069078
0002d0 ea 9c 32 3c a9 af 31 3d 2f 49 69 bb 0d 2f fe 3c
       0.010901669 0.043380413 -0.00355966 0.031028295
0002e0 64 1d 74 bd 0b ce 58 bc d7 5a e1 bb db d7 c8 bc
       -0.05959834 -0.013232718 -0.006877284 -0.02451699
0002f0 91 ee 1f 3d bf 16 42 bd e3 a9 72 3d 75 6a c1 39
       0.039045874 -0.047384974 0.059244048 0.00036891145
000300 a1 00 2c 39 e1 aa a8 bd 57 e1 62 3d 4c 6c 94 bc
       0.00016403433 -0.082357176 0.055390682 -0.018118046
000310 5f 3e 71 3d b8 31 40 3d 8d 9a 77 bd 82 7a fa bc
       0.058897372 0.046922415 -0.060450125 -0.030575994
000320 f4 bc 59 bd 94 b4 35 3d 88 72 35 bc c2 23 e4 bc
       -0.053158715 0.044361666 -0.01107467 -0.027849082
000330 44 79 9d bd e0 b3 a8 bd 4a 58 1e bd 3f 03 98 3d
       -0.07689145 -0.082374334 -0.038658418 0.07422494
000340 d7 96 1c 3d 6b 93 ae 3b 11 24 60 bd 88 3e ff 3c
       0.03822979 0.005327632 -0.054721896 0.031157747
000350 58 5f 8a 3d 53 9b 83 bd 40 ef c5 bb bd 19 a5 3d
       0.067564666 -0.0642611 -0.0060404837 0.0806155
000360 92 90 e9 3b 40 09 3b bd 45 80 b5 bc ea fe 06 bb
       0.00712783 -0.04566312 -0.02215589 -0.0020598718
000370 30 c3 75 bd c7 29 81 bd 65 4d 66 3c c5 43 a5 bc
       -0.0600006 -0.063067965 0.014056538 -0.020173917
000380 7f 65 15 bd cd bd 1e bd 08 c2 6e 3d 6c c4 45 bd
       -0.036473747 -0.038755227 0.05829051 -0.048283026
000390 fd fa 5b 3c 68 5d 51 3d f7 85 07 bc e2 7d 9f bc
       0.0134265395 0.05111447 -0.008271686 -0.019469205
0003a0 11 f3 5e bd 0a 7f 9d bc ff 97 2c bd 23 f1 ca bc
       -0.054431025 -0.019225616 -0.042137142 -0.024773186
0003b0 f4 7d a2 bc c5 77 4f 3d 3c aa 31 3d 34 2a 3d bc
       -0.01983545 0.05065133 0.04337524 -0.011545707
0003c0 6e 15 0b bb 1c 67 38 3d 33 a0 f6 3c 0f 89 a1 bc
       -0.002122249 0.045020208 0.030105686 -0.019718675
0003d0 44 db a4 3c 29 ca 31 3d 94 ac 4e bd 10 1f c5 3b
       0.020124085 0.043405686 -0.050457552 0.006015666
0003e0 e6 39 8a bd 7d 7c 81 3d c6 f0 ab 3c 8c 7f 14 3d
       -0.067493245 0.063225724 0.020988833 0.03625445
0003f0 42 de 6b 3d 67 eb 01 bd c7 00 8f 3d ae 46 7f bd
       0.05758501 -0.031718638 0.0698257 -0.062323265

audionet.encoder_conv.8.bias f4 [64]
000000 6e 7f ec bc fc b1 28 3b 7b 9f be 3d c0 8d 91 3d
       -0.028869357 0.0025740853 0.09307762 0.07107115
000010 a6 01 4b 3c ea 46 b3 ba cb 2f a2 3c 51 08 0e bd
       0.01239053 -0.001367775 0.01979818 -0.0346759
000020 6e fc 10 bd b8 63 b5 bd c1 1a ed bb 14 93 ee 3c
       -0.035396986 -0.088569105 -0.0072358553 0.029122867
000030 76 73 06 bd d4 da 93 bd e8 de dc bc d6 b2 a6 bb
       -0.032824956 -0.072194725 -0.026961759 -0.005087237
000040 9e db 2a 3d 88 19 8d 3d fa b0 7c 3c 49 a9 94 bd
       0.04171335 0.06889635 0.015423054 -0.07258851
000050 88 94 63 3d 27 a6 a5 bc 24 f4 c5 bc a3 f8 18 bd
       0.055561572 -0.02022083 -0.024164267 -0.037346493
000060 74 b8 f6 bc 1b 53 52 3d 39 10 ce 3c 1b 34 34 3d
       -0.030117251 0.051348787 0.02515422 0.043995004
000070 e8 8c 27 bd 6a d7 ba 3c 02 71 14 bd 4b 83 13 3d
       -0.040905863 0.022807796 -0.036240585 0.036013883
000080 a6 eb 50 3d 47 e4 75 b9 76 41 2c 3d 92 02 4e bd
       0.05100598 -0.0002345006 0.042054616 -0.05029542
000090 d9 d9 c9 bb d6 ad 74 bd f5 71 f9 3c a5 22 24 3d
       -0.0061600027 -0.059736095 0.030449847 0.040072102
0000a0 33 6b f4 3c 3f 10 29 3d ba 94 94 bc e8 03 93 bd
       0.029836273 0.04127526 -0.018137325 -0.071784794
0000b0 bd 8f 5f bd 80 7d df bc f0 c5 d8 bc 20 8c 2f 3d
       -0.05458044 -0.027281523 -0.026461571 0.042858243
0000c0 64 d5 af bc d2 24 63 bc 25 87 1c bd e9 fd 0c 3d
       -0.021464057 -0.013863759 -0.03821482 0.034421835
0000d0 37 47 90 3d d5 2e cb bc 3e a5 e7 3c d5 ab da bb
       0.07044833 -0.024802605 0.028277036 -0.006673316
0000e0 93 1f 63 bd c6 c4 29 bd dc 58 41 bc 7a cf 01 3d
       -0.055450033 -0.041447423 -0.011800971 0.031692006
0000f0 94 d4 cd 3b 7b 23 e9 3c 5c 56 98 bc 8f 5c 81 bd
       0.006281445 0.028459301 -0.018595867 -0.06316482

audionet.encoder_conv.10.weight f4 [64, 64, 3]
000000 a6 5d 47 2e 62 aa c1 ba fa e8 02 bb 65 c7 41 31
       4.5330538e-11 -0.001477551 -0.001997529 2.819854e-09
000010 1b ca e7 bb 75 b3 05 3c 38 0c a3 2d b0 8c 81 b9
       -0.0070736534 0.008160462 1.853638e-11 -0.00024709618
000020 42 3b 03 3d e7 16 a4 2d 33 3c 85 ba cc e2 03 bd
       0.032038935 1.8654812e-11 -0.0010165035 -0.032198712
000030 ef b0 97 2f c9 ef 22 bd 1e ad 98 3a a7 93 63 b1
       2.759246e-10 -0.03977946 0.0011648273 -3.3116778e-09
000040 f0 7e d1 bc 31 06 04 bd f3 7c 2e b1 ac 0e 41 3c
       -0.025573224 -0.032232467 -2.5391358e-09 0.011783283
000050 1a 50 93 3c a5 dc 87 2e ea f0 2a bd db 35 69 3c
       0.017982531 6.1782836e-11 -0.04173366 0.014234032
000060 af e4 48 b1 18 fa 60 bc 8f 03 d4 3c 49 f3 d5 2e
       -2.9233822e-09 -0.013731502 0.025880603 9.729335e-11
000070 05 08 4c bb 17 72 8e bb 15 79 0b 34 b1 51 a7 bc
       -0.003113271 -0.0043470967 1.2989433e-07 -0.020424696
000080 45 6e 20 b8 d4 b3 9f 36 29 f7 a8 b9 77 b8 50 3c
       -3.824967e-05 4.759504e-06 -0.00032227606 0.012739292
000090 38 b6 33 b8 e1 30 2d bc 99 43 a9 bc 36 95 b3 ae
       -4.284663e-05 -0.010570736 -0.020662116 -8.166483e-11
0000a0 31 af 24 3a 62 56 8d 39 a2 a3 b7 b2 0d 42 ef ba
       0.0006282209 0.00026957976 -2.1378415e-08 -0.0018253938
0000b0 bc 62 0f ba df 97 f5 30 ed 10 2a bd b3 de f9 bc
       -0.00054697297 1.786926e-09 -0.041520048 -0.0305017
0000c0 21 e8 ce ae e6 41 28 bd e4 d1 29 3d 76 2f bc b1
       -9.40903e-11 -0.04107847 0.041459933 -5.476916e-09
0000d0 0d ed b8 bc f2 49 03 bc 59 6d aa b2 b7 a3 93 3c
       -0.022573972 -0.008013235 -1.984033e-08 0.018022401
0000e0 53 2c 64 3d 18 30 ed b8 e3 76 e3 ba 55 b9 e0 3b
       0.055706333 -0.00011309999 -0.0017354157 0.006858031
0000f0 ea 1b fc 32 58 7a ab 3c e9 4b d0 bc 9b 18 11 b1
       2.9349355e-08 0.020932361 -0.025426822 -2.1114264e-09
000100 6c d4 16 bc ae 6e 46 3b 82 cf 0d 31 e7 61 81 bc
       -0.009205919 0.0030278373 2.0636155e-09 -0.015793754
000110 85 95 7a bd 87 28 fe 31 51 49 e9 bc 7b 40 e4 bb
       -0.06117775 7.3969804e-09 -0.028477343 -0.0069656945
000120 67 b3 8b 32 85 d2 3a bb 1c e3 88 bc 4f a8 e5 38
       1.6263312e-08 -0.0028506827 -0.016709857 0.00010950921
000130 7a 56 ba 3c 11 17 fe bc 5c 6d d4 b1 62 fb 63 3d
       0.022746313 -0.031016858 -6.182445e-09 0.05565966
000140 7f 78 12 3d 08 47 3c 2e 7c 28 4a bc b5 a2 e8 bc
       0.035759445 4.280934e-11 -0.012338754 -0.028397897
000150 2a 78 92 b2 f3 31 0f 3d 35 5f 62 bc 76 66 aa 35
       -1.7051281e-08 0.034959745 -0.013816644 1.2695807e-06
000160 8e 18 b9 b9 a0 a3 24 bc d7 e7 9e 30 58 b2 41 bc
       -0.00035304244 -0.010048777 1.1561906e-09 -0.011822306
000170 31 5a 0f 3a 3f f3 98 b0 23 2d 29 3d d3 e9 1f 39
       0.00054684567 -1.112859e-09 0.04130281 0.00015250528
000180 d7 80 ce ac 4f 63 89 bc 39 bc 09 3d 30 ab 9c 32
       -5.8691762e-12 -0.016770987 0.03362677 1.8238637e-08
000190 cf 7c 82 ba f5 ac 68 bc 45 25 ae b6 b5 0f 5e 3d
       -0.0009955409 -0.014201392 -5.189943e-06 0.0542142
0001a0 09 79 21 3c 77 d4 9a af 80 21 2a 3c 17 31 88 ba
       0.009855517 -2.8163402e-10 0.010383964 -0.0010390606
0001b0 8d 3e 1d 35 1c 56 01 bd 61 80 12 ba ae 1a 86 38
       5.857808e-07 -0.03157626 -0.0005588588 6.3945874e-05
0001c0 75 2d 59 3c a6 b2 e8 36 33 7f 50 b3 f4 bf 5e bd
       0.013255467 6.934936e-06 -4.854446e-08 -0.05438228
0001d0 33 6c 69 bd d8 30 59 b2 2e f2 26 3c d4 b7 22 3d
       -0.056987952 -1.2642168e-08 0.010189576 0.039726093
0001e0 7a ba 8a 33 08 af 7b bc 7d 28 eb bc 36 99 80 31
       6.460046e-08 -0.015361555 -0.02870583 3.7427084e-09
0001f0 b4 91 ff bb 85 38 79 bc 60 6d fc 33 91 f3 73 bc
       -0.0077993516 -0.015211229 1.17545596e-07 -0.014889614
000200 70 46 9d bd d2 10 59 2e c0 00 b1 3a 4f 18 92 3a
       -0.076794505 4.9355027e-11 0.0013504252 0.001114616
000210 9d 8a f0 31 ee 48 64 bb ba c6 1a 3d 1d a3 a1 b7
       7.000678e-09 -0.0034833509 0.037787177 -1.9268651e-05
000220 69 b2 1f 3d 7d 06 81 bc b4 59 92 33 18 3f 75 bd
       0.038988505 -0.015750164 6.814972e-08 -0.059874624
000230 d6 f1 07 3c 34 f3 06 b4 11 7c 1e bd 7d a7 e4 bb
       0.008297404 -1.2568199e-07 -0.038692538 -0.006977974
000240 62 1a fd 2f 5e 69 bf 3a cc ef 78 bd e4 0b 0b 31
       4.6039178e-10 0.0014603545 -0.060775563 2.0233921e-09
000250 29 d1 df bc b2 a9 8b 3c c2 59 93 b0 ef ad 76 3b
       -0.027321415 0.01704869 -1.0721168e-09 0.0037640294
000260 e1 21 49 3d 38 90 9d 2d 8e c8 8b bc a7 3e ac 3b
       0.049104575 1.791288e-11 -0.017063405 0.005256492
000270 24 d5 b3 af 13 a8 aa bc f2 ed 80 bd a8 17 ed 33
       -3.2711356e-10 -0.020832097 -0.062953845 1.10404756e-07
000280 c3 61 e5 39 44 eb f2 b9 aa 67 d5 b2 1f 4d a0 bb
       0.00043751122 -0.00046333123 -2.4843605e-08 -0.004892006
000290 e6 ca cd 3a 7f 22 a5 2e 5e 82 1d bd 73 2a 5d 3d
       0.0015700727 7.509459e-11 -0.038454406 0.05399556
0002a0 f2 89 50 33 96 a3 1b 3d 1a ce 99 3a c4 2b c6 ae
       4.8554234e-08 0.037997805 0.0011734397 -9.011772e-11
0002b0 1a 16 6a bc ee 3c 25 bc 85 99 95 b5 a8 46 b1 3b
       -0.014287496 -0.010085328 -1.1146045e-06 0.005410034
0002c0 19 7b 26 b9 97 0d db 37 d2 c6 ec 3c 31 59 fc 3b
       -0.00015876851 2.6113163e-05 0.028903399 0.007701062
0002d0 24 91 41 b3 43 ff 9f bc 0c 00 dc bc 54 21 11 31
       -4.506832e-08 -0.019530898 -0.026855491 2.1119222e-09
0002e0 b9 40 0b bd 81 c4 52 bb 1d c5 00 2e 00 43 21 3a
       -0.03399727 -0.0032160582 2.9278902e-11 0.00061516464
0002f0 29 ca 94 bb 88 f0 82 38 d0 f8 bc 3c 7e 87 02 bc
       -0.004540701 6.2436855e-05 0.023067862 -0.007966874
000300 5d b7 c7 af 29 48 20 3d 56 e8 f8 3c 73 6f 7d b6
       -3.6328177e-10 0.039131317 0.030384224 -3.776481e-06
000310 15 34 b8 3d 29 ca 44 bd 9b 51 3f 2c 97 d8 9c bc
       0.08994309 -0.048044357 2.7188033e-12 -0.019146247
000320 72 35 83 bc a0 00 78 32 6c 00 40 3d dd f0 5c 3d
       -0.016016696 1.4435642e-08 0.046875402 0.053940643
000330 1d 9f 9d b0 10 c9 29 bd ee c1 6b bd fe d4 cd b7
       -1.1468476e-09 -0.041451514 -0.057557993 -2.4537087e-05
000340 88 b2 8e bc 1b e0 e3 bb ba b9 a0 33 1e 7e aa 3b
       -0.017419115 -0.0069542057 7.484364e-08 0.0052030226
000350 2b 69 63 3c ad 01 e6 b0 39 bc 42 3d 5f 52 0f bd
       0.0138800545 -1.6735179e-09 0.047542784 -0.034990665
000360 75 8d 05 34 b1 d5 8b 3d 24 59 6d 3c c2 15 56 33
       1.2438052e-07 0.06827868 0.014486585 4.9845546e-08
000370 68 04 0b bd 90 ea 66 3d da fa b3 af 0d c6 62 3d
       -0.03393975 0.05637604 -3.273815e-10 0.055364657
000380 4a 73 59 3d be 74 7b b0 55 a8 a0 3d ad 0c c8 3c
       0.053088464 -9.147917e-10 0.07844607 0.024420107
000390 c9 59 3f 33 5a 23 ab 3d 94 4e af 3d 72 10 ad 32
       4.4552312e-08 0.08356352 0.085599095 2.014733e-08
0003a0 ba 9e 22 bd 1b 7c d6 3b 0a 34 01 b3 9f 99 23 bb
       -0.039702155 0.0065455562 -3.0082482e-08 -0.0024963391
0003b0 b0 0f 12 bd 1f b5 5c b3 18 4f 01 bd d0 3a b6 3b
       -0.035659492 -5.138747e-08 -0.03156957 0.00556121
0003c0 83 69 56 b2 0b b0 0b bd 7d 8a 3f bd bf b9 31 b7
       -1.248043e-08 -0.034103435 -0.046762932 -1.05932695e-05
0003d0 fa 9b 70 3d 9c 18 fd 3c 90 88 5d 37 bb 45 b2 bc
       0.0587425 0.030895524 1.3204422e-05 -0.021761766
0003e0 2a e6 0e bd bc 9b a4 32 49 9e b8 bb 29 6d 1b bd
       -0.03488747 1.9162933e-08 -0.0056341034 -0.0379459
0003f0 c7 b7 87 32 87 8f 6e bd 75 a3 81 bd 85 da c5 31
       1.579964e-08 -0.058242347 -0.06330005 5.7582974e-09
