best_audnet.pt (torch, 134913 bytes, 12 tensors)

encoder_conv.0.weight f4 [32, 29, 3]
000000 0e e3 a0 bd dc 7a d8 3d 3b 26 9a 3d 05 49 c7 3d
       -0.07855807 0.105703086 0.07526823 0.09730724
000010 10 e2 19 3d 3d 5e 67 bd b7 d6 aa bd 80 22 a0 3d
       0.037569106 -0.056486357 -0.08341735 0.0781908
000020 cf c1 a1 3c 14 1b e0 3d d3 fb 9c bc 90 76 e5 3d
       0.019745735 0.10942665 -0.019163048 0.112042546
000030 b2 74 24 bd f1 2d d1 3d 2a 4b 3b bd c2 41 e6 3d
       -0.04015035 0.10213841 -0.04572598 0.11243011
000040 53 e7 01 3c 93 ab a9 3d e4 f6 f0 3d 58 7c fa ba
       0.007928687 0.08284678 0.11765841 -0.0019110544
000050 f8 16 db 3d 41 bd 2e bd e6 3d 16 3d 66 89 32 3d
       0.1069774 -0.042660955 0.036680125 0.043588065
000060 c6 2a a7 bd d4 a9 3c 3d 75 74 03 bd 99 ee ae 3c
       -0.08162455 0.0460604 -0.032093484 0.021354007
000070 be 05 e2 3d 87 af 90 3d 2e 8a ab bd 1f c3 29 bd
       0.110362515 0.07064729 -0.08375965 -0.041445848
000080 48 4e 3f bc 5e af 7b bd 4b 78 7d bc fb 0a f4 3d
       -0.011676379 -0.06144654 -0.015470575 0.11916157
000090 95 cc 94 bc 73 f0 9e bc b2 5b 9c bc 65 99 21 bd
       -0.018163959 -0.019401764 -0.019086692 -0.03945293
0000a0 1e 71 88 3d 3b 2a 78 3d b6 14 d9 3d 3f 1a 69 3d
       0.066622004 0.06058715 0.105996534 0.056909796
0000b0 15 d1 26 3d fb 85 6d 3d 7c e4 a7 bd 03 f8 46 3d
       0.04072674 0.0579891 -0.08197877 0.048576366
0000c0 32 11 8a 3d 4b 82 88 bc d8 3e 58 3d fd 43 cd 3d
       0.06741561 -0.016663691 0.052794307 0.10022733
0000d0 93 f1 90 bd 4b 1d ea 3d f6 09 79 bd 31 b6 4e bc
       -0.070773266 0.114313684 -0.060800515 -0.01261668
0000e0 ef d3 a3 3d 09 ba 9a 3d 16 42 f3 bc 04 66 fd 3d
       0.079994075 0.07555015 -0.029694598 0.123729736
0000f0 33 7d d1 3d 33 70 5c 3c 65 57 03 3d de 1b 39 bd
       0.10228958 0.013454485 0.032065768 -0.04519259
000100 05 e3 9a bd 87 de 7d 3d 4e 2a b8 bc 44 6d d9 3d
       -0.07562832 0.061979797 -0.02248111 0.10616544
000110 5a 28 94 bd ba 8b 28 3d 2a 2e 28 3d 1c d0 8d bc
       -0.07234259 0.04114888 0.04105965 -0.017311148
000120 93 28 f1 3d 10 1c 05 bd 4a a0 ee bc 66 d0 5f 3d
       0.11775317 -0.032497466 -0.029129166 0.054642104
000130 6c 69 bf bc 83 ac 25 bd d3 d8 a3 bd 8f cb ed 3d
       -0.023365699 -0.040447723 -0.0800034 0.11611091
000140 95 c1 ca bc 81 76 eb 3d e5 42 44 3c 9b c8 b8 3d
       -0.02475051 0.11497212 0.0119788395 0.090226375
000150 a2 ad 79 bd 42 b2 ac 3d a4 a0 70 3b 44 24 8a bd
       -0.060956605 0.084324375 0.0036716843 -0.06745198
000160 8d aa 20 be 56 8d 14 be f8 19 d8 bd 10 78 4b 3b
       -0.1569006 -0.1450704 -0.10551828 0.0031046905
000170 4f 9e cb 3c 40 ce fc 3c 1a 21 79 3d d8 5c 5e bd
       0.02485576 0.030860066 0.060822584 -0.05428776
000180 4f 44 50 bd 2c 08 d8 bd 65 e0 8a bb ff 19 e7 bd
       -0.050846394 -0.10548434 -0.0042381757 -0.11284255
000190 5f 15 48 3a 87 13 d9 bd 3d cd 8a 3d 1f c3 3d bd
       0.0007632579 -0.10599428 0.06777427 -0.04632866
0001a0 b3 db 50 3d 60 01 e8 3c 6c c3 c2 3d f0 6c 97 3c
       0.05099077 0.028320968 0.0950993 0.018484563
0001b0 b0 d0 7a bd b6 e4 8f 3d 45 f4 c5 3b 81 c9 58 3d
       -0.061234176 0.07026045 0.006041082 0.052926544
0001c0 18 fe 44 3d bd 43 02 be 08 f2 87 bc 7d c0 de bd
       0.048093885 -0.12721153 -0.016594902 -0.10876558
0001d0 d0 c9 13 bd 6d 1d 77 3d 14 ff 58 3b 13 b5 8b 3d
       -0.036081135 0.060330797 0.0033111023 0.068216465
0001e0 9a b0 39 bb d5 61 fc bd f2 61 46 3d 24 5d 1e 3d
       -0.0028334022 -0.123233475 0.04843325 0.038663045
0001f0 e2 6c a9 bd 05 5a 30 be ec 96 b1 bd 97 70 ec bd
       -0.08272721 -0.1722184 -0.08671364 -0.11544912
000200 d4 a6 ef bd 8c d1 3e bd 06 86 1b 3d 7d 52 1c be
       -0.11701742 -0.04658656 0.03796961 -0.15265842
000210 e6 64 cd bc 47 f5 6e bd f5 89 d4 bd 55 92 18 3d
       -0.025072526 -0.058339383 -0.10377876 0.037248928
000220 89 8e 80 bc 5c 0b 87 3d c6 56 93 bd 11 4d fe 3c
       -0.015692966 0.065939635 -0.07194285 0.031042608
000230 ff be 64 bd 70 6d e8 3c 2f e5 be bd c7 8c ae bc
       -0.05584621 0.028372496 -0.09321057 -0.021307362
000240 91 fd 48 3c 81 ab cd 3d d4 75 ba bb 5c 0e 91 bd
       0.012267486 0.100424774 -0.0056903157 -0.07082817
000250 ef 15 92 bd 7a b4 84 bd b1 26 c1 bd 1e d2 0a 3d
       -0.0713309 -0.06479736 -0.09431208 0.03389179
000260 12 37 44 bd 61 bd d3 bc a7 bf 56 bd ed 93 b4 3c
       -0.04790408 -0.025847139 -0.052428868 0.022043193
000270 d3 da 81 bd 07 c9 df bc ae 6c 12 be 5f 41 a4 bd
       -0.063405655 -0.027317537 -0.1429927 -0.08020281
000280 4a 9c 02 be c5 a1 00 be 76 7b 91 3d 7b d0 8d bc
       -0.12754932 -0.1256171 0.071036264 -0.017311325
000290 e2 ef 25 3c e3 06 84 3d 3d 2c d2 bd ee 22 8a 3d
       0.010127993 0.06446626 -0.10262344 0.067449436
0002a0 9a 87 0a be 25 f8 ae bd e2 67 11 be 82 a8 1f bd
       -0.1352829 -0.085434236 -0.14199784 -0.03897906
0002b0 5d 27 60 3d a7 6b af 3d 23 12 15 be d7 bd ff bd
       0.05472504 0.08565455 -0.145577 -0.12487381
0002c0 1a 4d 77 bd c0 c3 a1 bc f6 1c 0b bd f6 a3 60 bd
       -0.060376264 -0.019746661 -0.033963166 -0.054843865
0002d0 1f d3 31 3c 1a 26 a7 bd d0 0f 8a 3c a3 50 27 3d
       0.010853558 -0.08161564 0.016853243 0.040848386
0002e0 8b 11 58 bd dc c7 42 bd ce 88 f0 bd 52 7b d1 bc
       -0.052751105 -0.047553882 -0.117448434 -0.025571499
0002f0 a9 00 dc bd dc e8 72 3d 20 42 5e bd ac 1a 5c bd
       -0.107423134 0.059304103 -0.05426228 -0.053736374
000300 c5 76 94 3d 20 83 02 bd 1b b8 19 bd a9 b1 fa bd
       0.07249216 -0.03186333 -0.037529092 -0.12240917
000310 6f 20 03 be cf 96 d5 bd 43 3d 7a bd 26 b4 7b 3d
       -0.12805341 -0.10429155 -0.06109358 0.0614511
000320 a7 76 4e 3d 44 a2 0d 3d 39 8b 98 bd 48 27 7f bd
       0.050406124 0.034578577 -0.074484296 -0.06229332
000330 fc df 0c bd b2 18 c3 bd 84 a1 03 bc d4 5b e3 bd
       -0.034393296 -0.09526195 -0.008034114 -0.11101499
000340 79 ee 0a bd fb e9 de 3c c1 e1 f1 bc 06 e6 dc bc
       -0.03391883 0.02721118 -0.029526593 -0.026965152
000350 a6 23 17 3d 6c 7d 6d 3d ca ce 86 3d 80 6f 9f bc
       0.03689923 0.05798094 0.06582411 -0.019462347
000360 01 a1 92 bd 4f 8b f1 bc 68 73 0d be 43 7b 89 3c
       -0.07159615 -0.029485373 -0.13813555 0.016782409
000370 45 97 d2 3b eb 25 3a bd 0f 69 14 3d 01 3e 03 3c
       0.006426724 -0.045446318 0.036233004 0.008010388
000380 f0 90 12 3d fe 71 40 bd ee 20 f1 bd 68 4b fd bd
       0.035782754 -0.04698371 -0.11773859 -0.12367898
000390 ca 44 96 bd 55 6e 8f 3d 96 7b a3 3c f0 8b 35 3d
       -0.07337339 0.07003466 0.019956391 0.044322908
0003a0 16 ce b2 bd 9c d9 f0 bd 46 56 bd bd c7 06 2a 3d
       -0.08730714 -0.11760256 -0.09244971 0.04151037
0003b0 c7 dc 77 bd 0c 50 83 3c db 21 be bd b9 e8 a3 3d
       -0.060513284 0.01602938 -0.09283801 0.08003373
0003c0 aa 50 2d 39 8f 31 87 bc a9 28 10 be 64 bc ad bd
       0.00016528615 -0.016503124 -0.1407801 -0.08483198
0003d0 21 c0 34 3d b0 4a 96 bc da d4 94 bd c4 48 d7 bd
       0.04412854 -0.01834616 -0.07267161 -0.10511926
0003e0 f2 82 85 bb 14 f5 d9 3c ef 31 e2 bd 4d c5 a3 bd
       -0.004074448 0.02660612 -0.1104468 -0.079966165
0003f0 9e 41 1c be 0b cc 57 3d 0a 2b 04 be a3 e4 0d be
       -0.15259406 0.052684825 -0.12907043 -0.13856749

encoder_conv.0.bias f4 [32]
000000 17 ea 8e bc c2 02 1a bb e7 b3 19 bd 6c f6 8a 3d
       -0.017445607 -0.002350018 -0.037525084 0.067852825
000010 01 fd f1 3d e2 b2 b5 bb 64 fa 8f 3d c1 a1 fe 3d
       0.11815835 -0.005545006 0.0703018 0.12433196
000020 4d ef bc bd 8b 38 39 bd 92 99 ce b9 6b c2 45 3e
       -0.092253305 -0.04521994 -0.000394058 0.19312446
000030 ae 72 32 bc 75 93 fc bc 76 9d a9 bd 25 55 c6 bd
       -0.0108916 -0.030832032 -0.082819864 -0.09684209
000040 2d 39 a8 3d c3 02 20 3d 3a 0a 31 3a 31 93 5c bd
       0.082140304 0.039065134 0.0006753538 -0.05385131
000050 52 74 a2 bd aa 63 04 3e 7b 86 a3 bd 90 8d ed bb
       -0.079323426 0.12928644 -0.079846345 -0.0072495416
000060 15 be fd 3c 03 63 be bc f0 56 7b bd bf ed 59 bd
       0.030974427 -0.023240572 -0.061362207 -0.053205248
000070 11 93 2b bd 3e d7 30 3d de 1f ae bd 17 3b 80 bd
       -0.0418883 0.04317402 -0.08502172 -0.062612705

encoder_conv.2.weight f4 [32, 32, 3]
000000 4a 93 5e 3d 41 99 99 bd 6b 97 50 3c 39 1f c8 bc
       0.054339685 -0.07499934 0.012731413 -0.02442895
000010 1d ec 50 bd 8a 88 a8 bd 67 5c 49 bd 38 71 d6 3c
       -0.051006425 -0.08229168 -0.049160387 0.026177034
000020 63 78 49 3d b6 ad ad 3d d1 bf d8 bd ae 19 45 bc
       0.049187075 0.08480398 -0.10583461 -0.012030048
000030 2a d5 17 3e 18 b2 09 ba bb 24 54 3c 5e 4e 2c 3d
       0.1482741 -0.0005252673 0.01294821 0.042066924
000040 13 b8 d7 bc cd e0 a9 bd 2b 18 d3 bd 5b 40 ec bd
       -0.02633289 -0.082948305 -0.10307344 -0.11535712
000050 a4 fd a3 bd 23 59 84 3c 51 07 8c 3c cb e7 80 3c
       -0.080073625 0.016155785 0.017093332 0.015735528
000060 16 9f 24 3d b3 b3 c9 bd 08 16 6b 3d ff 20 3b 3c
       0.04019078 -0.09848728 0.057394058 0.011421441
000070 39 6b 75 3c 9c 44 6a 3d 92 f9 85 bd 33 e2 04 be
       0.014979177 0.057194337 -0.065417424 -0.12976913
000080 22 ee 3b bd 73 2f a3 3d f4 05 9c 3d c5 07 4d 3e
       -0.045881398 0.079680346 0.07618323 0.20022495
000090 9b 58 49 3d f9 13 ab 3c 03 3d 09 3d 2f f7 50 3c
       0.049156766 0.020883547 0.03350545 0.012754246
0000a0 3c 82 f8 3d e7 68 b5 3d 6f 4b dc bb 9a 58 9a 3d
       0.12134215 0.08857899 -0.0067228596 0.07536431
0000b0 43 c4 aa 3c c3 1e a7 bd b9 4a 30 bd bf 1c dd bd
       0.020845538 -0.08160164 -0.04304001 -0.107964985
0000c0 51 25 e7 bc 88 fe 14 bc 03 65 fe bd 54 1d a7 3d
       -0.028216036 -0.009093888 -0.1242161 0.08159891
0000d0 6d 1d 5b bc c1 7f c2 3c b7 ec 9b bb 14 33 92 bd
       -0.013373715 0.023742558 -0.004758443 -0.07138649
0000e0 40 c4 27 bd 21 dd f3 bc 00 cb fe bd 6e 26 5d 3d
       -0.040958643 -0.029768528 -0.12441063 0.053991728
0000f0 fa 28 5d 3d d2 e7 d5 bc 4c 0a 36 3d bc 60 15 3e
       0.053994156 -0.026111517 0.044443414 0.14587682
000100 9d c7 e2 ba f1 b5 b3 3d 31 35 3e 3d 44 29 f4 3c
       -0.0017301921 0.08774937 0.046437446 0.029804833
000110 11 ac 81 3d e5 eb 97 bc c3 3a 5d 3d 2f 64 12 bd
       0.06331647 -0.0185451 0.054011118 -0.035740074
000120 14 4e b0 bd 89 a2 d2 bd 01 5b 82 3c 54 41 94 bd
       -0.08608642 -0.10284907 0.015912535 -0.07239023
000130 43 e9 1c 3d 3b 9a cb 3c fd 5d 81 3d c0 a2 8b bd
       0.038308393 0.024853816 0.06316755 -0.068181515
000140 19 06 80 bd a0 eb 51 3d 4d f8 9a bd 24 90 03 3c
       -0.06251163 0.0512501 -0.07566891 0.008029971
000150 d6 fd bf bd c8 93 c0 bd 67 d7 2e bd bd 5f ce 3d
       -0.09374587 -0.09403187 -0.042685892 0.100768544
000160 0e f9 e1 bc 0d 32 b1 3d 45 31 ca bd b7 16 89 3c
       -0.027584579 0.086521246 -0.09872679 0.016734464
000170 d6 5f f9 bd 67 9f e0 3c fd 99 18 3d 88 52 9e bd
       -0.121764824 0.027419759 0.03725623 -0.07730585
000180 b5 96 80 bd bf cf b9 bc 42 62 13 3d de e9 11 3d
       -0.06278745 -0.022682069 0.035982378 0.035623424
000190 93 50 1a 3d 74 a7 04 be 3b 75 67 3d f7 0e e5 bc
       0.037674498 -0.12954503 0.056508284 -0.027961237
0001a0 a8 27 c8 bd 1e db 84 3d 5e c1 a0 3c aa d6 62 bc
       -0.09773189 0.06487106 0.019623455 -0.013845125
0001b0 84 ff 57 bd 32 62 b1 bd b6 26 a1 39 a1 1e 51 3d
       -0.052733913 -0.086613074 0.00030737155 0.0510546
0001c0 b1 40 85 bd 9e fb a8 bd c6 6f 8f bd e0 4e 25 bc
       -0.065064795 -0.08251117 -0.07003741 -0.010089606
0001d0 34 09 8d 3d 10 68 8d bd c4 c8 95 bc 70 6c 85 bd
       0.06886521 -0.06904614 -0.01828421 -0.065148234
0001e0 13 38 8a 3d 7b b7 dd bc 2d 96 73 3d 0b 25 92 bc
       0.067489766 -0.02706503 0.05946939 -0.01783993
0001f0 c3 64 4c bc 13 31 06 bc 0b bc c3 bd f8 fd 82 bd
       -0.012475195 -0.008190411 -0.09557351 -0.06396097
000200 6f 5a 6f bd 91 c5 9b bd c8 79 51 bd ef e5 cf bc
       -0.058435854 -0.07606042 -0.05114153 -0.025378196
000210 a2 fc c7 bc 4d 8e cb bd 5e 7f 96 bd 36 61 be bc
       -0.024412457 -0.09939251 -0.07348512 -0.023239713
000220 4e 5c 49 3d 69 96 81 3d ef a2 50 bd 90 2a 2a 3d
       0.049160294 0.063275166 -0.050936636 0.041544497
000230 8b a1 53 bd 73 1b 21 bd 41 9e 8d bd db 77 8a 3d
       -0.05166773 -0.03933282 -0.0691495 0.06761142
000240 8b 3b 92 3d a1 c8 fe bd c0 c7 8e 3d 30 d4 a6 bd
       0.07140263 -0.12440611 0.06971693 -0.0814594
000250 ba 3b ce bd 6d 1f 57 bd 3f 4c 91 3d a9 2b 87 3d
       -0.10069986 -0.052520204 0.07094621 0.066001244
000260 8b 8d 87 bc 0d 77 39 bd 3e 3a ac 3c 38 a2 4d 3c
       -0.016546985 -0.04527955 0.021023866 0.012550883
000270 90 25 07 bc 95 26 a5 bc 31 89 92 3d 71 b2 15 3d
       -0.008248702 -0.020159999 0.071550734 0.036547128
000280 ce 46 0e bd 0e b2 9b bc a6 58 73 3c 61 86 83 bd
       -0.034735493 -0.019005802 0.014852678 -0.06422115
000290 3d bc e6 bd bc 93 98 bd 44 aa fa bd 70 44 8e bd
       -0.11266372 -0.07450053 -0.12239507 -0.06946647
0002a0 ab 91 3d bc 7c 84 6e bd 4a f6 0e 3d 1d cd ad 3c
       -0.0115703745 -0.058231816 0.03490285 0.02121597
0002b0 be 13 b5 bc 2e 44 6d bd 31 32 07 bb 98 bb 6a 3d
       -0.02210414 -0.05792635 -0.0020629282 0.05730781
0002c0 b5 1d 6c 3d 55 6b b7 3c e0 e2 57 bd dd fa cf bd
       0.05764552 0.022390047 -0.0527066 -0.1015527
0002d0 85 75 d4 bd 09 27 96 3d fb b8 fd bd ec d6 f1 bd
       -0.103739776 0.07331664 -0.12388798 -0.11808571
0002e0 e8 3e 55 3d ee aa 3b 3c 8c f9 b1 bd 37 f7 bf bc
       0.052061945 0.011454327 -0.086901754 -0.02343331
0002f0 c7 ae 29 3d df 0c 38 3d 4c 20 2c 3d 00 0a 6d bd
       0.041426446 0.04493415 0.04202299 -0.057870865
000300 89 e6 84 3d f0 5b 01 3d fa 6d d0 bd e8 d9 54 3c
       0.064892836 0.03158182 -0.10177226 0.012991406
000310 d9 c5 e0 bd 89 4a 95 bd 82 1a 11 3d 9c df 8c 3d
       -0.109752364 -0.07289607 0.03542567 0.068785876
000320 60 f8 d4 bd d0 12 a4 3d 20 f3 78 bd 3d 7b 0c 3d
       -0.10398936 0.08011401 -0.060778737 0.034297217
000330 7c bb 17 3c 7e de bd 3c c9 72 b3 3d 4e 28 02 3d
       0.009261008 0.023177382 0.08762128 0.03177672
000340 e7 00 02 bd 79 36 1f bc 28 ec fe bc c7 73 11 3d
       -0.03173914 -0.009717577 -0.031118467 0.035510805
000350 67 23 01 be 27 f4 e4 bc f5 d1 8a 3d 81 a6 06 bd
       -0.12611161 -0.027948452 0.067783274 -0.032873634
000360 36 08 7a bd 96 ff 81 bd d5 f4 6a bd 5c 6f 32 bc
       -0.061042987 -0.06347577 -0.057362396 -0.010890808
000370 bf 25 41 3d 5d 22 c8 bc 44 93 9a 3d da a0 0c 3d
       0.047155138 -0.024430448 0.0754762 0.034333088
000380 5d 5f ba 3b b1 51 f4 bc a3 18 b3 3d 5a 76 89 bd
       0.0056876377 -0.02982411 0.087449335 -0.06712027
000390 86 f1 33 bd 80 e6 9b bd 1a 40 73 3d da 53 0a 3c
       -0.043931507 -0.07612324 0.059387304 0.008442843
0003a0 1b cb ca 3c e5 4b 52 3d 99 a8 8a bc 4d 4f 22 bd
       0.024755051 0.05134191 -0.016926097 -0.03962641
0003b0 ec 88 ac bd 18 86 5f 3d 1f 30 8d 3d e5 bb 9c bb
       -0.08424553 0.05457124 0.06893944 -0.004783141
0003c0 57 84 54 3d fe ac 55 bd a4 10 b5 bd 4a 49 8d bd
       0.05188402 -0.05216693 -0.088410646 -0.068987444
0003d0 41 36 99 bd 65 38 0d bd 42 59 aa bc e4 d6 b4 bd
       -0.07481051 -0.03447761 -0.020794515 -0.0883005
0003e0 37 2e e2 3c 5d ad e2 b9 fc dc 0c 3d 6a 73 b4 ba
       0.027609928 -0.00043235245 0.034390435 -0.0013767306
0003f0 a0 19 80 3c 20 f9 96 3d e5 7f 3e bc 1c 1f 03 3d
       0.015637219 0.073717356 -0.011627172 0.03201209

encoder_conv.2.bias f4 [32]
000000 0d 6f ec 3d 73 07 ad bd 98 da fb bd 4f 0f 5c 3e
       0.11544619 -0.084486865 -0.12297553 0.21490215
000010 b2 78 a7 bd e1 84 ca 3d d9 1d 5d bd 83 b8 9c bc
       -0.08177318 0.09888626 -0.053983543 -0.01913095
000020 2f a3 01 bd 56 42 ff bc 9b 09 cc bc b8 0a ac bd
       -0.031649765 -0.031159561 -0.024906924 -0.08400482
000030 93 2c 11 bd 51 99 5e 3d c6 09 b8 bb 23 8f c1 ba
       -0.0354429 0.054345433 -0.0056163995 -0.001476739
000040 f5 6e 86 bd e9 c3 20 3e 8a 0a 12 bd ac 33 87 bd
       -0.06564132 0.15699734 -0.035654582 -0.066016525
000050 e8 d4 5b bd b0 65 f7 3c ed 28 62 bd 25 8e e2 bd
       -0.05366984 0.030199856 -0.05521481 -0.11062268
000060 a0 4f cc 3c 4c 81 44 bd 61 5a 81 bc d2 ad c0 bc
       0.024940312 -0.04797487 -0.015790166 -0.023520384
000070 51 44 56 bc 2d b5 0b 3e da 41 19 3e a7 dd b0 bd
       -0.013077811 0.13643332 0.14966527 -0.08636027

encoder_conv.4.weight f4 [64, 32, 3]
000000 6b cd a3 3d e2 b3 6d 3d 4c b8 11 bc a7 74 8d 3c
       0.07998165 0.058032878 -0.008894037 0.017267538
000010 99 b0 a6 3d 16 3c ef ba 75 f6 50 bc 94 61 3a bb
       0.08139152 -0.001825216 -0.012754072 -0.0028439509
000020 f9 66 fa bd 60 6e 38 3d 6a f7 e6 bd a1 f2 bb bd
       -0.12226672 0.045027137 -0.11277659 -0.09177137
000030 60 ae ba bd 10 0e de 3d 48 58 72 bc e8 81 75 3c
       -0.09115291 0.10842526 -0.014791556 0.014984585
000040 cb ab f9 3b 9a 68 b0 bd 8d d9 58 bd af 23 ee 3d
       0.0076193563 -0.08613701 -0.052941848 0.116279
000050 85 4a 99 3d 5c 71 ec bc f0 85 10 3e 22 f2 cb 3d
       0.074849166 -0.028862648 0.14113593 0.099582925
000060 f3 0a 81 3d 34 e6 b4 3c ed 42 be 3c 95 17 d8 bd
       0.063009165 0.022082426 0.023225272 -0.10551373
000070 8a eb e4 3b cb 52 bd bd 38 3e 06 bd 8c d2 20 bd
       0.0069860863 -0.09244307 -0.03277418 -0.039263293
000080 e1 20 f2 3b 28 13 7e bc ba 56 a5 3d bb ed a9 3d
       0.0073891734 -0.015507497 0.080731824 0.082972966
000090 9b 06 a3 3b a5 00 68 bd c0 6f 8c 3d 4c 1a 8a 3d
       0.0049751527 -0.05664124 0.06857252 0.06743297
0000a0 6d cc 95 3d 40 1c 03 bd 58 f1 d5 3c 09 e6 e7 bb
       0.07314382 -0.032009363 0.026116058 -0.007076983
0000b0 3e 6b a1 3b 9b 82 0d bc 09 84 01 3e 9c f2 8b bd
       0.0049261143 -0.008637096 0.12648024 -0.068333834
0000c0 97 79 c5 3c 6a 0d 9f bc a5 45 0e 3d 77 a0 6f bc
       0.02410583 -0.019415576 0.034734387 -0.01462566
0000d0 d9 04 14 bd 6b c0 fc 3c c0 39 63 bd 7f 43 76 3c
       -0.036137436 0.03085347 -0.055474997 0.015030741
0000e0 1a a1 22 bc 81 f9 17 bd 8f e0 59 bd 27 0e 0a 3d
       -0.009926105 -0.03710318 -0.05319267 0.033704903
0000f0 26 3b d7 3d 76 68 4e 3d 53 63 61 bd 60 60 9c 3d
       0.105093285 0.05039259 -0.055026364 0.076355696
000100 a3 2c 67 3b d8 cb b7 3d 7e 6e 22 3d b9 ae af bd
       0.0035274408 0.08974427 0.039656155 -0.085782476
000110 e1 69 cc bc f3 96 85 bb c4 1a 37 3d 0f d1 6a bd
       -0.02495283 -0.0040768324 0.04470326 -0.05732828
000120 37 33 aa 3c 00 0d 09 3e 93 52 9e 3d 35 46 f0 3d
       0.020776374 0.13383865 0.077305935 0.11732141
000130 76 d4 09 3a 7a 36 50 bd 13 5a 1c 3d a9 02 18 3d
       0.00052577944 -0.050833203 0.03817184 0.037111912
000140 1c 02 3e 3d fc 42 b6 bd 59 4d ea bc f0 3b 4f bc
       0.04638873 -0.08899495 -0.028601335 -0.012648568
000150 21 fb 5c 3c bb b3 eb bd d5 95 1a 3d 8e 0c bb 3d
       0.013487608 -0.1150889 0.037740547 0.09133254
000160 48 ca a3 bd 82 ed 4b 3d 44 bf 9f 3d 9c b4 b4 3c
       -0.079975665 0.049787052 0.07800153 0.022058778
000170 50 4c 89 bd 3d 11 8c 3d 9d 25 0a bd 2b ef e8 bc
       -0.067040086 0.068392254 -0.033727277 -0.028434357
000180 29 10 00 be 0b 4c 80 3d ea 6a d2 3d 59 c6 14 bd
       -0.12506165 0.06264504 0.102742985 -0.03632197
000190 8c 9c 9d 3d fb c1 b8 bc 07 b3 41 3d 20 c9 30 3d
       0.076958746 -0.022553435 0.047289874 0.043160558
0001a0 aa e0 79 bd 0a 7f d9 3d e1 12 82 3d dc 46 20 bd
       -0.061005272 0.10619934 0.06351257 -0.039130077
0001b0 8d af bf bd 2c 57 ae bd 3f aa 29 3d b6 49 76 bd
       -0.093596555 -0.085127205 0.041422125 -0.06012889
0001c0 3f 44 6f 3c d5 58 86 bd 80 4f d6 3b f1 dc 82 bc
       0.0146036735 -0.06559912 0.006540239 -0.015974494
0001d0 03 9d 05 be c0 13 2e 3d d1 46 33 bc 94 c2 82 3c
       -0.13048176 0.042499304 -0.010942177 0.015961923
0001e0 f7 6b 09 bd 21 5d 8c 3d 28 06 de 3b b3 47 94 3d
       -0.03355023 0.068537004 0.006775636 0.07240238
0001f0 d1 42 0a bd d2 c4 e2 3d 50 f3 7d bd 75 01 4f 3d
       -0.033755127 0.11072697 -0.06199962 0.0505385
000200 b4 03 20 bd af 37 8f 3d 4f 7c 6a 3b 6b a4 6f bd
       -0.03906603 0.06993043 0.003577966 -0.05850641
000210 db 50 f2 bc 57 54 9a bd 3e 98 35 3c 74 fe 16 3c
       -0.02957957 -0.07535618 0.011083661 0.00921594
000220 67 97 47 bd e5 60 1e 3d d7 54 b7 bc 0c eb 36 3c
       -0.048728373 0.038666625 -0.022379322 0.011164438
000230 57 e1 61 bc 1e 37 53 3d a7 05 02 be a8 f6 3e 3d
       -0.013786635 0.051566236 -0.12697469 0.04662195
000240 3d 37 57 bd 29 0c 31 bd d8 d1 11 3d 12 a3 f2 3c
       -0.052542914 -0.043224487 0.035600513 0.029618774
000250 96 da 20 3e df b2 c7 bb 27 c3 fb 3d cc e1 70 3d
       0.15708384 -0.006094321 0.12293082 0.058809087
000260 65 7c df bc e9 fd a3 bb 86 6f 8f bd 5a 0c 76 bc
       -0.027280996 -0.0050046337 -0.07003693 -0.015017593
000270 38 88 8e bd 82 f7 1a 3d fa 21 b6 bc 64 3d 23 bd
       -0.069595754 0.037833698 -0.022232998 -0.03985347
000280 43 32 52 bd 5b dd 47 3d ab 62 bb bb 48 d4 7c bd
       -0.051317465 0.048795085 -0.0057185492 -0.061725885
000290 ea a7 ae bd 32 b8 00 be 3f 30 69 3d a7 6c 7c 3d
       -0.08528121 -0.12570265 0.056930777 0.061627056
0002a0 b9 7d 62 3d 64 13 8e bd f5 4a b3 3a 90 93 68 bd
       0.05529568 -0.06937292 0.0013678955 -0.05678135
0002b0 b2 b7 ac 3c 84 51 81 bd 5a 26 c6 bd 33 79 33 3c
       0.021083687 -0.06314376 -0.09675284 0.010954189
0002c0 11 38 82 3d 0e fd 29 bd 98 3c 4b bd 29 21 81 bc
       0.0635835 -0.041501097 -0.049618334 -0.015762882
0002d0 3b a3 8c 3c 2c e5 2f 3d 3b 6d 4b 3d 80 9c f1 bc
       0.017167678 0.042943165 0.049664717 -0.02949357
0002e0 98 32 a5 bc 58 27 bd 3c 4e cf d2 3d 18 e4 58 3d
       -0.020165727 0.02309005 0.102934465 0.052951902
0002f0 99 4d 10 bb e0 31 58 bb 40 f0 f9 bc 82 d6 f0 3c
       -0.0022018908 -0.0032988712 -0.030510068 0.02939916
000300 13 c8 62 3d 9f 3b 66 3a 8f 4d db bc 0c ac 44 bb
       0.055366587 0.0008782688 -0.026770381 -0.0030009774
000310 a0 80 81 3a c9 18 8a 3c 36 e1 01 bd 2f 16 99 bc
       0.0009880252 0.016857522 -0.03170892 -0.018687336
000320 3e 44 97 bd c6 49 f9 3c 39 42 90 bd 31 ce 20 3d
       -0.07386063 0.030430686 -0.07043881 0.03925914
000330 c2 b5 b9 3d d6 30 e3 3a b1 df c3 3c 05 b8 3a bd
       0.09067871 0.001733328 0.023910375 -0.04558565
000340 b0 5a 46 ba 0c 95 19 3d d1 59 ab bb ae 07 89 3d
       -0.0007566614 0.037495658 -0.005229213 0.06690918
000350 0d 6f fa bd dd ff bf 3c c5 d0 03 bc 00 07 73 3d
       -0.122282125 0.023437435 -0.00804538 0.059332848
000360 47 da b1 bd c5 4c 8a 3d 24 4d 81 3d c3 9a ef bc
       -0.08684211 0.06752924 0.063135415 -0.0292486
000370 de a7 98 3c 49 7c af 3d b1 c1 a1 bd 61 bd 32 bd
       0.018634733 0.085686274 -0.07898272 -0.043637637
000380 23 7c 83 3d d0 d7 bd bd ad da ac bd b2 c2 8a bd
       0.064201616 -0.092696786 -0.084401466 -0.067754164
000390 8b bc 3d bd 2e 84 cb 3d 49 4c 9a bc a2 6c a4 bd
       -0.046322387 0.09937321 -0.018835204 -0.080285326
0003a0 63 65 4c 3d a4 9e d4 bd 6e 5a f7 bc 67 75 1a 3d
       0.049901377 -0.10381821 -0.030194487 0.03770962
0003b0 09 80 14 bd ba 13 bb 3c 45 02 06 3d 84 5a a1 bc
       -0.036254916 0.022836555 0.03271701 -0.019696482
0003c0 ef 65 ea bb 3a d8 df ba 0f cf 19 bd 07 88 33 bd
       -0.0071532647 -0.001707799 -0.037550982 -0.043830898
0003d0 f2 32 af 3d da 69 21 3d dd 09 b3 3d fc 5c b5 bd
       0.08554639 0.03940759 0.08742116 -0.08855626
0003e0 28 e2 8b bd a3 19 6e bd 4e e5 e9 bd da 0a 3d bb
       -0.06830245 -0.058129918 -0.114206895 -0.002884558
0003f0 3b 29 6f ba 77 9a 91 bd 31 82 84 3b 1a 74 5e bd
       -0.000912327 -0.0710954 0.0040438403 -0.05430994

encoder_conv.4.bias f4 [64]
000000 af 11 01 bc 02 5b 1b bd 35 ea 9e bb 22 04 da 3c
       -0.007877751 -0.03792859 -0.004849697 0.026613299
000010 4a 1e c7 bc 8b 62 6f bd 91 83 90 bd 21 b1 17 3d
       -0.024306435 -0.058443587 -0.07056344 0.037034158
000020 31 a3 4d 3e e4 36 0e bd 33 c6 c9 3d 62 4c ae 3c
       0.20081784 -0.034720317 0.098522566 0.021276657
000030 99 4a df 3d 5f 6f 56 bb 04 48 85 bc c6 d9 2d 3d
       0.109029 -0.003272019 -0.016269691 0.042444013
000040 6a c0 0d be b0 09 0b 3e 88 cc ba bd 05 ad 3a 3d
       -0.13842931 0.13577914 -0.091210425 0.04557516
000050 3c 90 45 bd 5f 6d 4b bb f9 24 e3 bd 88 65 9e bd
       -0.048233256 -0.0031040532 -0.11091036 -0.07734209
000060 20 c4 5c 3d ea 3f ce bc 09 53 cc bd 86 e6 9a bd
       0.053897977 -0.025176961 -0.09976775 -0.075635
000070 41 35 eb bc 07 b4 81 3d 79 c4 d7 3d 4d 93 ee bd
       -0.028711917 0.063331656 0.10535521 -0.11649189
000080 c8 d0 54 b9 52 06 1c 3e 41 c8 22 3e d0 28 18 bd
       -0.00020295673 0.15236786 0.15896703 -0.037148297
000090 32 aa aa 3c fc 4c 80 3d 72 c9 2b 3d 03 dc 84 bd
       0.020833109 0.062646836 0.04194016 -0.064872764
0000a0 75 53 2c bd f0 fb 06 be 51 1c 88 bd df 81 2e 3d
       -0.04207178 -0.13182044 -0.06646026 0.042604323
0000b0 a5 f5 a0 bd 9d b9 47 bc 5f 7d 18 bd 85 97 01 bd
       -0.07859353 -0.01219025 -0.03722894 -0.03163864
0000c0 55 e6 b1 3d 9d 52 aa bc a4 de 8d bd 6a d5 82 bc
       0.086865105 -0.020791346 -0.06927231 -0.015970904
0000d0 78 ff 8d 3d a0 cb dc bd 21 dc 1b 3e 99 a0 c2 bd
       0.069334924 -0.10781026 0.15220691 -0.09503288
0000e0 d2 15 b3 bd b0 8c f7 bd 71 36 6d 3d 63 76 79 bd
       -0.08744396 -0.12087381 0.057913247 -0.060903918
0000f0 e1 d7 19 bd 00 fe 0a 3d dd 56 b5 bd 1c f4 9b 3d
       -0.037559394 0.03393364 -0.088544585 0.076149195

encoder_conv.6.weight f4 [64, 64, 3]
000000 d2 41 e8 b3 30 82 d7 3d c7 6d 0f 3c cb 9b bb 34
       -1.08153145e-07 0.10522878 0.0087542 3.494482e-07
000010 27 df 44 bd f9 9e 9e bd b0 65 24 b4 91 d2 10 bc
       -0.048064377 -0.077451654 -1.5310684e-07 -0.008839265
000020 14 ec cd 3c fc d0 b4 32 cc 39 50 3d b1 a1 b2 bd
       0.025136985 2.1049793e-08 0.05083637 -0.087222464
000030 b2 95 b0 33 a0 0f 6a bd 60 ae 18 3d 20 4a 16 33
       8.222868e-08 -0.057143807 0.037275672 3.4992013e-08
000040 43 d9 e7 3d 21 ec 90 bd 06 8a ab b1 26 8c c5 bd
       0.11320736 -0.07076288 -4.9924465e-09 -0.09645872
000050 78 52 00 3d d3 27 25 b4 a8 43 92 bd 16 c3 8f bd
       0.03132865 -1.538131e-07 -0.07141811 -0.070196316
000060 fe 26 ec b4 f1 f4 38 3d 12 a9 49 3d 0f 61 f5 31
       -4.3986796e-07 0.04515547 0.049233504 7.1414727e-09
000070 97 4d cf 3d 8a 64 e7 3c 31 c3 ea 33 29 93 94 3d
       0.10122221 0.028246183 1.0931979e-07 0.07254631
000080 0d d4 fd 3c 06 d3 3e 34 d1 68 3e 3e 7d 57 98 3b
       0.030984903 1.7771899e-07 0.18594672 0.0046491013
000090 d5 a3 1c 34 09 94 11 3d 9e 01 4e 3d 90 9c 3a 33
       1.4588234e-07 0.035541568 0.05029451 4.3448892e-08
0000a0 6b 71 fa 3d 7e 52 50 3d 0e da 1c 34 6a 93 8c bd
       0.12228664 0.05085992 1.460796e-07 -0.068640545
0000b0 45 ba 23 3d de 19 e4 b4 88 d9 e8 3d ef e7 a4 3c
       0.039972562 -4.248713e-07 0.11369616 0.020130126
0000c0 c3 44 f0 34 44 9c 83 bd 7c 94 b3 bc c3 e7 9f b4
       4.4753514e-07 -0.0642629 -0.021921389 -2.9784687e-07
0000d0 3e 89 33 3c fa 79 83 3d ea 42 a8 b2 8d 9e 17 3d
       0.010958014 0.064197496 -1.9588203e-08 0.03701644
0000e0 bf 7e 5e bc 4f 03 61 33 3d 58 9c 3d 43 cf 16 3d
       -0.013580023 5.2389904e-08 0.076340176 0.036818754
0000f0 6c e4 27 b2 38 25 ae bd 9b 4a 8d 3d 85 3c b6 30
       -9.7726165e-09 -0.08503193 0.068989955 1.3259444e-09
000100 2f 61 80 bd 33 3c 8b bd 9a c5 06 34 10 63 88 bd
       -0.06268536 -0.067985915 1.255161e-07 -0.0665952
000110 d0 ea 48 3d fd 43 c4 33 72 2b f3 bc fa f4 69 3c
       0.04905206 9.139328e-08 -0.029683802 0.014279598
000120 bc b8 da 32 4e 5e d1 3d 29 54 c3 3c 17 02 bd b4
       2.5462548e-08 0.10223065 0.023843842 -3.5205514e-07
000130 d4 6c b5 bd dc 55 00 bd 5d 16 5a 33 4d d4 9f bd
       -0.08858648 -0.031331882 5.077742e-08 -0.07804165
000140 c6 26 2b bc bb e6 70 b4 9a 8f ad 3c 40 02 a5 bb
       -0.010446256 -2.2435681e-07 0.021186639 -0.0050356686
000150 cd cb 6f b4 a3 fa 0e 3d 06 57 5b bd 99 64 b4 34
       -2.2332752e-07 0.034906995 -0.05354979 3.3600807e-07
000160 95 33 05 3b dd 6d 80 bd ff 5f 03 b4 fa d3 95 bc
       0.0020324935 -0.06270955 -1.2235249e-07 -0.018289555
000170 82 99 50 bc a6 07 95 b2 1a 70 32 3e b0 2d cd 3c
       -0.012731912 -1.7349361e-08 0.17425576 0.0250462
000180 cc 48 b9 b1 01 a9 f6 3d 92 69 34 bd 4a 67 22 34
       -5.3924847e-09 0.12043954 -0.044045992 1.5125002e-07
000190 49 c6 18 3d b2 89 8e 3d 2f b2 ee b4 96 68 11 3d
       0.037298474 0.06959857 -4.44606e-07 0.03550013
0001a0 90 4f 96 3d 8c 02 95 34 c7 17 d0 3c 68 a7 bd bd
       0.07339394 2.7755266e-07 0.025401963 -0.09260446
0001b0 0b 91 86 b4 8b 8f f3 3c bd 89 51 3d 3d ef da 33
       -2.5064978e-07 0.029731533 0.051156748 1.0194933e-07
0001c0 87 11 43 3d d3 45 75 3d f0 08 86 b4 73 f6 e9 3d
       0.047624137 0.059881043 -2.4965948e-07 0.114239596
0001d0 ec 64 fb bd 97 2c fd 32 d3 7f a3 3d 74 51 88 bc
       -0.12275109 2.9473354e-08 0.07983365 -0.016640402
0001e0 6b 5d ec 33 66 ea 4a bd e2 c9 c1 3c cc 21 75 b3
       1.1006599e-07 -0.049539946 0.023655836 -5.7074246e-08
0001f0 26 53 f8 bb 5e 19 6f bd 43 28 e3 34 f2 da be bc
       -0.0075782714 -0.0583738 4.231134e-07 -0.02329776
000200 13 c7 59 3d 65 1f f3 b4 fe b0 ee bc 2a 0a b7 bc
       0.053168368 -4.528512e-07 -0.02913713 -0.022343714
000210 1a cc 41 b3 dc 05 92 bd 39 6c 98 bc 83 6e 02 33
       -4.5121944e-08 -0.07130024 -0.018606292 3.0368493e-08
000220 f0 e7 0c 3d 11 2d ce 3c d9 99 2f 34 11 5b 1f be
       0.03440088 0.025167974 1.6354115e-07 -0.15562083
000230 90 35 a2 3c c4 43 6b b4 a9 a7 8f bd 14 24 94 3c
       0.019800931 -2.1910733e-07 -0.070144005 0.01808361
000240 6d ca d0 b2 91 d2 a6 3d a6 32 e3 3c 8c c9 c3 b2
       -2.430644e-08 0.08145631 0.027734112 -2.279264e-08
000250 94 64 1d bd cb bd bf bc e4 90 a6 32 3d d5 d3 3c
       -0.038425997 -0.02340593 1.9390832e-08 0.025858516
000260 9f 6a 9c 3c 28 e7 55 b3 ba 6a 1c 3d f3 77 38 bd
       0.01909381 -4.9803162e-08 0.03818772 -0.045036267
000270 e7 18 fb 33 f3 42 31 3d 26 ce 15 3d fd 7c b9 34
       1.1692628e-07 0.04327674 0.03657355 3.4549876e-07
000280 11 a2 79 bd ed c0 fa bc 26 bb 06 34 ca c9 40 3d
       -0.060945574 -0.030609572 1.2547807e-07 0.04706744
000290 a0 31 b2 3d c9 04 9a b3 2f b2 ba 3d 7b 39 7b 3c
       0.087008715 -7.172054e-08 0.09116017 0.015333529
0002a0 09 93 35 b4 4c e1 87 3c 99 25 0a 3d eb 22 dc 34
       -1.691043e-07 0.016586922 0.033727262 4.10036e-07
0002b0 aa 43 56 bd 83 bc 6c bc d1 ef 72 b4 3e e2 2a 3e
       -0.052310623 -0.014449242 -2.2625251e-07 0.16687867
0002c0 5b 55 7a bc 4a d2 3d b4 6e ae 9b 3b 9d f7 be bd
       -0.015279139 -1.76785e-07 0.0047510182 -0.09324572
0002d0 41 e0 18 32 d4 6d f6 3d 0b ac c0 3c da be 60 b4
       8.898554e-09 0.12032667 0.023519536 -2.0931057e-07
0002e0 ed 13 c9 3c 70 39 4b bd 76 3a bb 33 d9 e4 a9 3d
       0.024545634 -0.049615324 8.7185e-08 0.08295602
0002f0 24 bd 9e 3c 64 d8 24 b2 b8 ae 17 3d d5 28 92 3d
       0.019377299 -9.595258e-09 0.03703186 0.07136694
000300 33 a0 18 34 07 a8 25 3d ad 84 bd bd 07 04 29 b3
       1.4214383e-07 0.040443446 -0.092538215 -3.935204e-08
000310 b4 e3 90 bd 32 1d 50 3c bd ef a6 b4 81 de 4a 3c
       -0.07074681 0.012702273 -3.1094342e-07 0.012382151
000320 d4 69 af bc 2d b5 7d 34 0e 3b 8e 3a fe 4b b3 bd
       -0.021412767 2.3628373e-07 0.001085134 -0.08754729
000330 f5 1a e0 34 db 1c 62 3c 31 a0 83 3c bc 8e 83 b4
       4.1742865e-07 0.013800825 0.016067596 -2.4504504e-07
000340 52 70 bb 3c 77 61 23 bd 4e 06 28 31 e6 87 85 bd
       0.022880707 -0.03988787 2.4450801e-09 -0.06520061
000350 17 15 3e bd b6 ee e2 b2 42 16 88 3c e3 eb a0 bc
       -0.04640683 -2.6418416e-08 0.016612176 -0.01964373
000360 14 f7 97 b3 57 49 4b 3d 4e 68 38 bc c8 e0 5a 33
       -7.076429e-08 0.04963049 -0.011255337 5.0961518e-08
000370 58 48 f4 3b af 8a 9f bd ad 4f b5 b4 51 9a ba 3c
       0.007454913 -0.07790124 -3.377185e-07 0.022778662
000380 61 49 b1 bd f3 6b 73 33 fe 2a 11 3e 69 ae 7d bc
       -0.08656574 5.6676026e-08 0.14176556 -0.015483477
000390 41 8a 2a b2 f6 ba 0e bd 5e 38 be bc be 7c 6b b4
       -9.926738e-09 -0.03484627 -0.023220237 -2.1931461e-07
0003a0 12 6a c1 3d de 34 76 3b 17 69 b7 b4 57 c3 01 3d
       0.094440594 0.0037568132 -3.416287e-07 0.03168043
0003b0 d5 55 ee bb 42 ad 02 b4 b1 cd eb bc 15 d2 94 bd
       -0.0072734156 -1.2170224e-07 -0.028784605 -0.072666325
0003c0 90 f3 1e 31 3f 14 8a bd 39 aa 99 3c a5 59 70 b3
       2.3130475e-09 -0.06742143 0.018757926 -5.5960886e-08
0003d0 53 c2 4e bd 42 c0 de bc 57 12 bb b0 67 d8 07 3c
       -0.05047829 -0.027191285 -1.3611253e-09 0.00829134
0003e0 d1 51 4d bd 02 96 61 33 8f a0 d1 3d b0 85 e8 bb
       -0.050126854 5.2523326e-08 0.10235702 -0.007096015
0003f0 c0 bf 2b 32 cd 31 c3 bd 85 0e ee 3c 1c 26 bf 33
       9.997109e-09 -0.09530983 0.029059658 8.9010626e-08

encoder_conv.6.bias f4 [64]
000000 35 45 3d 3d c6 47 0f bc 34 5a 80 bd 3f a5 ad bd
       0.04620858 -0.008745139 -0.06267205 -0.08478784
000010 74 d4 b7 3c 5e 3e 01 3e ff 85 7e 3d 13 cc 89 3b
       0.022440173 0.12621447 0.062139507 0.0042052357
000020 9f bf d5 bd e7 0c 8d 3d 00 1b 88 3d 55 e5 0d 3c
       -0.104369394 0.068872266 0.06645775 0.008660634
000030 47 c3 25 3c 29 03 ac 3b c4 eb 8e 3d 75 e3 a6 3d
       0.0101173585 0.0052494 0.069785625 0.08148853
000040 1f 7b ca bc 1d 4f 0a bd 70 f5 28 bc 6c 93 24 3d
       -0.024716912 -0.033766855 -0.010312423 0.040179655
000050 d6 e7 8d 3d ad 06 b0 3d 22 18 b8 bb 8c fd 97 bc
       0.06928985 0.08595023 -0.005618111 -0.018553518
000060 a5 89 25 bd 41 69 99 bd 85 b1 b3 bb 77 b7 0a 3d
       -0.04041447 -0.07490779 -0.0054838085 0.033866372
000070 0b 13 f2 3d 87 5c 9e bc ce ee 34 bc 2b 9f 0a 3e
       0.118200384 -0.01933123 -0.011043264 0.1353728
000080 e5 3a d0 3c 84 98 9f bc c4 a3 2c 3d d4 e4 ff 3a
       0.025418708 -0.019481905 0.042148367 0.0019523152
000090 01 09 38 bd 84 04 43 3d c3 df ac bd aa e9 03 bd
       -0.04493046 0.04761173 -0.08441117 -0.03220526
0000a0 43 88 bd 3d 96 c5 d0 bd 28 1b 66 bd f3 b1 80 3c
       0.092545055 -0.101939365 -0.056178242 0.015709853
0000b0 d4 e5 e4 bc 56 a0 8d bd d2 d8 b2 bd 2a 9a 59 bd
       -0.027941622 -0.06915347 -0.087327614 -0.053125538
0000c0 e5 62 eb bd c0 17 bb 3c 9f bd 28 bc 12 82 67 bd
       -0.11493472 0.022838473 -0.010299115 -0.05652053
0000d0 51 6d 47 bd 99 12 87 bd ce 29 00 bd 0d 87 ab bd
       -0.048688237 -0.06595344 -0.031289868 -0.08375368
0000e0 59 43 3e 3c 33 6a b3 bd cc 28 2e 3d 1c 13 77 bd
       0.011612737 -0.0876049 0.042519376 -0.06032096
0000f0 61 c1 98 bd 8b 2d 4d 3d c8 50 85 3c 6e 81 5f bc
       -0.07458759 0.05009226 0.016273871 -0.013641698

encoder_fc1.0.weight f4 [64, 64]
000000 63 9a e8 bd 4f 02 08 3b 3a 38 8e bd d6 66 75 bd
       -0.11357572 0.002075333 -0.06944318 -0.059912525
000010 c5 77 4f 3d a3 99 97 bc 62 37 82 3c 18 3a 8a 3d
       0.05065133 -0.018505877 0.01589555 0.06749362
000020 8b a4 ba bd 80 7e ad 3d 94 a2 c3 bd 6b 73 21 bc
       -0.09113415 0.084713936 -0.09552494 -0.009854178
000030 27 5f 9c bd 26 ff 13 3c 13 3e 5e bd ab 95 8b bd
       -0.07635336 0.009033 -0.054258417 -0.06815656
000040 a1 85 d8 3b 23 1e d2 bd c8 d4 a6 3d 1c be 49 bd
       0.0066077267 -0.102596544 0.081460536 -0.049253568
000050 bb 77 a2 3d db 5c 8f 3a 40 e0 18 3c ea 86 1d bd
       0.07932993 0.0010937707 0.009330809 -0.038458742
000060 ce 1e 23 bc 98 b5 b0 bd 79 c0 9b bd 6f 17 b0 bd
       -0.009956075 -0.08628386 -0.076050706 -0.085982196
000070 70 fb b2 3c a9 aa 68 bd 73 fd a2 bd 4c 5f 15 bd
       0.02184841 -0.05680338 -0.07958498 -0.036467835
000080 fa f7 88 3d ee 64 06 be 9d 08 fa bc b0 ce c1 bc
       0.06687923 -0.13124439 -0.030521685 -0.023658127
000090 e5 d9 ac bd 59 89 98 3d 2d f7 bb bd f9 29 12 be
       -0.084399976 0.07448072 -0.091780044 -0.14273824
0000a0 d8 96 13 3e 73 e6 1a 3d e5 2f 13 be 53 cb 6a bd
       0.14413011 0.03781743 -0.14373739 -0.05732281
0000b0 ba ae ef bc 6a 4b 82 bd 58 bc 05 3e 55 8b f8 bd
       -0.02925812 -0.0636204 0.13060129 -0.121359505
0000c0 3d 1b c6 bb dd c9 be 3d 6e ff 0a be 6f 14 40 3d
       -0.0060457275 0.09315846 -0.13574001 0.046894487
0000d0 23 2f 38 bd e6 ad f6 ba 27 e6 60 bc 9c 90 2a 3d
       -0.044966828 -0.0018820136 -0.013726748 0.041641816
0000e0 31 f8 9b 3d c9 4b ba bc b9 e7 53 bd a9 49 ba 3d
       0.07615698 -0.022741215 -0.05173466 0.09096081
0000f0 dd 99 1e bb 1b ff 4c 3b b7 74 e4 bd 29 f6 a1 3d
       -0.0024200596 0.0031279984 -0.11155074 0.079082794
000100 37 1e db 3d ce 1a 69 bd 9c 07 ee 3d 76 12 be bd
       0.106991224 -0.05691033 0.11622545 -0.09280865
000110 64 ef 33 be 0f f2 58 3b 5d 5f f7 3d 75 7a 06 3e
       -0.17571789 0.0033103263 0.12078736 0.13132651
000120 ec 76 ae 3d 83 b0 d7 bc cd b2 b2 bd 56 a2 95 3b
       0.08518776 -0.026329285 -0.0872551 0.004566471
000130 f6 ad a6 bd 7c f6 43 bd 77 ff f8 3d 44 0a 01 bb
       -0.08138649 -0.047842488 0.12158101 -0.0019689957
000140 b7 85 e7 3d 31 28 5b bd a6 67 dd 3b 42 cd f0 bd
       0.11304801 -0.053505126 0.0067567406 -0.117579
000150 84 b7 27 bd 2f 27 ed 3d aa 5e 0c bd e8 81 b2 3d
       -0.0409465 0.11579739 -0.034269966 0.08716184
000160 99 9f 46 bd bf c9 93 bd e0 27 25 3e 5c 37 b6 3d
       -0.048492048 -0.072162144 0.16128492 0.08897278
000170 d0 dc 0d bc 64 3e c7 bd f7 99 36 bd 80 f8 d1 bd
       -0.008658603 -0.09728697 -0.044580426 -0.10252476
000180 a8 87 9c bc 0d f8 f2 3c 7a 67 a9 3c 96 51 b1 bc
       -0.019107655 0.029659295 0.020679224 -0.021645349
000190 dd 2a 8a 3d c6 9c 09 bd 46 7f d4 3d a4 1d e3 3d
       0.06746457 -0.033596776 0.10375838 0.11089638
0001a0 de c5 07 3e e1 b2 13 3e a3 b6 5f bd d5 96 b5 bd
       0.13259074 0.14423706 -0.054617535 -0.088666596
0001b0 80 1c e4 3d 7f 2c df bd 6e 61 00 3e 74 0d 5b 3d
       0.111382484 -0.10897159 0.12537166 0.053479627
0001c0 76 f3 86 3c 08 a4 b5 bd 91 0e 00 3e 1f f9 d8 3d
       0.016473513 -0.08869177 0.12505557 0.10594391
0001d0 52 c8 f5 3c c7 ba 1a 3e ab 80 91 3d dc 46 a2 3c
       0.030002747 0.15110312 0.071046196 0.019809179
0001e0 8e a1 e9 3c 9b 22 a1 bd 02 c8 05 be 21 da cf 3d
       0.028519418 -0.078679286 -0.13064578 0.10149027
0001f0 92 cc e9 3d 7c 76 0b bd 5e 7a c7 3d ef 0d 56 bd
       0.11415972 -0.034048542 0.097401366 -0.05225938
000200 45 15 3b 3c 12 b2 e5 bd 28 56 24 bc 28 5d aa 3d
       0.011418645 -0.11215605 -0.010030307 0.083185494
000210 82 9e 13 bd 70 6f 42 bd 73 04 8a bc c3 e3 40 3d
       -0.036039837 -0.047469556 -0.016847825 0.04709221
000220 ec 75 9a bb 08 08 1b 3d 46 52 74 3b 4b 6b 51 bd
       -0.0047137644 0.037849456 0.0037280484 -0.051127713
000230 58 54 59 3d 73 36 02 3d f4 e8 95 bc d9 ca 88 bd
       0.053058952 0.031790208 -0.018299557 -0.06679315
000240 0d 01 0f be 7d 33 56 bd 9b dd 80 3d 74 de f6 bc
       -0.13965245 -0.052295197 0.06292268 -0.03013537
000250 0c 87 27 bb 2f a8 03 be 7d ca 87 bd e3 5e a6 3d
       -0.0025562672 -0.12857126 -0.066304184 0.08123567
000260 b4 58 b8 3d 28 6b f2 bc d9 63 a6 bd 21 55 bb bd
       0.09001294 -0.029592112 -0.08124513 -0.091470964
000270 e9 9e e7 bd 7b 5c 7f bd 0a d4 fd bd bb 9f 26 3d
       -0.113096066 -0.062344056 -0.12393959 0.040679675
000280 a7 98 51 3d 10 1c 59 3d 82 3c 25 bb 36 50 0e 3d
       0.05117097 0.053005278 -0.0025213067 0.034744464
000290 75 8b a8 3d 29 5e e8 bd 09 21 9d 3c 6c 22 53 3d
       0.08229724 -0.113460846 0.019180791 0.0515465
0002a0 ab 19 0f be 79 b9 82 3c 22 45 af bd c9 3d 2f 3d
       -0.13974635 0.01595758 -0.08558108 0.042783532
0002b0 d2 14 94 3b 25 30 2f 3b e5 1c 0b 3d 98 1e 5c 3d
       0.0045190835 0.0026731577 0.033963103 0.053740114
0002c0 34 ff 95 bd 8b c8 85 3d 82 57 1c ba 04 d2 48 bc
       -0.07324067 0.06532391 -0.00059639674 -0.012257103
0002d0 ed 3e 98 bd 14 e3 3f bd 84 3d 48 3d 01 21 f9 bd
       -0.07433877 -0.046847418 0.04888679 -0.12164498
0002e0 12 d3 12 3d ae 81 f8 bb 18 b9 fd 3d ab 8a 36 3c
       0.035845824 -0.0075838184 0.123888195 0.011141459
0002f0 42 6b 35 bd af f4 40 bc 44 c6 f3 3c d7 fb 9e bd
       -0.044291742 -0.011777087 0.029757626 -0.077628784
000300 2a a4 21 be 30 2e 8f bd e5 8f e6 3d 07 05 3a 3c
       -0.1578528 -0.069912314 0.112579145 0.011353738
000310 0b 93 f4 3d 39 83 08 be 98 df 36 bd aa 6e 4a bd
       0.11942109 -0.13331307 -0.04464683 -0.049421944
000320 85 b4 9e bd eb 3d 36 bd 9b 37 88 ba 7b 04 ba bc
       -0.07749275 -0.044492643 -0.0010392548 -0.022707215
000330 3a 4b f1 3d 0d 3b 3a bd d5 b5 ce bc 63 1e b2 3d
       0.117819265 -0.04546647 -0.025233189 0.08697202
000340 c6 fb 8f bd 05 b2 09 3d ec ca 51 bd cd 04 14 bd
       -0.07030444 0.03361704 -0.051218912 -0.03613739
000350 32 27 c5 3d b9 ff c6 3c a8 0f 00 bd 0b ea 00 3e
       0.096266165 0.02429186 -0.03126493 0.1258928
000360 9d 75 96 38 77 cf 63 bb 94 cf 1e 3d 28 8e 28 bd
       7.1744646e-05 -0.003476111 0.03877218 -0.041151196
000370 27 57 c3 3d 9a 87 f7 bc ce 75 b5 3d 71 7a f6 3d
       0.09538107 -0.030216027 0.0886036 0.120350726
000380 ef 45 e0 3d 9f 1b 0a bb 48 d0 fd 3c d9 99 3c bc
       0.10950839 -0.0021073592 0.030983105 -0.0115112895
000390 e3 32 d3 3c 82 d4 7e bd 39 3c f3 bd b6 e4 c0 bd
       0.0257811 -0.062214382 -0.11876721 -0.09418623
0003a0 42 04 09 3d 39 a5 61 3d f5 10 96 bd 27 e7 24 3b
       0.033451326 0.05508921 -0.07327453 0.0025162192
0003b0 ed d7 a5 bc bf 4d 59 bd 0e 44 d7 bd d1 df f7 3d
       -0.020244563 -0.05305266 -0.10511027 0.121032365
0003c0 78 97 14 3b dc 5e a1 bd 7e 69 9a bd 4e 5b d9 3d
       0.002267329 -0.07879421 -0.07539652 0.10613118
0003d0 1a 3c 9d 3c a2 5d 02 3e 5d 85 e3 3d 8e be 8d 3c
       0.019193698 0.1273103 0.111094214 0.017302778
0003e0 e2 fb f2 3d 5d 73 ba 3d dd 7b d0 3d 67 39 fa bc
       0.11864449 0.09104035 0.10179875 -0.03054495
0003f0 be 35 a7 bd ba a4 0c 3d 80 fa 97 bd 18 43 05 be
       -0.081645474 0.034336783 -0.07420826 -0.13013875

encoder_fc1.0.bias f4 [64]
000000 ce 11 3e 3d 14 ec 85 bd 66 f5 73 bd 98 6d 91 bd
       0.0464037 -0.06539169 -0.059560202 -0.071009815
000010 e1 ca 59 3d 47 31 66 3d 49 75 6f 3d 63 de b1 3d
       0.053171996 0.05619934 0.05846146 0.08684995
000020 cb 6e e2 3a cb b7 86 bd bb 50 0a 3d 6e cb 44 3d
       0.001727545 -0.065780245 0.033768397 0.04804557
000030 c7 23 27 bd df 3b b6 3d ee 30 d6 3d 03 60 cf 3d
       -0.040805604 0.08898138 0.10458551 0.10125735
000040 ea 13 d2 bd a3 2c 39 3d 67 48 3a bc af 36 08 3e
       -0.102577046 0.045208585 -0.011369801 0.1330211
000050 aa 92 f3 3d e6 1f 8c 3d 49 36 32 3d 34 5b 7f bc
       0.11893208 0.06842022 0.0435088 -0.015585709
000060 50 88 97 bc ed a6 5b 3d f5 26 34 3d b2 d3 c2 3d
       -0.018497616 0.05362599 0.043982465 0.09513034
000070 ec 08 ab 3d f7 0c 7b bd 56 c6 58 bd 87 f4 72 3d
       0.08351311 -0.06129166 -0.052923523 0.05931523
000080 60 e4 c4 bb 83 5c 10 bd a2 1e d8 bd 2e 94 47 3c
       -0.0060086697 -0.035244476 -0.10552718 0.012181325
000090 eb 8f 91 bd c4 76 26 3d 26 bf 2c 3d 4b d7 16 bc
       -0.07107528 0.040640607 0.04217448 -0.009206603
0000a0 c4 b8 a4 3d ea b6 80 3d 1f b7 9f 3d a4 ea f4 bb
       0.08043054 0.06284888 0.077985995 -0.0074742604
0000b0 40 b7 85 bd d4 93 d1 3d c1 7b 28 be cc e2 3d bd
       -0.06529093 0.10233274 -0.16453458 -0.04635887
0000c0 41 3c c3 3d db 92 d6 bd 6e 1a a1 bd 0d 7e bf 3c
       0.09532977 -0.10477229 -0.07866369 0.023375535
0000d0 d3 3e de 3d 88 65 9c 3d 0b 4a 8a bc ab 1a 03 3e
       0.108518265 0.07636553 -0.01688101 0.12803142
0000e0 82 4c d8 3d 8e 4c f0 bc 34 1f 0a 3d 04 fc 37 bd
       0.10561468 -0.02933338 0.033721164 -0.044918075
0000f0 cf 74 87 bd dc fb 5e 3d 8f 87 82 3d a6 70 1d bd
       -0.06614076 0.05443941 0.06373512 -0.038437508

encoder_fc1.2.weight f4 [64, 64]
000000 46 89 ce 3c bd d8 19 3e 5d f7 9e 3a c4 ec 96 bd
       0.025211941 0.15024085 0.0012128163 -0.07369378
000010 a4 8c 0b bd 86 b3 1d be 04 55 a7 bd c1 4f 9f 3d
       -0.034069672 -0.15400514 -0.08170512 0.07778884
000020 4c 76 0b bd 0d 35 28 3e 18 17 49 3b 61 d2 5e 3e
       -0.034048364 0.16426487 0.003068393 0.2175994
000030 3f 2e 81 3d b3 0b d9 bc 65 66 b9 3d 93 15 39 bc
       0.06307649 -0.026494836 0.09052733 -0.011296648
000040 08 26 53 3c 00 5b eb bd 14 f6 da 3d dd 2e 98 3d
       0.012887485 -0.11491966 0.10691467 0.074308135
000050 ad 1f 96 3d 6c fe 21 3d 59 44 db bd a2 18 4c 3e
       0.073302604 0.039549276 -0.10706396 0.19931272
000060 3c 8c 19 3e 33 40 36 bd d9 80 2d bd 4c 54 10 3e
       0.14994901 -0.04449482 -0.042359207 0.14094657
000070 f2 a2 40 3e 14 83 09 be 53 77 d8 bc ca a9 90 3c
       0.18812159 -0.13428909 -0.026424086 0.017659087
000080 d1 92 55 3d e7 8c 38 bd 49 73 ba bb 29 6f 00 3d
       0.05214197 -0.04505625 -0.0056900126 0.03135601
000090 3b ee 49 bd df af 5e bd 9e 1d d2 3d ea 1f 93 3d
       -0.04929946 -0.054366942 0.10259555 0.071838215
0000a0 f9 66 7f 3d 82 4a 75 3e 58 86 df bc 34 05 04 3e
       0.06235406 0.23954204 -0.02728574 0.1289261
0000b0 98 cc 84 bd d0 38 94 3c b7 9d 94 3d 9d 31 11 3e
       -0.06484336 0.018093497 0.07256644 0.14179082
0000c0 b2 80 a1 bc 66 eb fb bd 0a 77 3b 3e 80 2e 62 3e
       -0.019714687 -0.12300758 0.18307129 0.22088051
0000d0 4c d5 17 bd b4 69 c5 3d 35 df 77 3d d3 40 46 3e
       -0.03706865 0.09639302 0.0605156 0.19360666
0000e0 ce cb d7 3d e7 72 51 bd 0a 9f 64 bc 73 df 0b 3e
       0.105369195 -0.05113497 -0.0139539335 0.13659458
0000f0 91 57 3d bd 65 44 1d 3e 6c 08 09 3e e4 f4 7a bc
       -0.046226088 0.15358122 0.13382119 -0.015317176
000100 e1 04 4f bd 74 44 9d bd ec 71 c0 3c b4 92 6a 3d
       -0.050541762 -0.07679072 0.023491822 0.057268813
000110 df 8f 9a 3c 5c e7 a9 bd cd c7 6b 3c b0 53 79 3d
       0.018867431 -0.082960814 0.014390898 0.060870826
000120 12 d5 37 bc 33 7b af 3d ce 33 0e 3e c2 83 da bd
       -0.0112202335 0.0856842 0.1388695 -0.10669662
000130 24 27 bf 3d cf 43 0b be a0 7f 19 3d 5f 27 f6 3c
       0.09333637 -0.13600086 0.03747523 0.03004807
000140 b2 17 cf 3c 88 a5 f8 bd 62 8d dc 3c d9 79 8c bc
       0.025279853 -0.121409476 0.026922885 -0.017147945
000150 ea 3f 9b bc 05 e2 a1 3d 0e 9d 48 bd f0 82 43 bd
       -0.018951375 0.07904438 -0.048977904 -0.047732294
000160 b2 18 a9 3c 86 5d f6 bb b1 bf 08 bc 10 8e 38 bd
       0.020641658 -0.007518473 -0.008346484 -0.045057356
000170 d9 64 c4 3d 71 5e 23 3d e4 00 9c 3d 48 e3 c2 bd
       0.09589548 0.03988499 0.076173574 -0.09516007
000180 dd 23 d7 3d 5c 8f b2 3d ec e4 18 3d bc ac 0e be
       0.10504887 0.0871875 0.037327692 -0.1393308
000190 b8 64 3e bc 5b 33 13 bd c9 87 af 3c 30 7f 60 3d
       -0.011620693 -0.03593765 0.021427052 0.054808795
0001a0 2b a9 c4 bd 27 6c 89 bd c6 01 79 3c 80 f7 02 ba
       -0.09602579 -0.067100815 0.015198177 -0.0004995987
0001b0 04 d6 d2 3d f3 8f 29 be 00 03 89 3d 2c 54 b6 3d
       0.102947265 -0.16558819 0.06690025 0.08902773
0001c0 fb 3c 3a 3e 81 e6 84 bc d5 95 d2 3c 0f dc c6 bd
       0.18187325 -0.016223194 0.025706211 -0.097099416
0001d0 d3 90 0d 3d 89 9a 0b 3d 65 37 23 bd 4c bb cb bd
       0.034561943 0.034082923 -0.03984775 -0.099478334
0001e0 9d 1c bb 3d 10 26 af 3d 4a e5 1e 3c 48 1e ab 3d
       0.09136317 0.08552182 0.009698221 0.08355385
0001f0 d5 50 72 bc 38 66 80 bc da 5e 8d bc 5a 72 f8 3c
       -0.01478978 -0.015673742 -0.017257143 0.030327965
000200 c5 a8 ab bc d4 1d ea bd 6a 8a 32 3d e4 77 9b 3c
       -0.020954499 -0.114314705 0.043589033 0.018978067
000210 32 ec 68 bd 15 dc bf bd aa eb 04 be fc e7 b2 3d
       -0.05686588 -0.09368149 -0.12980524 0.08735654
000220 88 c7 51 3d cf f5 67 3d 34 49 c7 bc 90 ff 20 3d
       0.05121568 0.056630906 -0.024326898 0.039306223
000230 d3 af 5a bd 37 28 d0 bc ac da 2e 3d 2f 33 1f be
       -0.053390335 -0.025409801 0.04268901 -0.15546869
000240 f5 e9 9a bc c4 07 81 3d 23 9a fd bd a1 6d e8 3d
       -0.018910388 0.06300309 -0.12382915 0.11349035
000250 9b bb c3 bd cc b8 60 3c b8 8a e9 3d d9 dc 02 3d
       -0.09557267 0.013715934 0.114034116 0.031948898
000260 f8 0e 0f bb 1a b5 89 3c 19 b7 02 3e f2 3a cf 3c
       -0.002182899 0.016809989 0.12765159 0.025296662
000270 7f 1b c5 bd 31 cb 7b bd c3 50 fb bd 92 8d cb 3b
       -0.09624385 -0.061473075 -0.122712635 0.006211945
000280 f0 9a 88 3d cf 07 3c bd 71 3b ea bc 77 d8 de bd
       0.06670177 -0.045905884 -0.028592797 -0.10881131
000290 43 62 0a bd 80 f1 b1 bd 5f b1 41 bd de 73 ba 3d
       -0.033785116 -0.086886406 -0.047288295 0.09104131
0002a0 20 a5 05 3c a3 1b c0 bd 7a 9d d7 3d fe 30 4a 3d
       0.008157045 -0.09380271 0.10528083 0.04936313
0002b0 5e 1b 83 bd 51 90 1f 3d 4c 19 fc 3d f3 f6 eb bc
       -0.06401704 0.03895599 0.123095125 -0.028804278
0002c0 e5 dc b4 bb 41 af ce bd d5 70 88 3c 0b bd 0c bc
       -0.0055194967 -0.10092021 0.016655365 -0.008589993
0002d0 09 af da bd 89 1d e2 bd 52 6a 1a bd 09 ff 78 3d
       -0.106779166 -0.1104079 -0.03769905 0.060790095
0002e0 4e f2 60 bd 2a 09 e5 3c ca 37 a2 3d 31 fe cc 3d
       -0.05491858 0.027958471 0.07920797 0.10009421
0002f0 09 1d 92 bd 93 65 87 bc 73 a8 86 bd 0b 51 bc bb
       -0.07134444 -0.016527927 -0.06575098 -0.0057469658
000300 97 f6 04 3e af 4c 95 3d ea 4d e1 3d 14 8c 3d 3d
       0.12984692 0.07290017 0.11001189 0.046276167
000310 25 92 c0 3d 3b 66 af bd e0 17 f2 bd 12 7c 96 bd
       0.09402875 -0.08564421 -0.1182096 -0.07347883
000320 35 ce 9b bb 9f 01 20 3e 2f 9b 44 bd be f5 36 3d
       -0.0047548064 0.15625618 -0.047999557 0.04466795
000330 f5 b0 bc 3d d2 81 80 bd b1 8b 21 3e bc bb bf bb
       0.092134394 -0.06274761 0.15775944 -0.005851237
000340 2b 1c 90 3d f4 ed 65 3d a4 78 19 bd 80 67 c0 3d
       0.070366226 0.056135133 -0.037468567 0.09394741
000350 d7 37 42 3e 90 2d af bd ae 39 6d bd c6 7d d7 3d
       0.18966614 -0.08553612 -0.057916336 0.10522036
000360 e4 68 bd 3d 23 c1 06 3d 9b 53 39 3d 09 bb 17 3e
       0.09248522 0.032899033 0.045245748 0.14817442
000370 07 26 ee 3d e9 34 ed ba 91 36 a3 bc 79 fb 90 bd
       0.11628347 -0.0018097433 -0.01992348 -0.070792146
000380 a6 de 9a bd 09 64 9b 3d 18 db fb 3c 9d 35 94 bd
       -0.07561998 0.075874396 0.03074412 -0.072367884
000390 98 54 e1 38 99 50 64 bd ba 79 12 3e cb ac 2f bd
       0.00010744593 -0.055740926 0.14304247 -0.042889398
0003a0 27 43 88 3d b2 3f 0e 3e 52 81 bc 3c 85 6b 41 3d
       0.06653433 0.13891485 0.023010883 0.04722168
0003b0 c4 bc 34 3d 6e 70 67 3c 53 5d 40 3b 16 27 3d 3d
       0.044125333 0.014125926 0.00293525 0.046179853
0003c0 d5 78 00 3d 52 cf b4 bd ce d2 87 bd 4b 35 2c 3e
       0.031365234 -0.08828606 -0.06632005 0.16817205
0003d0 26 75 9b bd ac e2 d2 bc 3e 30 82 bc 9e e0 25 3e
       -0.07590704 -0.025742851 -0.015892144 0.16198966
0003e0 c7 20 09 3d 90 a8 c5 bd ca c6 9f bd f8 81 d4 3c
       0.033478525 -0.09651291 -0.07801588 0.02594088
0003f0 02 9f 65 3d 70 35 e7 3d 38 16 90 3b c5 9d ef bc
       0.056059845 0.11289489 0.00439718 -0.029250035
