best_audnet.pt (torch, 134913 bytes, 12 tensors)

encoder_conv.0.weight f4 [32, 29, 3]
000000 42 37 86 bd 94 ec 24 3c 96 5b af 3d 93 72 3f bd
       -0.06553508 0.01006617 0.085623905 -0.046740126
000010 bf 0c 86 3c 6f 8e c8 3d 96 64 6d bd 5a dd ca bc
       0.0163635 0.09792792 -0.057957254 -0.024763752
000020 f5 a3 0d 3d b1 4e 91 bd fd a2 72 bd a3 63 fc bb
       0.03458019 -0.07095087 -0.05923747 -0.0077023073
000030 a8 53 13 bd 13 59 09 3d 88 09 00 bd 03 c7 ac ba
       -0.035968453 0.033532213 -0.03125909 -0.0013181869
000040 a2 67 51 bc 6c a0 8a bd 2b 80 83 3d 32 ee ea 3d
       -0.012781056 -0.06768879 0.064209305 0.114712134
000050 e8 f1 88 3c 6d 46 66 bc 3e 2c de 3d c1 65 ad 3c
       0.016716912 -0.014054877 0.10848282 0.021166684
000060 ba ac 80 3d e4 88 1e 3d 37 07 61 3d 7c 4f ac bd
       0.06282945 0.038704768 0.05493852 -0.08413598
000070 f8 42 a7 3d eb 9b 34 3d a7 de a0 bb b0 61 fc bc
       0.0816707 0.044094007 -0.0049093547 -0.0308083
000080 7e ba 15 3d cd de ab bd 58 b9 33 3d 41 65 36 3d
       0.036554806 -0.08392105 0.04387793 0.044530157
000090 73 86 01 bd cb 7e 14 3c b2 87 91 bd a1 92 61 3d
       -0.03162236 0.009063433 -0.0710596 0.055071477
0000a0 78 34 22 bd 23 29 a8 3d 5c e0 3b 3d ca a5 0f 3d
       -0.03960082 0.08210971 0.045868263 0.03507022
0000b0 dc b9 9b 3d 81 5e 4c bd e3 fc c9 3c 5b 09 2f bc
       0.07603809 -0.049894813 0.024656719 -0.010683383
0000c0 15 44 92 bd 7f 2e 6c bd cb 21 59 bd d3 8f 89 bc
       -0.07141892 -0.05766153 -0.053010743 -0.016792214
0000d0 06 78 63 3d b6 56 cf 3d 1b 1e 59 3d 72 d2 62 3d
       0.055534385 0.10123961 0.053007226 0.055376478
0000e0 dd 21 7d bb 3d 57 ad 3d 48 95 c1 3d 38 18 cd bb
       -0.003862492 0.08463905 0.09452301 -0.0062589906
0000f0 9e 74 ce 3d 35 ce 9f bd c7 87 b6 3d 84 69 8a 3c
       0.10080837 -0.07803003 0.08912616 0.016896017
000100 5b 34 e5 3d b9 81 86 bd 6f a4 69 3d b7 86 ec bc
       0.11191627 -0.065677114 0.05704158 -0.02887283
000110 89 8b d6 3d f5 ab 4e 3d 84 7f 20 bd bc c3 b3 bd
       0.10475833 0.05045696 -0.03918411 -0.08777568
000120 cf c0 72 bd 18 d5 96 bc 51 a4 de 3d 8b b7 b0 bd
       -0.059265908 -0.018412158 0.108711846 -0.08628758
000130 40 fa e2 3d 63 67 b8 3c 99 db 0a bc b0 4e d1 3c
       0.11082888 0.022510236 -0.008475208 0.025550216
000140 33 9e c2 bc 77 84 b6 3d c4 0d 8f bd a7 98 57 bd
       -0.023757076 0.089119844 -0.069850475 -0.052635815
000150 e7 db da 3d 19 64 3f bd 8f 95 6d 3c 6c 91 8f 3d
       0.10686474 -0.04672632 0.01450099 0.07010159
000160 64 70 1a 3d 24 fa 81 3c c6 6a b2 3d 9b 23 69 bd
       0.03770484 0.015866347 0.08711772 -0.05691872
000170 d5 b9 c1 bd c0 d0 cc 3d 73 47 a6 bc ea 76 ce 3d
       -0.09459273 0.100007534 -0.020297742 0.10081275
000180 7e 6a 62 bc f3 68 bb bd f3 02 14 bd d2 35 f0 bc
       -0.013819335 -0.09150877 -0.036135625 -0.029322539
000190 43 bb c8 3d db e4 35 3d 77 6a 94 bc be 45 63 bd
       0.09801342 0.044407707 -0.018117173 -0.055486433
0001a0 fe cf fa bb f9 13 25 bd 3d 14 a9 bd c8 3e a5 bd
       -0.007654189 -0.04030225 -0.08255813 -0.08068615
0001b0 b9 73 73 3d c4 00 8a 3d 41 45 e2 bc 94 42 b0 bd
       0.059436534 0.06738427 -0.027620913 -0.08606449
0001c0 89 6a 99 bc a2 bc c0 bc 84 07 81 3d 4c 24 eb bd
       -0.018727558 -0.023527447 0.063002616 -0.114815325
0001d0 52 d9 bd bd 7b 36 29 3d d9 8e cd bc 07 15 db 3d
       -0.09269966 0.041311722 -0.02509253 0.1069737
0001e0 52 84 78 3d 73 54 dc bd 20 28 7f bd 45 f0 73 3d
       0.060673065 -0.10758295 -0.062294126 0.05955531
0001f0 fb ab 0f 3d 1a 2d fa bb 52 2c dd bb 5e a5 2c 3d
       0.035076123 -0.007634771 -0.006749668 0.042149894
000200 28 17 cc bd ad 27 b1 bd 6c e8 9f bd d4 68 d5 3d
       -0.09965354 -0.08650146 -0.07808003 0.10420385
000210 8a 9c 9e bd b1 7d 8d bc a4 52 44 bd 57 0e 01 3d
       -0.07744701 -0.017271848 -0.047930375 0.031507816
000220 90 0c dd 3d 16 38 a3 3d b3 13 8f bd a6 cf 77 bd
       0.10793412 0.07969682 -0.06986179 -0.060500763
000230 5f 67 d8 3d 4e b8 a3 bd a1 ce 8b bd df 09 44 3d
       0.105665915 -0.07994138 -0.06826521 0.047860976
000240 c5 31 9b 3d c2 a6 c9 3d 04 10 2e 3d af 0e da 3d
       0.07577852 0.0984626 0.042495742 0.10647332
000250 72 da 33 bc 4f ef a9 bc 5f a1 cd 3d 8d 7b 83 bb
       -0.010977374 -0.020743994 0.10040545 -0.004012531
000260 e7 04 ce bd 20 bb 34 bd 8f f9 74 bc 84 16 9f 3d
       -0.10059529 -0.04412377 -0.0149520775 0.077679664
000270 4a b2 89 3d 57 2e 6d 3c 13 00 ba bd 40 ba 90 bc
       0.06723459 0.01447638 -0.090820454 -0.017666936
000280 1b cc 9b 3d 7f 0a 27 bd a4 6f b1 bd 1c 22 44 3d
       0.076072894 -0.040781494 -0.08663872 0.04788409
000290 3c bb 3d bd e6 d4 22 3c e6 c8 91 3c 7a c7 9c 3c
       -0.04632114 0.009938454 0.017795991 0.019138087
0002a0 60 f6 da 3d 92 4f 01 3d 4a 9d 88 bd f1 8f bb 3d
       0.106915236 0.031570025 -0.066706255 0.09158314
0002b0 a2 ae 9b 3d 4a 68 05 bd 65 28 ba 3d 8c 90 88 3d
       0.07601668 -0.03257016 0.09089736 0.06668195
0002c0 21 4f 91 3d e6 d0 7b 3c 3e 5f 76 3d 3b 6c b8 bd
       0.07095171 0.0153696295 0.060149424 -0.09005018
0002d0 35 02 c3 3d 9d 1a 82 bd c1 d9 09 3c 0b 4d 8f 3d
       0.09521905 -0.06352732 0.008413733 0.06997117
0002e0 53 e8 8a bd a1 34 e4 bc 46 3d 4d bd 70 b3 88 3d
       -0.067825936 -0.027857127 -0.050107263 0.0667485
0002f0 b1 0c a0 bd b9 74 6e 3d 4c 36 8c bd e1 d2 8b 3d
       -0.07814921 0.058216784 -0.06846294 0.06827331
000300 10 c7 ec bc 5b 5f a5 3c d8 8e 47 bc a2 e1 e2 3d
       -0.028903514 0.02018707 -0.012180053 0.11078192
000310 1c b9 a0 3d 04 1c 69 bd 96 f1 cb bd bf a4 96 3d
       0.07847807 -0.056911483 -0.09958188 0.073556416
000320 af d2 3b bd 87 29 a0 3d 65 b0 d6 bd d1 3d 0e 3d
       -0.04585522 0.07820421 -0.10482863 0.03472692
000330 0b dc cb bd 5c 44 67 bd 0a 49 58 bc a0 7c 9d 3d
       -0.09954079 -0.056461677 -0.013201008 0.07689786
000340 4d 0b 05 3c 51 d3 a7 bd 63 5e 1b 3d c9 fc ae bd
       0.00812037 -0.08194602 0.03793181 -0.08544309
000350 e7 4f 73 bc 26 46 1c 3c 05 81 c9 bd 25 30 a4 3d
       -0.014850593 0.009538209 -0.09839062 0.08016995
000360 4c 78 af bd 45 ae ae 3d d3 e1 9b 3c 58 c8 ec bb
       -0.08567867 0.08529333 0.01902858 -0.0072260313
000370 b2 ea ca bd af 16 34 3d 4b d9 b1 bd f8 8e da bd
       -0.09908046 0.043966945 -0.086840235 -0.106718004
000380 f5 e3 54 bc bf fe bc bd 70 6f 02 3d 71 1f 19 3c
       -0.012993802 -0.092282765 0.031844556 0.009345875
000390 4c ca 75 3d a6 bb bd 3b 7a 7e 93 bd 07 0c 8f bd
       0.06000738 0.0057901917 -0.07201858 -0.06984716
0003a0 9b d9 85 3d 14 5a 18 bb e7 b4 b5 bd a5 39 a4 bc
       0.065356456 -0.002324705 -0.08872395 -0.020047018
0003b0 f4 bc 8a bc 98 02 bc bc b0 c9 f4 bc a8 c3 dd bd
       -0.016935803 -0.022950456 -0.029881328 -0.10828334
0003c0 e4 ba d7 3c a4 58 f5 bd da 50 48 3d 2f 40 ae 3d
       0.026334234 -0.119797975 0.04890523 0.08508336
0003d0 cf fd a7 bd 96 4c 7f bd 40 18 54 bc 46 23 2f 3d
       -0.08202707 -0.062328897 -0.012945235 0.04275825
0003e0 47 64 e1 bd 42 ac 10 3d 78 f7 18 bd 48 52 36 3c
       -0.110054545 0.035320528 -0.03734538 0.011128016
0003f0 25 8d 5b 3b 2f ad 3d 3d 2e ce 92 bd 55 c0 23 3d
       0.0033500877 0.04630774 -0.07168232 0.039978344

encoder_conv.0.bias f4 [32]
000000 7f ef d6 3d fc 34 a1 bb 4f 77 0a 3d 31 3e cb 3d
       0.10494899 -0.0049196463 0.033805188 0.099239714
000010 96 9c 9a bd 46 7a 9d bd 64 6c 20 3d 67 b8 9b b8
       -0.07549398 -0.076893374 0.03916587 -7.4253236e-05
000020 b1 53 7b 3d 6f 57 13 b8 11 4c 30 3c 6d a6 51 3d
       0.06135911 -3.512896e-05 0.010760323 0.051184107
000030 5b 03 50 3d 3e 24 ea bb 23 20 db 3c 48 19 2c 38
       0.05078445 -0.0071454337 0.026748722 4.103154e-05
000040 55 2e df 36 23 ca 3f bd 1e 68 53 3d 0b 0e 17 bd
       6.6513117e-06 -0.046823632 0.051612966 -0.036878627
000050 71 b2 6e bd 25 be b2 bd 93 ce 1f 3d 9b 6d 30 bc
       -0.058275644 -0.087276734 0.039015364 -0.0107683195
000060 65 a3 56 bb e2 3a a7 3d 39 a9 99 3d 5f 1c b2 3d
       -0.00327512 0.08165528 0.0750298 0.086968176
000070 e7 57 94 bc f9 69 e4 bc ee 20 5f 3b 14 5e 22 bd
       -0.018108321 -0.027882563 0.0034046727 -0.0396405

encoder_conv.2.weight f4 [32, 32, 3]
000000 8e 6b 48 bd 10 c4 93 bd ca 17 b0 bc 73 b1 de 3c
       -0.048930697 -0.0721513 -0.021495719 0.027184224
000010 2b 3d a4 bb e3 48 3f 3d 2f 69 74 3d 4d 84 9f bd
       -0.0050121746 0.04670037 0.059670623 -0.07788906
000020 ce c5 a0 3d d5 d5 c0 bd bd 7d ba 3c d0 1b b3 3d
       0.07850228 -0.09415785 0.022765035 0.08745539
000030 5c df a2 3d 33 f8 46 3d 88 53 ab bd a7 d2 d7 3d
       0.07952759 0.048576545 -0.08365542 0.105382256
000040 56 0e bd 3d 41 d9 b3 bd e8 ba 24 3d 16 e5 12 3d
       0.0923125 -0.08781672 0.04021731 0.035863005
000050 ae e6 63 3b ae 1d 05 3d c3 10 5b bd e3 65 bb bd
       0.0034774947 0.032499008 -0.053482782 -0.09150293
000060 fe 9d 33 3d bd eb b2 3d 36 7f 81 3d 8d cc 85 3c
       0.043851845 0.0873637 0.06323092 0.016332889
000070 36 3f 65 bd 18 ac d0 bd 2b cb f3 bb 1e e4 86 bd
       -0.055968486 -0.10189074 -0.007439991 -0.06586479
000080 15 7f de bd 07 fe 68 bd d3 dc b4 3d 6a e1 8c bd
       -0.10864083 -0.056882884 0.088311814 -0.06878932
000090 be be 80 3d c6 66 ce bd 62 78 16 bc de 67 33 3d
       0.06286381 -0.10078196 -0.009183975 0.043800227
0000a0 0c 9b 29 3d c3 ac 92 3d 8f e7 6d bc 37 f9 19 3d
       0.04140763 0.07161858 -0.01452054 0.037591185
0000b0 29 af bb bd 52 73 c2 bd 26 6f 21 3d a2 8b b3 3d
       -0.091642685 -0.09494652 0.03941264 0.08766867
0000c0 80 a7 3d bd d1 7b 11 3c 07 46 65 3d 27 f8 18 3d
       -0.04630232 0.008879618 0.055974986 0.03734603
0000d0 bd cb b4 bd 22 5e aa 3c 35 0d df 3c 2c 8c b2 3d
       -0.088279225 0.02079684 0.027227977 0.08718142
0000e0 cb 63 8e 3d c6 92 21 3d 1a 63 9a bc 43 14 fa 3c
       0.06952628 0.039446615 -0.018846083 0.03052724
0000f0 08 1a b0 3a bb 70 86 bd ca e2 78 3c bd 82 b7 3d
       0.0013435492 -0.065644704 0.0151907895 0.08960483
000100 1b 72 78 3d 1f ce c3 bd 5a a6 8d bd 89 8d ac bd
       0.060655694 -0.09560799 -0.06916495 -0.08425433
000110 a9 ee a8 bd 99 21 86 3b be c8 47 bd 4b ab 14 3c
       -0.08248646 0.0040933606 -0.048775427 0.009074043
000120 08 c9 36 bd 55 1e 80 bd 87 64 9f 3d df 45 aa bd
       -0.044625312 -0.062557854 0.07782846 -0.08314108
000130 82 3d e2 3c fb f3 c8 bd 45 d1 76 3d 8c 13 70 bd
       0.02761722 -0.098121606 0.06025817 -0.05861239
000140 0e eb ae bd 3b 43 89 bd 34 d6 bd 3c bf 3d c5 3d
       -0.08540927 -0.06702276 0.02317343 0.09630918
000150 25 e2 9d 3d aa 1a 7d bd 1d 1a ac 3c 2c 01 63 3d
       0.07709149 -0.061793007 0.021008546 0.05542104
000160 5f 54 b2 bd 1d 97 91 bd fb 27 99 3d 90 34 ee 3c
       -0.08707499 -0.07108901 0.07478329 0.029077798
000170 95 ee 09 3c 7f b9 af bd b1 4f 0f bd 00 ac 69 bd
       0.008418699 -0.085803024 -0.03498811 -0.057048798
000180 b5 f4 77 3d 68 86 57 3d fc 1c 50 bd a7 45 eb 3d
       0.060536105 0.052618414 -0.05080889 0.114878945
000190 45 57 81 bc 8c c8 bc bc 51 24 75 3d 3e be d1 3d
       -0.015788684 -0.023044847 0.059849087 0.10241364
0001a0 42 87 17 3d f3 ce 7e bd 99 4a 07 bd 9c 88 d2 bd
       0.036994226 -0.06220908 -0.033030126 -0.102799624
0001b0 95 cd 7b bd 61 a3 9a 3d 8a c0 78 3c 90 11 0c 3d
       -0.061475355 0.07550693 0.015182624 0.034196436
0001c0 2d 4f 9b bd 99 1f 3a bc bc 72 30 3d 2f 97 fa 3c
       -0.07583461 -0.0113600725 0.04307817 0.030589668
0001d0 4b 30 a2 3d 95 d9 27 3d fa aa 85 bd d8 2b 8c bd
       0.079193674 0.040978987 -0.06526752 -0.068443
0001e0 c7 0e 98 bd 0f d3 37 3b 00 a9 1b 3d b5 76 93 3d
       -0.074246936 0.0028049385 0.038002968 0.07200376
0001f0 29 8d 98 3d e0 f1 4f bc 21 e5 f5 bd 8e f9 85 bc
       0.07448799 -0.012691945 -0.120065935 -0.016354349
000200 9d f8 ce bd 29 ed db bc 76 06 a6 3c 8b 5c 8b 3c
       -0.10106013 -0.026846485 0.020266753 0.017011901
000210 5f 82 97 3b 80 8a a3 3d 61 b3 3f bd f9 2d 3d 3d
       0.0046236957 0.07985401 -0.04680193 0.04618642
000220 a4 0c 21 3d 34 02 5c bd a5 c9 00 bb d0 68 41 3c
       0.039318696 -0.05371304 -0.001965144 0.011804774
000230 9e 9d d8 3c 53 37 0e 3d 70 e2 32 bd 16 74 26 3d
       0.026442345 0.03472073 -0.04367298 0.040638052
000240 7f 7f ba 3d ee 36 cd 3d 2e 41 91 bc 77 4b 11 bd
       0.09106349 0.10020243 -0.017731275 -0.03547236
000250 15 5f 50 bd 4c 80 c3 3d cd b3 d7 bb 64 c5 14 3d
       -0.050871927 0.09545955 -0.006582713 0.03632106
000260 da 28 83 3d 08 02 3e bd 22 04 fa bc f5 fa 5e bc
       0.06404276 -0.046388656 -0.030519549 -0.0136096375
000270 b6 b8 e8 3c a9 da 7d 3d 1a 1c 2a 3d a2 0d 8d bd
       0.02840839 0.06197611 0.041530706 -0.06887366
000280 42 d2 42 3d d1 0a a0 3d 32 3a cd 3d 6b b2 37 3d
       0.0475638 0.07814563 0.100208655 0.044847887
000290 04 d5 2a bc 4f 4b 27 bd ee 7d 33 3d 6c ea a4 bc
       -0.010426763 -0.040843304 0.043821268 -0.020131312
0002a0 99 da 8c bd 46 15 8c bc 11 cc 6a 3d 3b f3 1b bd
       -0.06877632 -0.017099988 0.05732352 -0.03807376
0002b0 70 f1 e3 3d aa c4 5f 3c fb 17 ca 3d c2 bc 1e 3d
       0.11130035 0.013657728 0.09867855 0.038754232
0002c0 12 c8 bb bc a4 15 09 bd 65 b1 19 3d 35 4e 5f 3d
       -0.02292255 -0.033467904 0.037522692 0.054517943
0002d0 b5 19 b7 bd 0c 3d c9 3d 53 40 e3 3d 0e 25 89 bd
       -0.0894045 0.09826097 0.11096253 -0.06696521
0002e0 8e 51 31 3d 28 d4 5f 3d ea 2a 33 3d a0 ea 6b 3d
       0.043290667 0.054645687 0.043742098 0.057596803
0002f0 de ee 47 3c d1 f2 aa 3d 75 d2 20 ba 62 c5 e2 3c
       0.0122029465 0.08347095 -0.0006134876 0.02768201
000300 f8 9c 04 bd 44 e2 10 bc 77 47 3a 3d 61 34 5d 3d
       -0.03237626 -0.008843008 0.04547831 0.05400503
000310 98 ba 59 bd 95 20 d1 3c e3 dc 9e bd 68 a5 84 3d
       -0.053156465 0.025528232 -0.077569745 0.06476861
000320 63 26 ee 3c e6 9d 92 bd 27 2a ba bd 0d 6d bf bc
       0.029071039 -0.07159023 -0.09090071 -0.02336743
000330 03 d0 b6 bd 9e c6 f7 bc 0d 48 f5 bb 17 e5 ad 3c
       -0.08926394 -0.030246075 -0.0074853958 0.021227403
000340 0f 7f 5d 3d ad 28 3d 3d f9 c9 cd bd f6 e2 05 3d
       0.05407625 0.04618137 -0.10048289 0.03268715
000350 25 4f 53 bd 82 d2 4d bd b6 89 61 bd 73 e3 6e 3d
       -0.05158915 -0.050249584 -0.055062972 0.05832238
000360 ec 12 71 3c 76 c2 30 3d bd 01 15 bd 50 f9 d8 bd
       0.014713984 0.043154202 -0.03637861 -0.105944276
000370 11 5e c9 bd bd 16 9c bd 2a 4f 6b 3d 38 21 11 3d
       -0.09832395 -0.076215245 0.057448544 0.03543207
000380 18 03 86 3c 82 eb 91 bd 97 c4 61 3d 35 a2 2d 3b
       0.016358897 -0.07124998 0.055119123 0.0026494388
000390 4a 1c af bd 43 e7 21 3d 8b 06 a6 3d e1 f6 80 bd
       -0.085503176 0.03952719 0.08106717 -0.062970884
0003a0 97 0d ed bc 69 51 9d 3b 5b 85 32 bd 34 a1 0b bd
       -0.028937144 0.0048009646 -0.04358421 -0.034089282
0003b0 03 c2 a0 bd 04 69 53 3b f1 a1 7f bc e8 c9 30 bd
       -0.07849505 0.003225864 -0.015602575 -0.043161303
0003c0 bd 84 d0 bb 55 48 f0 bc 22 43 86 3d 7f 82 d7 bd
       -0.00636348 -0.029331366 0.06555773 -0.10522937
0003d0 e1 bf 00 bd 04 8d 87 bc 4a c8 86 bd 56 1b c1 3c
       -0.03143299 -0.016546734 -0.06581171 0.023572605
0003e0 19 80 57 3c 71 03 80 3d a6 8a 28 bd 99 b0 95 3b
       0.013153099 0.062506564 -0.04114785 0.004568171
0003f0 33 91 d3 3c f2 fb 53 3d bd 5d ed 3c 62 12 44 bd
       0.025826072 0.051753946 0.028975362 -0.047869094

encoder_conv.2.bias f4 [32]
000000 81 35 c3 bd c0 05 35 3d 87 1d 14 3d 04 24 9a 3d
       -0.095316894 0.044194937 0.036160972 0.07526401
000010 10 b9 0c 3d 9d 3b 3f bd 8e d0 98 bd 0f a6 43 3d
       0.034356177 -0.04668771 -0.07461654 0.047765788
000020 fa f5 c9 bc 59 71 aa 3d 68 06 aa 3d 60 39 c7 bc
       -0.024653424 0.083224006 0.08302003 -0.02431935
000030 4a a5 34 bd e7 25 a3 bd 3b 3e b8 3b f2 00 69 bd
       -0.044102944 -0.07966214 0.005622653 -0.056885667
000040 5c c0 80 bd 84 52 f1 bc 01 17 62 bd b7 4a 4d 3d
       -0.0628669 -0.029458292 -0.05519772 0.05012008
000050 e2 da 16 bd f7 c6 a8 bd 5e 8e ba bd 4d c4 77 3d
       -0.036829837 -0.082410745 -0.09109186 0.06048994
000060 b0 be c1 bd 5e 53 87 3d c4 ad 65 3c bf 4c 63 3d
       -0.09460199 0.06607698 0.01401848 0.055493113
000070 b2 8e 94 3d e4 3d d7 3b e3 d8 96 bd aa a6 0b b8
       0.072537795 0.0065686572 -0.073655866 -3.32954e-05

encoder_conv.4.weight f4 [64, 32, 3]
000000 75 aa ba 3c 80 7f 53 3d e6 98 00 bd 2d 3d a6 bd
       0.022786358 0.051635265 -0.031395815 -0.08117137
000010 d7 91 7f bd 66 6c 4d bd b8 49 a6 bd a3 1f 56 bd
       -0.062394943 -0.050152205 -0.081195295 -0.052276265
000020 a0 28 57 bc 63 f8 b4 bc 32 ae a2 3d dd 24 8f bc
       -0.013132244 -0.022091096 0.07943381 -0.017473632
000030 9d 75 f8 ba a0 7a 88 bd 3a 16 92 3d f9 bd 4f bd
       -0.001895595 -0.06664014 0.07133146 -0.05071828
000040 75 da 6f 3d f4 d9 ab 3d e0 ad 13 3d 94 0c 94 3d
       0.058557946 0.08391181 0.036054492 0.072289616
000050 63 50 92 3d b8 bc 0e 3d d9 aa a6 3d cd 9c 11 3d
       0.07144239 0.034847945 0.08138055 0.035549928
000060 4b 07 c9 bc e6 c7 25 3b 37 dc c1 bc 9a f7 bc 3d
       -0.02453961 0.002529615 -0.023664577 0.09226914
000070 44 67 91 bc 18 a8 c4 bd 69 ad 1a bd 55 e3 0e bd
       -0.017749436 -0.09602374 -0.037763033 -0.03488477
000080 13 64 e8 bc 41 a9 dd 3c dc 52 e1 bc 4f 3b 85 3d
       -0.028368032 0.027058246 -0.02750533 0.06505453
000090 d3 5a 33 bd cd c2 4a bd 4a 59 d0 3c e1 d4 88 3b
       -0.04378779 -0.049502183 0.025433201 0.004175768
0000a0 a1 ed ae bc 36 6f 80 3c 35 a8 8f 3d 3f ae 98 3c
       -0.021353545 0.01567803 0.07014505 0.018637775
0000b0 3f 86 1a bd 3e c8 20 bd e2 ee 8a 3d dc 98 92 bd
       -0.037725683 -0.039253466 0.067838445 -0.07158062
0000c0 1c 5c 49 39 41 fe 9f 3c 7c f3 eb bc 77 f1 ba 3c
       0.00019203167 0.019530417 -0.028802626 0.022820218
0000d0 37 6f 41 bc 05 3d 2c 3c 3a e6 a0 3c 7d dc d2 3c
       -0.011806301 0.010512595 0.01964103 0.025739903
0000e0 44 60 ab 3d d3 a6 bf 3d 01 ee 6f 3c a3 49 30 3d
       0.083679706 0.09357991 0.014644147 0.043038975
0000f0 8d 75 33 3d 7f a2 a9 bc 9f d4 79 3d 82 88 b1 bc
       0.043813277 -0.020707367 0.060993787 -0.021671537
000100 52 bd 2a 3d 5f 70 a6 3c 7e 63 c2 bd 1f c7 cb bc
       0.041684456 0.020317255 -0.09491633 -0.024875222
000110 35 51 a0 3d a0 7c 6f bb 30 8d 05 bd 95 8f d7 3a
       0.07827989 -0.0036542788 -0.03260535 0.0016445989
000120 48 b1 40 bb 57 86 3b 3d 4e d3 7e 3d b0 68 a4 bd
       -0.0029402543 0.045782413 0.062213235 -0.0802778
000130 e7 45 2e 3d 33 da 63 3d df 3c 5c 3d ea 67 18 bd
       0.042547133 0.055628013 0.05376899 -0.037208475
000140 e8 7c ba bb 1a 31 ce bd 63 64 18 bd 44 2a 3b bd
       -0.0056911595 -0.10067959 -0.03720511 -0.045694605
000150 73 e6 80 3c e8 2b 76 3d d9 b1 08 3b a6 81 b0 3c
       0.015734887 0.060100466 0.0020857959 0.021546196
000160 36 09 c3 3d b5 62 10 3d 53 24 8b bd df 63 8d 3d
       0.09523241 0.035250384 -0.06794038 0.069038145
000170 f3 34 07 bd 80 dd 94 3d 6e 62 eb 3d 1c f7 e0 3d
       -0.03300948 0.0726881 0.11493383 0.109846324
000180 19 1a 56 3d 25 54 70 bd 20 46 57 bd a1 7e 4d 3c
       0.052270982 -0.058673996 -0.05255711 0.012542398
000190 55 33 71 3d 40 b2 54 3d ee aa a5 38 49 19 e5 3d
       0.058886845 0.051927805 7.899651e-05 0.111864634
0001a0 65 0d b9 bd 5e 60 04 3c 72 40 53 3c 21 65 5f 3d
       -0.09035758 0.008079616 0.012893783 0.054539803
0001b0 6b aa e9 3c 51 51 c0 bd 91 cd ba bd e4 1d 13 3d
       0.028523644 -0.0939051 -0.0912124 0.035917178
0001c0 cf 6b a5 bd d1 f5 86 bd ce 6a 85 bd 5e e8 72 bd
       -0.080772035 -0.065898545 -0.06514512 -0.059303634
0001d0 b2 e7 86 3d cf 05 42 3d 3c 7c 9d bc 1e 70 90 3d
       0.06587161 0.04736882 -0.019224279 0.07052635
0001e0 a7 4a 85 bc a4 5e 53 3d 00 8b 46 bd 03 b1 3d 3d
       -0.016270949 0.05160393 -0.048472404 0.04631139
0001f0 9d a3 62 3d 2c 45 39 bc 7e 18 50 3c ec 19 2a bd
       0.055331815 -0.011307996 0.012701152 -0.041528627
000200 03 2b 2c 3c a7 4e 29 bd a7 46 4f 3d 25 84 4d bc
       0.010508302 -0.041334774 0.05060449 -0.012543713
000210 6a fd 7d 3d 4d 33 3c bb 4e 49 07 bd 57 13 9f bb
       0.062009253 -0.00287171 -0.033028893 -0.0048546004
000220 34 98 88 3d 45 4d 06 bc 4d 6b 9b bd 3b d1 69 bd
       0.066696554 -0.008197133 -0.075888254 -0.057084303
000230 46 f7 58 3c 94 cf af 3d 22 56 c4 3d d6 46 f2 bc
       0.013242548 0.08584514 0.09586741 -0.029574793
000240 98 fd 2d bc c6 13 60 3d 52 0e a4 bd ab 62 99 3d
       -0.0106195435 0.054706357 -0.08010544 0.074895225
000250 19 52 31 3d 23 34 bf bc 36 73 fe bc c0 55 d0 bd
       0.043291185 -0.02334029 -0.031060796 -0.101726055
000260 5e 17 88 3d ef be 58 bd 0d 2d 83 bd 94 ef 03 3d
       0.06645082 -0.052916463 -0.06405077 0.0322109
000270 69 fd 19 bd c9 1e 6f bb 41 db 77 bd c2 6a bc bb
       -0.037595186 -0.0036486855 -0.06051183 -0.005750031
000280 43 53 f6 3b 4d 20 7f 3d 02 ac 81 3d e2 11 3a 3d
       0.00751725 0.062286664 0.06331636 0.04542721
000290 00 27 b0 3d 24 ef 90 bd 64 ee 88 3d 49 04 0f bd
       0.08601189 -0.070768625 0.066860944 -0.034916196
0002a0 d1 43 8d bd e4 bf 2f bd 91 45 75 bd 7c 85 81 3d
       -0.068977006 -0.04290761 -0.059880797 0.06324288
0002b0 dc e4 9b bd 29 72 c3 bb 84 72 ae 3d 4a 71 b9 bb
       -0.07612011 -0.0059645367 0.08517936 -0.005659257
0002c0 27 07 4d 3c f7 53 2b bd fa 47 ed 3b b9 db 48 3c
       0.012513912 -0.041828122 0.0072412463 0.012259417
0002d0 64 71 ae bd 75 97 90 3d 81 1b 72 3d 88 c1 c9 bc
       -0.08517721 0.07060138 0.05910826 -0.024628416
0002e0 d4 9c 48 bd b9 5a bf 3b 7c 4a a1 3d 28 e7 80 3d
       -0.048977688 0.0058396724 0.07875535 0.062940896
0002f0 53 2a 3a 3d 39 4e 64 bd 11 70 da bd 8b 63 bd 3d
       0.04545052 -0.05573866 -0.10665906 0.09247502
000300 95 8a b5 3d f6 1e 27 bd b9 50 5d 3d 53 79 1b bd
       0.08864323 -0.04080101 0.05403206 -0.0379575
000310 7d 32 9d 3c 2b f4 cd 3d 1b 82 f2 3c 48 09 ac bd
       0.019189114 0.10056337 0.029603055 -0.08400208
000320 36 30 49 bd a1 94 8b 3d 97 26 7b bd 33 aa 8b 3d
       -0.049118243 0.06815458 -0.0613161 0.06819572
000330 67 14 ac 3d d0 40 8b bd bd d7 c0 3d 68 0a 92 bd
       0.08402329 -0.067994714 0.09416149 -0.07130891
000340 cb 3f 51 bd 94 d6 07 bd 7f fb db 3a e7 05 dd 3c
       -0.05108623 -0.033163622 0.0016783326 0.026980354
000350 d0 b0 6d bc 62 65 e8 bb ab dd 55 bd 28 0b 78 3d
       -0.014507487 -0.007092164 -0.052213352 0.060557514
000360 86 1e 27 bd 37 ee 99 bd 60 49 ff 3c 30 48 40 bd
       -0.040800594 -0.07516139 0.031162918 -0.046943843
000370 bb 3e b6 bd 06 fd 9d bd ce b1 02 3c 28 75 19 3d
       -0.08898684 -0.07714276 0.007976962 0.037465245
000380 df bf c1 bd 44 16 88 bc 54 49 15 bc 8a 2c c1 bd
       -0.09460425 -0.01661218 -0.009111721 -0.09432323
000390 44 73 35 3c d6 61 95 3d d8 8a 9d bd b3 cf 12 bd
       0.011074845 0.07294051 -0.07692498 -0.03584261
0003a0 69 60 ae bd 98 7b 8a bd f0 8d 40 3c 72 e5 db bd
       -0.085144825 -0.06761855 0.011752591 -0.107371226
0003b0 45 66 99 3c e9 4d 14 3d 69 94 07 3b 3c bf 0a 3d
       0.018725524 0.036207113 0.0020687825 0.03387378
0003c0 35 6a 93 bc 1a de b6 3c e0 d4 be bd 1e d0 a2 bd
       -0.01799498 0.022322703 -0.093179464 -0.079498515
0003d0 e4 3d ee 3c 00 3d 1f bb 5f 33 a5 bd ff 1e a2 bd
       0.029082246 -0.0024297833 -0.08066439 -0.07916068
0003e0 01 4b 98 3d 7e 14 bb bd ec bb a0 3d 36 90 08 bd
       0.07436181 -0.09134768 0.07848343 -0.033340655
0003f0 cf b8 82 3c f2 80 1f 3d b5 ce 17 3d 64 fa b6 3c
       0.015957264 0.03894133 0.037062366 0.022336192

encoder_conv.4.bias f4 [64]
000000 5a 1c a0 3c df 3b 32 bd dd 42 52 3d 7d 56 39 bd
       0.01954477 -0.04351413 0.051333297 -0.045248497
000010 63 bb 6e bd fe 81 69 3b fd 32 bd 3d 89 b3 a1 bd
       -0.058284175 0.003563046 0.09238241 -0.07895572
000020 19 cc b5 bd 49 cb 91 3d 19 58 30 bc 3a cc c6 3d
       -0.08876819 0.07118852 -0.010763192 0.09706922
000030 82 85 9a 3d 43 69 7a bd 3d 5b c8 3d 22 fc 01 3c
       0.07544996 -0.06113554 0.09783027 0.007933648
000040 43 cc ab 3d 96 51 b2 bd 9a 30 86 3d fa 9f b8 3c
       0.08388569 -0.087069675 0.06552239 0.02253722
000050 df 08 7e bd 98 f4 57 bc d0 e6 31 bd b9 e0 0e bd
       -0.06202018 -0.013180874 -0.04343301 -0.03488228
000060 67 64 b6 3c da 41 59 bb 2e 6f 5f 3c 83 d3 9f 3d
       0.022264672 -0.0033150823 0.013637347 0.078040145
000070 aa 97 d6 3c ba 3b ce bd e7 80 94 3d af b3 41 bc
       0.026195366 -0.10069986 0.07251149 -0.011822625
000080 19 b2 b8 bd c0 92 28 3d 43 58 20 bd e6 a2 cf 3d
       -0.090183444 0.041155577 -0.039146673 0.10138492
000090 f1 24 4a bd 9e 8b 2b 3d ef b3 05 3d fd 2a 29 3d
       -0.049351636 0.041881196 0.0326423 0.041300762
0000a0 d7 04 d5 3d 61 8f 86 bd 98 3a 03 3d cf f0 5e bd
       0.10401314 -0.06570316 0.0320383 -0.05442887
0000b0 5e 9c c2 3d f4 ef 2b bc 8a a5 9e 3d f5 21 e2 bc
       0.09502481 -0.010494221 0.07746418 -0.027604083
0000c0 16 cb f4 bc 73 a4 d3 3c 33 fb c1 3d 1b 23 82 3d
       -0.029881995 0.025835251 0.094717406 0.06354352
0000d0 98 0a 2a 3d b9 c1 15 bc 89 49 34 bd a0 ef 8e bc
       0.04151401 -0.009140425 -0.04401544 -0.017448246
0000e0 4b 94 25 bd 5f 58 ad 3d 6a 6b f8 3c 22 dd 8d bd
       -0.040424626 0.08464121 0.030324657 -0.06926943
0000f0 ff 32 d4 bd 69 e6 c4 bd b0 8a b4 ba ee 87 93 bd
       -0.10361289 -0.0961426 -0.0013774242 -0.07203661

encoder_conv.6.weight f4 [64, 64, 3]
000000 d0 be 10 3a fd 13 a6 bc 4e bc 2d 3d 2f 66 ec b1
       0.00055215973 -0.020273203 0.04241591 -6.880121e-09
000010 67 b3 6b bd 81 65 29 3d 4f 23 32 bb b9 3f f9 3c
       -0.05754414 0.041356567 -0.002718169 0.030425893
000020 ec 27 7d 3d 42 f8 de b8 d5 91 0d 3d c3 9a 98 bd
       0.06180565 -0.000106320265 0.034562904 -0.074513935
000030 05 ca 07 af e3 c0 8b bd 5f ca f0 3c c6 0c ab 3b
       -1.234995e-10 -0.068238996 0.029393373 0.0052200286
000040 2b 8f a7 3d 05 fa 04 3d 31 36 72 3a a5 b8 60 3d
       0.08181604 0.032465 0.00092396425 0.05486359
000050 4f fc 98 3c 39 0c 06 33 32 3a 79 3c 0f 02 b1 3c
       0.018674998 3.1210423e-08 0.015211629 0.021607427
000060 d4 b3 e6 34 f5 bd 0d bd 8e 37 3a 3d ab 28 c7 39
       4.297168e-07 -0.034604985 0.045463137 0.00037986538
000070 1f 48 6b 3d ce f7 82 3d 57 b0 04 30 91 ff 9d 3c
       0.057441827 0.06394921 4.8271914e-10 0.019286903
000080 a6 7a b7 bc 47 ef 8a b7 2f f3 e2 bb 5b b7 b4 bd
       -0.02239735 -1.6562304e-05 -0.0069259624 -0.08824035
000090 d4 a8 22 37 ae 81 9a 3d 3b c4 74 3d c0 e8 1c b9
       9.695261e-06 0.07544266 0.059757452 -0.00014964025
0000a0 2a 5e 45 bd df 9b b4 bd cb 37 1c bb 39 74 f3 bc
       -0.048185505 -0.088187926 -0.0023836966 -0.029718505
0000b0 7f d0 0c bc eb ce a6 31 f0 df 2a bd 73 7d 81 bc
       -0.008594631 4.8547597e-09 -0.04171747 -0.01580689
0000c0 d6 a0 55 ba 0d 10 03 bd 43 cf 68 bd 42 99 f4 30
       -0.00081492716 -0.03199773 -0.056838285 1.7796895e-09
0000d0 1f 91 63 bd 6a b8 47 bd 14 df 71 b9 ca 3a 84 bd
       -0.05555832 -0.048759855 -0.00023066654 -0.064565256
0000e0 89 b5 a6 3b fd 45 84 ba 94 24 e1 3c 0b 01 f1 3c
       0.0050875586 -0.0010091659 0.027483262 0.029419443
0000f0 1a 1c 0b b7 fa 04 5f bd f3 7e f5 3c bc 92 60 bb
       -8.2915885e-06 -0.054448105 0.02996776 -0.0034267148
000100 e4 f4 1d bd 7a 31 6b bd 73 40 7c ba 38 77 5e 3d
       -0.038563624 -0.05742023 -0.0009622641 0.054312915
000110 9d db 18 3c 96 ad bf b3 9d c1 7b bd 95 59 6b 3d
       0.009329704 -8.925706e-08 -0.06146394 0.05745848
000120 79 87 ec 39 14 dc df 3c d5 c6 58 3d 19 76 33 b9
       0.00045114363 0.027326621 0.052923996 -0.00017114765
000130 62 52 e2 bc 0a a1 bd 3c ec 25 b3 b4 16 25 a9 3d
       -0.027627174 0.023148078 -3.336894e-07 0.08259027
000140 48 b8 4d bd 5d c7 8c 30 fe 6f 7b bd 56 9c 16 bd
       -0.050224572 1.0243003e-09 -0.0613861 -0.036770187
000150 ed 86 7b 34 1e f7 b3 bc f6 a5 79 3d 51 40 d3 b9
       2.3425282e-07 -0.02196842 0.06094929 -0.00040292976
000160 40 b9 83 bd 3f 39 9b 3c e0 1a ff b8 1c 10 67 3d
       -0.06431818 0.018948196 -0.000121643534 0.056411847
000170 09 0e 5e 3d e9 d6 5d 3a 4e 9c 8e bd a3 8a 00 3d
       0.054212604 0.0008462505 -0.069634065 0.031382214
000180 c2 7b e4 ba 84 c2 cd 3a 2a 82 7d 3d c1 de 8c b2
       -0.0017431902 0.0015698229 0.061891712 -1.6399442e-08
000190 82 6a 4a 3a b6 0b 82 3d 20 a0 71 3a 30 6c db 3c
       0.00077215594 0.0634989 0.0009217281 0.026784986
0001a0 cc 07 7c bc ce d0 35 35 42 19 7a bd d5 9d 0a 3c
       -0.015382718 6.7731605e-07 -0.061059244 0.008460482
0001b0 9f b4 28 bb 4e f9 8c bd 6b 93 a7 3d ca c1 a4 3a
       -0.0025742424 -0.068834886 0.081824146 0.0012569961
0001c0 4f 9f a4 3d b3 26 93 3c 5b 1e 8e 35 a0 c2 80 bd
       0.08038198 0.01796279 1.0588659e-06 -0.06287122
0001d0 53 04 e9 ba 1b 7b 05 34 77 5f cb 3c 28 d9 57 bd
       -0.0017777778 1.2431376e-07 0.024825795 -0.05269733
0001e0 df 38 3a 3a b3 c0 d8 3a b4 91 5b 3c 99 aa a7 3b
       0.00071038114 0.0016536921 0.013401438 0.0051167724
0001f0 8a ac 60 bd 7b 36 2a 3d a5 d0 91 3a 55 10 8b bc
       -0.054852046 0.041555863 0.0011124803 -0.016975561
000200 4d f4 31 3d 07 22 64 ba 6e 53 55 3d 1c 4f 9a bd
       0.043445874 -0.000870258 0.052081518 -0.0753462
000210 52 ae d3 ba 80 18 20 bc bd 94 c6 3c a9 4d 20 b3
       -0.0016149974 -0.009771466 0.024240846 -3.7323534e-08
000220 c8 f0 b1 3c 5a e2 fd 3c c1 43 02 2e ac b7 75 bd
       0.021721259 0.030991722 2.9618755e-11 -0.059989616
000230 c5 1a 25 bd 32 1b 9f ae 45 24 6d bb 19 ad 8a 3d
       -0.040308733 -7.235314e-11 -0.0036184948 0.06771297
000240 49 5d bd b8 cf e0 8a 3d 17 1d 1e bd 78 bc d3 b1
       -9.029598e-05 0.0678116 -0.03860196 -6.1623346e-09
000250 7d f8 e6 bc 9c af bf bb 23 db 8a af f2 0c 02 bd
       -0.02819466 -0.0058497917 -2.525776e-10 -0.031750627
000260 f9 90 01 ba 55 75 3c 35 d7 b7 ba bc 5a 17 52 3c
       -0.0004942562 7.02062e-07 -0.02279274 0.01282295
000270 8e 3e 52 3a c7 9b 7b 3d 01 ff 35 3d aa 5e d7 38
       0.00080201856 0.061427858 0.044432644 0.000102696315
000280 81 ce 1b 3d 08 76 87 bc 7b fb e7 b8 a2 bd 51 bd
       0.038038734 -0.016535774 -0.0001106178 -0.05120624
000290 e0 8f 8d bd 4c 03 13 31 df 35 64 bd 7b 88 04 3d
       -0.069122076 2.139319e-09 -0.055715438 0.03235672
0002a0 dc 3f 8c 2f 87 58 f5 3c a9 17 2c 3d c1 12 27 af
       2.5511226e-10 0.02994944 0.04201475 -1.5195224e-10
0002b0 c0 03 2c bc 9c 4a 0f 3d d1 9d be 2e 90 03 ab bb
       -0.010498941 0.034983262 8.6682335e-11 -0.0052189305
0002c0 25 7f 07 3d e1 22 86 b0 1d 36 a9 3b 35 98 74 3d
       0.03308024 -9.759696e-10 0.0051639215 0.05971547
0002d0 48 59 26 37 a6 d3 41 3d 11 b0 b1 bc c3 8f bb b2
       9.915158e-06 0.047320984 -0.0216904 -2.183504e-08
0002e0 64 83 32 3c 40 8a 3b bc d1 2e 01 af 55 ad 3d bc
       0.010895584 -0.011446536 -1.1749114e-10 -0.01157697
0002f0 62 87 05 bd c9 de 67 3b 7b 00 2c bd 11 9e 27 3c
       -0.032599814 0.0035380593 -0.041992646 0.010230557
000300 ca 40 05 39 19 60 fa bb 62 8f 8e bd f4 3f ae 39
       0.00012708004 -0.0076408503 -0.06960942 0.00033235515
000310 97 ed 8b 3d 11 00 75 bc 05 e3 02 ba 58 2c 89 3d
       0.06832426 -0.014953629 -0.0004992935 0.06697911
000320 c0 af 82 3d 71 94 99 31 d2 91 5d bd 21 cd f6 3c
       0.06381178 4.469762e-09 -0.054094143 0.03012711
000330 95 ce a6 39 fe 9a 07 bd 3e 24 b1 3c 25 73 8d 32
       0.00031815903 -0.033106796 0.021623727 1.6466922e-08
000340 df 85 09 3d d4 d1 22 bc 14 a7 44 2f 89 1a 82 bd
       0.033574935 -0.009937722 1.7885454e-10 -0.063527174
000350 18 6a 63 bc ba ff 51 bb 0b 36 78 3d c5 2b 87 3b
       -0.013880275 -0.0032043294 0.060598414 0.004125091
000360 5d 45 f9 33 62 c4 2b 3d 82 ec c2 3c 42 cc 75 bb
       1.1607583e-07 0.041935332 0.023794416 -0.003750578
000370 f0 d3 82 3d 38 e6 95 bd e0 84 86 3b aa 82 30 3a
       0.0638808 -0.07319301 0.0041051954 0.00067333377
000380 04 3e 7b bd 8c 67 a2 b5 6f a4 72 bd 52 28 8b bd
       -0.06133844 -1.2100077e-06 -0.059238847 -0.067948
000390 76 81 db 2e 0a 61 17 3d c1 03 62 bd 66 e9 e8 30
       9.981964e-11 0.036957778 -0.05517936 1.6946557e-09
0003a0 03 8d 42 3d 31 d7 67 3d 21 80 85 ae 40 58 3a 3d
       0.04749776 0.056601707 -6.0709e-11 0.045494318
0003b0 0f 9e 1f bd f9 d8 49 2e 20 d5 d7 bb 69 e2 4d bc
       -0.038969096 4.589482e-11 -0.006586686 -0.012566187
0003c0 1d bb 8c bb 0a e6 77 bd 82 fc e6 bc a7 49 85 ae
       -0.0042947666 -0.060522117 -0.028196577 -6.061223e-11
0003d0 11 5e 27 3b 61 57 39 bd b6 23 7d b1 21 08 70 3d
       0.0025538246 -0.045249347 -3.6836645e-09 0.058601502
0003e0 50 8d 8c bb 15 94 81 b5 8e 25 16 3d e0 dc 3a 3c
       -0.0042893067 -9.654347e-07 0.03665691 0.0114052
0003f0 0a 81 2b ba a1 7c 92 bc a6 9b 42 3d 5b af 32 3a
       -0.00065423606 -0.017881693 0.04751172 0.0006816291

encoder_conv.6.bias f4 [64]
000000 0c 33 8a bb 56 8f e9 3c 4a 16 6b 3b f1 5f 43 bd
       -0.004217511 0.02851073 0.003587144 -0.04769892
000010 e8 b7 35 bd bf b5 5f bd 2c 1d 48 bd 7b 93 3d bc
       -0.04436484 -0.054616686 -0.048855945 -0.011570807
000020 75 4a 04 bd 52 57 db bc 96 a4 da bc 5b 33 6d 3c
       -0.03229757 -0.026775036 -0.026689809 0.014477576
000030 cf 0e 14 bc 8b 2e ad 3c 56 73 8c bd 60 3d 34 bb
       -0.009036734 0.021140357 -0.06857936 -0.0027502403
000040 49 a6 ef 3c 58 a2 92 3d 55 74 b4 3c 2b bf df bc
       0.029254096 0.07159871 0.022028128 -0.027312836
000050 f4 6c a2 bd 21 56 b8 3c aa 5d b7 3c fa 53 4f 3c
       -0.079309374 0.022502007 0.02238353 0.012654299
000060 0e 3c a8 bc 6f 0d 83 bd d9 92 2b 3d 76 22 87 3d
       -0.020536449 -0.06399047 0.04188809 0.0659837
000070 29 03 5c 3d d3 b8 86 bd 78 6f 8a 3c 7c f4 7b 3d
       0.05371395 -0.06578221 0.016898856 0.061512455
000080 6f e7 ff ba 4f 8a 87 3c c8 52 0c 3c 93 7e 64 bd
       -0.0019523929 0.016545443 0.008564658 -0.055784773
000090 9a 57 1a 3d 2c fb 89 3d de e7 11 3c c8 48 0b 3c
       0.0376812 0.0673736 0.008905379 0.008501239
0000a0 1e a6 39 bc 66 89 81 3d d8 c7 cf 3c 48 5b 95 3d
       -0.011331109 0.06325035 0.025363848 0.07292801
0000b0 2e ec 4b 3d 68 5f b1 3b 91 bd 36 bd e2 f2 c1 3c
       0.049785785 0.0054129846 -0.04461438 0.023675386
0000c0 06 66 01 bd 39 0a 67 bd 7c a6 35 bd ea ce d8 bc
       -0.031591438 -0.056406233 -0.044348225 -0.026465852
0000d0 90 b9 2d bd e8 0b c2 3b fc f0 25 bd b3 27 7a bd
       -0.042413294 0.0059218295 -0.040513024 -0.061073016
0000e0 a2 4d 58 bd d9 28 80 3a 5c b1 21 bd e3 ec 8c 3d
       -0.05280841 0.0009777799 -0.039475784 0.0688112
0000f0 6c a4 80 bd 2f 72 ec 3c 28 92 31 bc 66 0f 7a 3d
       -0.06281361 0.02886304 -0.010838069 0.06104984

encoder_fc1.0.weight f4 [64, 64]
000000 e8 e9 e6 bd bd 20 83 bc 98 c8 67 bd 47 f3 b6 bd
       -0.11275083 -0.016006822 -0.056587785 -0.0893312
000010 56 62 cc 3c 9a 38 96 bb 64 a6 a5 bd 5a c7 82 bd
       0.024949234 -0.004584384 -0.08088377 -0.063856795
000020 0a 27 2d 3b 30 54 40 bd 2d 85 8d 3c 01 c3 de 3d
       0.0026420974 -0.046955287 0.017275417 0.10877038
000030 11 18 ed bd 9b e7 aa 3d 36 44 bc 3c 42 91 73 bd
       -0.11576856 0.083449565 0.022981744 -0.0594647
000040 45 71 2f bd bd e5 de bd 93 0c 6d bd 6a bb 14 3c
       -0.04283263 -0.10883663 -0.05787332 0.009077886
000050 f5 a1 94 bd 5d 43 76 3d ef e8 66 3b 31 ca 2e 3d
       -0.07257453 0.060122836 0.0035234054 0.042673294
000060 87 7e 35 3d e3 60 a8 3b 27 f0 86 3d 76 2a 2c bc
       0.04431012 0.005138503 0.06588774 -0.01050817
000070 47 76 cd bc 31 22 01 bd 5d 47 81 bd ee ec db 3d
       -0.025080813 -0.031526748 -0.063124396 0.1073855
000080 05 99 dd 3c c1 c4 fc bd e6 7e 71 bd 3b f4 54 3d
       0.027050504 -0.12342215 -0.05895891 0.05199073
000090 bd de 3b bd b0 ef f8 3d 5c 31 9e ba 2f c6 b8 bd
       -0.045866717 0.12155092 -0.0012069154 -0.090221755
0000a0 10 1f a1 bd a0 00 9f bd 88 65 e0 bc f1 4d b2 bd
       -0.07867253 -0.07763791 -0.027392164 -0.087062724
0000b0 35 3a 80 bd 40 e2 29 bd 76 10 51 bd 43 05 9f bc
       -0.06261102 -0.041475534 -0.05104109 -0.019411689
0000c0 67 0e b7 bc fe be dc 3d 9b e2 82 bd 40 3a fd bc
       -0.022345735 0.10778616 -0.06390878 -0.030911565
0000d0 e6 36 e8 3d 07 2c a1 3c d4 ae ea bd e4 0a 81 3d
       0.11338596 0.019674314 -0.11459127 0.06300905
0000e0 8e eb 09 bd 06 07 8c bd b1 1d 2e 3d 98 da 17 bd
       -0.033671908 -0.06837277 0.042508785 -0.0370737
0000f0 d1 1c 5d bd b7 24 b3 3d 06 33 01 3e ed 19 78 bd
       -0.05398256 0.08747237 0.1261712 -0.0605716
000100 77 67 8f bd 3a 5a a6 3d 7e 0f e4 bc 54 c8 2d 3d
       -0.07002156 0.08122678 -0.027839419 0.042427376
000110 09 36 ff bd d5 58 db 3d f0 07 45 3d be 54 b5 bd
       -0.12461478 0.10710303 0.048103273 -0.08854054
000120 25 62 32 3d 90 99 bd 3d 8c ba b9 bd aa 24 b0 3d
       0.04355063 0.09257805 -0.09068784 0.08600743
000130 f6 52 7c bd f1 6e a5 3d 58 26 36 bd 46 13 ff 3b
       -0.061602555 0.08077801 -0.04447016 0.00778428
000140 db 65 27 3c 0a 55 b3 3d 0d d3 a8 3d 36 3d fb 3d
       0.010217155 0.08756454 0.0824338 0.122675344
000150 71 d6 92 bd 23 51 2d 3d 2d ba 80 3c 5a c9 02 be
       -0.07169808 0.042313706 0.015713776 -0.12772122
000160 fa 41 3c bd 06 88 10 bd d4 e4 9f bd 1f 8c ed 3b
       -0.045961358 -0.035285972 -0.078073174 0.0072493698
000170 7d 86 72 bd d3 01 bb bd ec 5a 84 bd 84 99 e9 bc
       -0.05921029 -0.09131207 -0.064626545 -0.028515585
000180 03 e8 4e bd d9 9d 70 3b 46 d0 17 3d 20 2f d0 bd
       -0.050514232 0.0036715178 0.03706386 -0.101652384
000190 e2 09 12 bd c8 ef 91 b9 d4 84 02 3e 24 8b d2 bc
       -0.035653956 -0.00027835206 0.12745982 -0.025701113
0001a0 8f 17 1a bb 82 ed a3 3c 08 e3 a9 3d ad f2 9e 3c
       -0.0023512577 0.020010713 0.08295256 0.019402826
0001b0 64 58 c8 bc 39 b1 0d bd c0 b6 d9 bb 9d c5 30 3c
       -0.02445621 -0.03459284 -0.0066441 0.010789302
0001c0 58 d8 32 bb 3a 99 82 bd c0 51 e3 bd a0 3e 78 bd
       -0.0027289595 -0.06376882 -0.11099577 -0.0606066
0001d0 73 e1 ce 3d 4c 69 a0 3d ab d1 ea bc 17 63 1c 3c
       0.10101595 0.07832584 -0.02866443 0.009545109
0001e0 c3 aa 47 bd 6e 1d b8 3c 24 65 cb bd b0 54 0c bd
       -0.048746835 0.02247497 -0.099314004 -0.03426045
0001f0 fd a8 c8 3d d7 85 43 bd e3 50 68 bc bf 16 81 3d
       0.09797857 -0.04773506 -0.014179441 0.063031666
000200 48 ef 8f 3d 7b 7f 7e bc 34 aa f0 bc f0 5b cd bd
       0.07028061 -0.015533323 -0.029378034 -0.10027301
000210 e9 35 c3 bd d0 6d 04 be bf b7 12 bd 7b 4d 9e 3d
       -0.09531767 -0.12932515 -0.035819765 0.07729622
000220 74 4b a4 3c d7 63 ce 3d fa 11 b8 3d 34 ff 79 3d
       0.02005551 0.10077637 0.08987804 0.061034396
000230 00 2f e5 bd 95 71 9c bd 00 fe a7 3c d3 6f c2 bd
       -0.11190605 -0.076388516 0.020506859 -0.09493985
000240 94 0c a9 bd a8 11 1f bb dc b0 39 3d 43 55 73 bd
       -0.08254352 -0.0024271999 0.045334682 -0.059407484
000250 00 31 56 3d 95 31 49 3d 13 80 92 bd 52 b2 27 bc
       0.052292824 0.04911955 -0.071533345 -0.010235386
000260 37 83 6a 3d d3 fe 7f 3d ca d8 6f 3c c7 96 03 3e
       0.057254042 0.06249888 0.014639089 0.12850486
000270 b8 89 18 bd 1e 6f d5 bd 62 b6 a3 3d 62 fb bf bd
       -0.037240714 -0.104215845 0.07993771 -0.09374119
000280 80 eb ba 3d 67 bd e7 bd 47 60 d2 3d 7e ef 82 3d
       0.09126949 -0.113154225 0.1027227 0.06393336
000290 16 8c a1 bd bb 9a c6 bd e9 d0 00 bd 74 81 88 bc
       -0.078880474 -0.09697481 -0.031449232 -0.01666329
0002a0 13 67 1f bc d8 90 57 3d 3f 91 01 bc f1 45 c4 bd
       -0.009729165 0.05262837 -0.0079081645 -0.09583653
0002b0 05 ff e4 bc c0 96 b5 3d 9d f1 97 bc ed 8c 02 3e
       -0.027953634 0.08866644 -0.018547827 0.12749071
0002c0 ca 9c 4c bc ab b9 bf 3d 98 58 a1 bc 68 98 ee bc
       -0.012488553 0.09361585 -0.019695565 -0.029125407
0002d0 64 25 e4 bc ee 57 8f 3d f3 73 f5 bc 37 d7 32 bd
       -0.02784986 0.06999193 -0.029962515 -0.043662276
0002e0 74 e0 f4 3d ab bf aa 3d e6 2d f4 3d 61 e2 8a bd
       0.119568735 0.08337339 0.11922817 -0.067814596
0002f0 6e ef 05 3d 37 a6 bc bd cc 0b de bb 44 48 a7 3d
       0.03269904 -0.092113905 -0.0067763086 0.081680804
000300 1d 0e 19 bd f9 34 8f bd 5e 90 9e bd c4 d6 a0 3d
       -0.037366975 -0.069925256 -0.077423796 0.07853463
000310 d0 22 be 3d 75 e0 d6 bd 8f ae 98 3d 0d 48 83 3d
       0.09283984 -0.104920305 0.074551694 0.06410227
000320 cd 32 2a 3d a1 ca bc bd b2 32 6b bc a2 3a d0 ba
       0.041552354 -0.09218336 -0.014355348 -0.0015886615
000330 ae 30 1e bd 03 09 a9 3c 27 e6 1f 3d ba 15 e6 3d
       -0.038620643 0.02063418 0.03903785 0.11234613
000340 03 85 67 3d 9b f8 a8 3d fc 1e b1 bd c5 b6 f5 3d
       0.056523334 0.08250543 -0.08648488 0.11997751
000350 9a 14 a2 3d c4 8d 2b 3d b9 79 8a bd b7 94 de bd
       0.07914086 0.041883245 -0.06761498 -0.10868209
000360 92 af b9 ba 62 45 96 3d d8 c6 d3 bd ef 98 79 3c
       -0.0014166704 0.073374525 -0.10340661 0.015234216
000370 74 0e 58 bd 07 7a 88 bc c2 57 e4 bc 37 41 ff bd
       -0.05274816 -0.01665975 -0.027873877 -0.124636106
000380 49 b4 be 3d 25 6e 1f 3d a8 6e 75 bb 00 40 8f 3d
       0.093117304 0.0389234 -0.003744999 0.06994629
000390 77 84 ab bc 48 47 a2 bd 87 5f ba bc 21 d1 42 3b
       -0.020937188 -0.07923752 -0.02275063 0.0029726701
0003a0 a7 f3 a0 bc 0d 8e b0 bd 65 95 1b bd c2 72 e2 3c
       -0.019647432 -0.08620844 -0.03798427 0.027642611
0003b0 e1 21 d5 3d 64 46 e6 3d 13 31 a8 bd 1d 67 49 bc
       0.104068525 0.11243895 -0.08212485 -0.0122926505
0003c0 20 b0 a6 bd 31 f7 e4 bd cb 9d 7c bd 19 44 2b 3d
       -0.08139062 -0.111799605 -0.06167392 0.04181299
0003d0 1e 55 52 bd 76 dd 2e 3d 66 d3 d8 3d c0 e6 bf 3d
       -0.051350705 0.04269167 0.10587196 0.09370184
0003e0 51 fb f5 3d c3 10 8a 3d 79 4d 5f bd 8a d0 b4 bd
       0.120108254 0.06741478 -0.054517243 -0.08828838
0003f0 01 2d 93 bd 23 36 91 bc 30 b9 8d bb 93 f4 08 bd
       -0.07186318 -0.01772601 -0.0043250546 -0.03343637

encoder_fc1.0.bias f4 [64]
000000 39 5b e4 bc b7 f2 57 3d 09 94 e2 3d 84 94 8b 3d
       -0.02787553 0.052721705 0.11063392 0.068154365
000010 12 12 94 3d 88 64 05 3e 59 74 9b bd 84 0c 9d bd
       0.07230009 0.13026631 -0.07590551 -0.07668403
000020 f4 ad 9c 3d 42 33 bd 3b 9f f6 4b 3d 6e 32 89 3d
       0.076503664 0.0057739327 0.049795743 0.06699072
000030 f3 1a cf bd 91 d8 73 3b 86 58 a7 3d db af 9d bb
       -0.10112562 0.003720794 0.081711814 -0.0048122234
000040 fd ae 0d 3b e0 94 80 bb c8 65 bd 3a 55 ed b1 3d
       0.0021619194 -0.0039239973 0.0014449889 0.086878456
000050 e0 0c 90 ba ee 20 a8 bc d6 f9 7c bd 22 1e 76 bc
       -0.0010990165 -0.020523515 -0.0617617 -0.015021833
000060 5d 4d 42 bd 82 de ae bd c4 4f 96 bd 35 73 35 bd
       -0.04743706 -0.08538534 -0.07339433 -0.044299323
000070 fc 3e aa 3c df 67 c5 3c 66 6f d2 bd 93 c3 f2 3c
       0.020781986 0.024097381 -0.10275154 0.029634273
000080 4e 58 b4 3d 80 84 81 3d b7 c5 4e 3d 13 8e ae bd
       0.08805905 0.063241005 0.050481524 -0.08523192
000090 84 93 5e bd b0 62 ca 3d 9b 1d 79 bd 14 ec 1a bd
       -0.0543399 0.098821044 -0.06081925 -0.037822798
0000a0 ef 89 c4 bd 20 9d 96 bc bc 59 a9 bd cf 5b 27 bd
       -0.09596621 -0.01838547 -0.082690686 -0.04085904
0000b0 71 f9 e5 3d 28 f3 b4 3d c7 6f 7f bc c2 15 e3 bd
       0.11229218 0.08835441 -0.015590615 -0.11088134
0000c0 d3 b9 88 bd 58 83 71 bd 3c cb d5 bc 57 88 47 3d
       -0.06676068 -0.05896315 -0.026097886 0.04871401
0000d0 b3 95 ed bd d3 ea c8 bd 14 73 1e 3d da 70 fc bc
       -0.116008185 -0.09810414 0.038683966 -0.03081553
0000e0 0b 49 04 be 7c 63 68 3b ec 56 96 3d 2e 4f b9 bd
       -0.12918489 0.0035459688 0.07340798 -0.090483055
0000f0 d4 b6 46 3d fc b9 6c bd c0 ab 69 3d 44 a6 ea bc
       0.048514202 -0.057794556 0.05704856 -0.028643735

encoder_fc1.2.weight f4 [64, 64]
000000 80 e2 36 3b 52 46 40 3c f4 4c 9d 3d 5f d4 00 bd
       0.0027906 0.011735516 0.07680693 -0.031452533
000010 1a df e7 bb d6 26 1c bd f2 a0 6b bd 11 63 31 bd
       -0.0070761563 -0.038122974 -0.057526536 -0.043307368
000020 00 46 04 3d 9b cd 97 bd 96 2b e5 bd f4 40 4e bb
       0.03229332 -0.07412263 -0.11189954 -0.003147182
000030 db 4b c9 bb 50 1e da 3d 72 3b 45 3c 01 be 38 bd
       -0.006143076 0.10650313 0.012038099 -0.045103077
000040 e8 16 b1 bc 30 82 2a 3c da 27 8c 3c 54 35 cb bd
       -0.021617368 0.010407016 0.017108846 -0.09922281
000050 24 4a 15 3d 21 c4 ce 3d 7d b5 b1 3d f8 64 19 bd
       0.03644766 0.10096002 0.08677194 -0.037449807
000060 9b ce b8 3d f7 20 c5 3d f9 f5 c0 bd 3d d1 43 bd
       0.09023782 0.09625428 -0.094219156 -0.047806967
000070 29 8f d3 bc c0 c5 d0 3c c9 fd ba 3d 9e a4 ad bd
       -0.0258251 0.02548492 0.09130437 -0.08478664
000080 e8 97 c4 3c 99 10 af 3d 32 d7 86 bd a0 ac f1 bd
       0.023998216 0.085480876 -0.06584014 -0.11800504
000090 48 8a 6d bd 65 7d a5 bd 75 e8 1d 3d e5 d3 70 3a
       -0.057993203 -0.08080558 0.038551766 0.0009186848
0000a0 e0 b6 d9 3d b9 b9 db 3c 42 c8 4e 3d 2e d6 e7 3d
       0.10630584 0.026821958 0.05048395 0.113201484
0000b0 2e a1 89 3d c6 e1 a1 bc d2 e4 d0 3c 66 ce fb 3d
       0.06720196 -0.019760977 0.025499735 0.12295227
0000c0 de e2 3d 3d 2a f0 97 bc 24 92 ef bc 7b df a9 bc
       0.046358936 -0.018547136 -0.02924449 -0.020736447
0000d0 f4 11 00 be f7 24 b2 3c 00 eb 48 bd b6 11 8a 3d
       -0.12506849 0.021746142 -0.04905224 0.06741659
0000e0 a2 1c f8 bd 06 2a 5e 3d 19 0a df bd 4e 5c fa 3c
       -0.12114836 0.054239295 -0.10890598 0.030561592
0000f0 ca 48 27 bd c7 bf 76 bd e1 27 2f bc 08 d0 e1 bc
       -0.0408409 -0.060241487 -0.01069066 -0.027565017
000100 0b 1a 8f 3d da 53 1f bd af 15 6c 3c 9f 00 34 3d
       0.06987389 -0.038898326 0.014409467 0.043945905
000110 6f 91 03 3e e7 fa 9f bd a7 f6 e8 bd 51 7e 26 3d
       0.12848447 -0.07811528 -0.1137517 0.04064781
000120 54 d9 9b 3d 79 dd fa bd 12 8f e1 3d 64 08 5e 3d
       0.076098114 -0.12249274 0.110136166 0.05420722
000130 ef 79 f4 bd 6b e6 f1 bb 25 af cf bc d1 ec 2c bd
       -0.119373195 -0.0073822043 -0.02535207 -0.042218033
000140 60 1a 2f 3d da f7 05 3e 3e f9 b6 3d 24 78 e6 bd
       0.042749763 0.13082829 0.08934258 -0.11253384
000150 dd fe ed bd 02 5d ca bb 1d 68 77 3d b3 a4 aa bd
       -0.11620877 -0.006175638 0.060402025 -0.08332195
000160 b1 8d d8 3d af 9a 7c 3d 84 fa f6 bd fe a7 27 3d
       0.105739005 0.061670955 -0.12059501 0.040931694
000170 b1 31 85 3c 3c e8 cf bd 78 b5 04 3d e0 71 2d 3d
       0.016259046 -0.10151717 0.032399625 0.042344928
000180 25 79 8e bd e2 e1 d9 3d 71 ba eb 3c e9 d1 b0 bd
       -0.069567 0.10638787 0.028775426 -0.08633787
000190 34 49 83 3d 27 30 d4 3d 6f 0a 59 3c cb 88 d6 bd
       0.06410447 0.10360747 0.0132471165 -0.1047531
0001a0 b5 42 ab 3b fa 3b 92 3d c2 7f df bc f3 12 2e 3d
       0.005226458 0.07140346 -0.0272826 0.04249854
0001b0 50 b3 84 bd f8 44 fc 3d 15 ae 4b 3d fa cf 28 3d
       -0.06479514 0.12317842 0.049726564 0.041213967
0001c0 35 bd d9 3d d8 56 6a bd 04 0f bf 3d 74 08 88 3d
       0.106317915 -0.057211727 0.09329036 0.06642237
0001d0 d7 a7 88 bb ab 2f 18 bd 12 13 ef 3d 30 90 fc bc
       -0.0041703987 -0.037154835 0.11673559 -0.030830473
0001e0 5b dd ca bd 32 0e 54 bb 9e ff 61 3c 59 34 ad 3d
       -0.099055015 -0.0032357094 0.013793854 0.0845725
0001f0 04 d5 9e 3d f7 b3 41 bd a1 a4 f9 bd 5d 59 38 3d
       0.07755473 -0.04729077 -0.121896036 0.0450071
000200 7c 76 8d bd 83 31 9e bd 7e 78 c6 3c c8 68 9e 3d
       -0.06907365 -0.07724287 0.024227377 0.07734829
000210 70 14 be bd 46 c0 6e 3c f9 43 9f bd 44 85 a3 3c
       -0.09281242 0.014572209 -0.07776637 0.019961007
000220 e0 6d d9 3d 58 36 ec b9 be 3d 61 3b 28 c3 81 bd
       0.1061666 -0.00045053917 0.0034369077 -0.06336051
000230 1e 73 c3 bd 99 b4 1e 3d e1 81 f8 bd a0 f1 d5 3c
       -0.09543441 0.03874645 -0.121341474 0.026116192
000240 7e 5d 27 bc 04 6c 38 3b 42 ef 57 3d e1 1c dd 3c
       -0.010215161 0.0028140554 0.05271841 0.02699131
000250 d6 27 b4 3c 21 79 e7 bd 29 4b 69 bd 7f c5 c0 3d
       0.021991652 -0.113024004 -0.056956444 0.094126694
000260 56 af b6 3c 1a ed 4b 3d 2e 51 da 3d 5b 0d e6 3d
       0.022300404 0.049786665 0.10660015 0.11233016
000270 32 76 e4 bd f4 ce b5 3c ca 98 0b 3d bc c6 c8 3d
       -0.111553565 0.02219341 0.034081258 0.098035306
000280 fe 69 4d bd 44 80 08 bd 95 2f 06 3d ce 59 c2 3d
       -0.05014991 -0.03332545 0.03276022 0.09489785
000290 66 37 ab bd f8 3f 32 3d 55 b4 7e 3d 72 36 38 bc
       -0.08360176 0.043518037 0.062183697 -0.0112434495
0002a0 7e a3 39 3d cd a4 98 bc af a9 c3 bb 72 a9 ec bc
       0.045321934 -0.01863327 -0.0059711556 -0.028889392
0002b0 14 73 cc bd 38 df 5f 3d 92 38 e4 bd b7 4f b0 bc
       -0.09982887 0.054656237 -0.111436024 -0.021522386
0002c0 c4 66 72 3d 03 57 5c bd 32 af a7 bd 0e 19 81 3d
       0.059180036 -0.05379392 -0.08187713 0.06303607
0002d0 1b c4 2e 3d b0 ce 73 3d ee 03 e5 bc 17 ba 48 bd
       0.04266749 0.059523284 -0.027955975 -0.049005594
0002e0 fe 7a c0 3d d0 a1 ed 3d 30 e9 22 3d 22 ef cb bd
       0.09398459 0.11603129 0.039773166 -0.0995772
0002f0 55 15 69 bd 2c 5b 07 3c 57 4f fe 3c 66 62 ce 3c
       -0.05690511 0.008261483 0.031043692 0.025193404
000300 89 73 f7 3d a4 84 60 bd 2e 06 43 bd aa 0a 9e 3c
       0.120825835 -0.054813996 -0.047613315 0.019292194
000310 86 13 05 be fd 34 8b bd 54 85 f9 bc d2 20 14 bc
       -0.12995729 -0.06797216 -0.030459084 -0.009041028
000320 95 92 30 3b 77 79 29 bd 71 f3 ba bd c6 27 d6 bd
       0.0026942838 -0.041375604 -0.09128464 -0.10456805
000330 20 93 70 39 ac 0d e1 bd 48 27 5e bc 0e 3c 7d bd
       0.00022942992 -0.10988936 -0.01355917 -0.06182485
000340 c2 fa ac 3d 5e 63 8e bd 09 74 ab bd a8 92 96 bc
       0.08446266 -0.069525465 -0.08371741 -0.018380478
000350 d9 e3 66 3a 32 98 b5 3c 15 3f 91 3d d2 67 d7 bd
       0.00088077557 0.022167299 0.0709211 -0.10517849
000360 8f 67 6f bc 89 05 ad 3c e0 e1 66 bd 4f f8 c5 3d
       -0.014612093 0.021120803 -0.056367755 0.09666502
000370 db 98 cb bc 29 61 93 3d 95 35 0b 3e e8 b5 59 3d
       -0.02485316 0.07196266 0.13594659 0.053151995
000380 b6 5f d6 bd aa 0d 2c 3d 1f 3e 02 be f6 7b 56 3d
       -0.10467474 0.04200522 -0.1271901 0.052364312
000390 95 68 65 3d 3f 07 30 3d 70 bb 79 39 04 a4 68 3d
       0.05600794 0.04297566 0.00023816316 0.056797042
0003a0 b0 4c c9 bc 15 00 12 3d 32 12 8d bd 55 38 66 bd
       -0.0245727 0.03564461 -0.06888236 -0.056206066
0003b0 ed d6 4a 3d e5 25 97 bd 03 1b b3 bd dc 07 dc 3d
       0.049521375 -0.07380275 -0.087453865 0.107436866
0003c0 84 e9 9a 3d f1 7a b4 3c f4 47 b3 3c 78 b3 07 3d
       0.07564071 0.02203128 0.021884896 0.03313014
0003d0 6c cf fe 3c f4 9c b2 bb 67 ad 31 bd e6 94 ec bd
       0.031104766 -0.005450839 -0.04337826 -0.115518376
0003e0 f7 e9 8f 3d 12 a8 da 3c e3 e9 de 3d b1 63 9e 3d
       0.07027047 0.02669147 0.10884454 0.077338584
0003f0 e8 84 71 bc 42 3d e8 bc 0d 90 b1 bc ce b9 bf bd
       -0.01474116 -0.028349523 -0.021675134 -0.09361611
